save_model/keyword/models/NeuralNetTorch/net.params (torch, 205447 bytes, 10 tensors)

weight f4 [128, 1]
00000000: ddc7 0da9 8484 0a3f 2c00 54bf 25f6 3bbf
00000010: d3f7 c4be 327e 8a3e c120 19bc dd1e 4e3f
00000020: 847a bfbd aad3 883e a97a 9dbe 4f4d 4fbe
00000030: 31bf 72bf f578 24bf 57dc d5be b72d 203d
00000040: 6977 c43e 29ee 193f 68bf 2bbf 526f dfbe
00000050: e546 c13e 49f0 573f ec9b 57be 2a71 3d3f
00000060: 5008 1abe 1447 d53d 68c9 693f 5120 6cbf
00000070: c57e 1ebf c186 81be fcfa c5be 391b 5a3f
00000080: 102a 26bf 3c23 f3be 28af 31bf 3d4d 6fbf
00000090: aa00 13bf 704e 5a3f 472c e33e 9758 f63e
000000a0: 3bda 0539 6f6f 00bf 56c2 233e 3931 72bf
000000b0: 2909 39bf ed3f 05bf 4456 1c3f 4b96 133f
000000c0: 58b1 e3be 4681 adb6 abac 223f c6bb 803f
000000d0: 11d7 cb3e 3d9c f73d f7f5 2a3f ece7 15bf
000000e0: 0a06 383e e003 45bf f843 33bf 9e0b 02bf
000000f0: 0f08 e53e 6b66 d13e 150d 18bf 816c 9a3e
00000100: 0efd 0e3f a5d4 fabd d5da 1237 0f31 723e
00000110: 3edb 1c3f f9be 743f 99d8 43bf 2c8d bdbe
00000120: d8d9 c73e 7b8f 533f 6a47 633f 113e 633f
00000130: 493b 633e b2f7 5dbf d438 023e 978f 1ebf
00000140: f2bf 6dbf 56a8 653f 509a 443f 6990 7dbf
00000150: 0582 403e 77d4 2fbe b5c9 28be 6b87 e5be
00000160: edbb c23e 1372 17bf 4ea9 be3e 8ef6 f83e
00000170: 8d9e 393f b6f1 c23e d2b6 7ebf c21c 25bf
00000180: 9da2 023f b4c6 4f3e d2e3 47bf 6917 11bf
00000190: e8dd 6d3f 9fac 2d3f 407d e2be f78d 80be
000001a0: 4d94 71bf 2cc1 7fbc fd99 40bf 8265 44bf
000001b0: a1f8 6cbd ff4d 313e 551a d1be 4428 133f
000001c0: 048d 1cbf 94a3 6a3f b235 2e3f 37de 57bf
000001d0: e2c6 7cbe 8f9d 1e38 645b 0d3e a895 833e
000001e0: aa2d cc3e dd10 913d 7a22 f4be a9a1 f83e
000001f0: df67 73bf c797 16bf 140a 77be 9e31 fbbe
-3.1481643e-14 0.5410845 -0.8281276 -0.7342246 -0.38470325 0.27049404 -0.009346188 0.80515844
-0.0934954 0.26723987 -0.30757645 -0.20244335 -0.94822985 -0.64247066 -0.41769668 0.039106097
0.38372353 0.6012903 -0.6708894 -0.43639618 0.377494 0.8435102 -0.21055573 0.740008
-0.15042233 0.10413948 0.91322947 -0.9223681 -0.61912185 -0.25298122 -0.38668048 0.8519779
-0.6490793 -0.4748782 -0.6940789 -0.9347723 -0.5742289 0.85275936 0.44369718 0.48114464
0.00012765166 -0.50170034 0.15992102 -0.9460636 -0.722796 -0.5205067 0.6106913 0.57651204
-0.4447124 -5.170851e-06 0.6354472 1.0057304 0.3981252 0.12090347 0.6678156 -0.5855701
0.17971054 -0.7695904 -0.7002559 -0.50798976 0.4473271 0.4089845 -0.5939496 0.30160907
0.5585488 -0.1224759 8.753229e-06 0.23651527 0.6127204 0.956039 -0.76502377 -0.37021768
0.3903339 0.8264081 0.88780844 0.8876658 0.22190584 -0.8670608 0.1271699 -0.6193785
-0.9287101 0.89709985 0.7679796 -0.9904848 0.18799599 -0.17170893 -0.16483195 -0.44829878
0.38034 -0.5915844 0.37238544 0.48625606 0.72507554 0.38075036 -0.9949771 -0.64497006
0.5102938 0.20290643 -0.78082 -0.56676346 0.9291673 0.67841524 -0.44236183 -0.2510831
-0.94366914 -0.015610021 -0.7523497 -0.7671739 -0.0578543 0.1731491 -0.40840402 0.57483315
-0.6115267 0.9165585 0.6805068 -0.8432345 -0.24685243 3.7816873e-05 0.13804394 0.25700116
0.3987859 0.070832945 -0.47682554 0.48560837 -0.9508037 -0.58825344 -0.24124938 -0.49061292

bias f4 [128]
00000000: 8d3b 3cbe 979b 4fbf 02d1 47be c0eb 563e
00000010: b3a3 26bf 4fd9 2fbd cff5 343f 7004 b3bd
00000020: 1105 153d 5c97 c2bd ee03 583e 6366 223f
00000030: c2e3 733f eb9a 243f e1e8 6f3f 4fa2 86bd
00000040: 5838 69bf 31be f2be 5508 2c3f d310 433c
00000050: 4112 f5be cc81 3ebf b410 6ebf f1d6 5abf
00000060: 725e 5abe bced 0d3f 1380 083f 78ee 77bf
00000070: 1493 243f 671a 48bf d4a5 5ebe 8f59 d8be
00000080: d0ec 2dbe d53f 32be 2d79 66bf 864a 5fbf
00000090: eace 24be 4ee5 c93b 4314 e7be 912a c13e
000000a0: 45cf 36bf 5cc7 abbd fac6 5f3f 1088 bfbe
000000b0: 6945 6a3f b563 bb3e a917 6dbf 044d 1d3f
000000c0: 11e2 cebd e6e6 8bbe c287 4d3f 724f 4bbf
000000d0: ae60 cc3d feeb 67be 4288 343f 3061 903e
000000e0: 3cd6 eb3e 1e05 b03e 0a74 5fbe 9d58 54be
000000f0: 7132 55bf a85f 093f 31af 493f 4065 2e3f
00000100: e5ee 30bf a2ad fe3c 14bd 05bf bd94 0dbf
00000110: b2e9 17bf 5a31 af3e d4d2 19bf 25a8 ddbc
00000120: 9179 e73c 734f 233f 43c9 3cbf 3120 2ebf
00000130: a135 0fbf d899 313f b921 9dbe 4b97 573f
00000140: c756 b63e 9e62 e43d c03f de3a 0cb9 4ebe
00000150: 6bd5 f73d 9d36 66be 1661 28bc 078e 003e
00000160: 50a4 48bf 898e 04bf 788d 4d3f 5c6f 53bf
00000170: b988 6bbd 5c30 7b3f 22b4 b33e 04ff bb3c
00000180: a5f5 59bf e532 fe3e fc10 35bf 072f 96be
00000190: 29cb b3be 1395 12be 1ab0 b2ba 0510 523f
000001a0: 257b f13d 24be 643f ec8a 1e3f 930a 21bf
000001b0: 3e33 e83e d873 29bf 136a d9be cf7a 8d3e
000001c0: c827 a43e 7fd0 403f 71f9 adbe e424 3dbc
000001d0: bb65 033f 5bc0 47bf 4055 3a3f ec9e 40bf
000001e0: c9e5 a53c ae37 27be 4965 09bf 09a6 e53d
000001f0: 1a85 563f ad33 98be b00c 1abf 9a21 bcbe
-0.18382092 -0.81096786 -0.19513324 0.20988369 -0.65093535 -0.04293185 0.70687574 -0.08741081
0.036381785 -0.09501526 0.21095249 0.6343748 0.95269406 0.64298886 0.9371472 -0.06573927
-0.911016 -0.4741073 0.67200214 0.011905867 -0.4786549 -0.74416804 -0.92994237 -0.85484225
-0.2132509 0.5544088 0.53320426 -0.9684825 0.64286923 -0.78165287 -0.21742946 -0.42255828
-0.16984868 -0.17407162 -0.9002865 -0.8722309 -0.16094556 0.0061613685 -0.45132646 0.37727788
-0.7141002 -0.08387634 0.8741299 -0.37408495 0.9151216 0.36599508 -0.9261423 0.6144564
-0.101017125 -0.273246 0.80285275 -0.794181 0.09979378 -0.22648618 0.7052041 0.28199148
0.46061885 0.34378904 -0.21821609 -0.20736928 -0.8328009 0.53661585 0.78782946 0.68123245
-0.69114524 0.031088654 -0.52241635 -0.5530508 -0.59340966 0.3421734 -0.60087323 -0.027057717
0.02825621 0.63793105 -0.737446 -0.6801787 -0.55941206 0.6937537 -0.3068979 0.8421523
0.3561308 0.11151622 0.0016956255 -0.20187777 0.12101253 -0.22481771 -0.010277053 0.12554179
-0.7837572 -0.5177999 0.8029399 -0.82591796 -0.057503436 0.98120666 0.35098368 0.02294875
-0.8514045 0.49648204 -0.7072904 -0.29332754 -0.35115936 -0.1431468 -0.0013632805 0.82055694
0.11791066 0.8935263 0.6193073 -0.6290676 0.45351595 -0.6619239 -0.4246374 0.27632758
0.320616 0.7531814 -0.3397937 -0.01154444 0.51327103 -0.78027886 0.7278633 -0.75242496
0.020251172 -0.16329834 -0.53670174 0.11213309 0.83796847 -0.29726925 -0.6017561 -0.36744386

weight f4 [128, 128]
00000000: 4cc7 4abb 6236 2d3d dd6b 3bbd 1210 86bd
00000010: 897d 54bd 3939 733d 5460 353d aaad a93d
00000020: 3180 b63c a631 9cbc 5308 efbc f0d8 c33c
00000030: d10c 8e3d a2dc 9f3c 3bbe 46bd e69c debc
00000040: f383 85bd 6a16 ff3c 00ce 66bd 7b5f a4bd
00000050: b6c5 9c3d b627 48bd 0db8 10bc 4c06 dd3c
00000060: 7f2e c2ba abaf 87bd 5c93 96bd 250b 903d
00000070: 4d25 503b 0a60 933d 14d1 11bd e321 103d
00000080: b1f8 a0bc 47fd f7bb 277c 64bd 7071 dd3c
00000090: 82b2 b73c 6201 163c 4604 56bc 0138 70bd
000000a0: b023 c439 542c 80bd e42f 003d 9455 edbc
000000b0: ceb3 49bd 8b83 383c 8c57 26bd 9db4 a93c
000000c0: e8ac 583c 428b 1cba 6dd2 8d3c 77da 413d
000000d0: e0d7 3d3d ce92 e8bb b704 90bd 9b1e 7abc
000000e0: 657e d83c 5de7 1ebd 4559 043d ed25 613d
000000f0: a47a fdbc 22a3 623b 4e5e fd3c 2ee5 a13b
00000100: 579a bd3b 133f 123c eeca 5fba c160 bf3c
00000110: c504 8e3d 4a07 a93d deb9 4b3d 5be1 453c
00000120: 3954 4e3d ae51 2bbd a7d7 6ebd 79c9 85bd
00000130: 5083 d23d cf10 4a3d cb1b fcbc da73 e43c
00000140: 7a3f 823d 816c c03d f021 b13d 08f0 8b3d
00000150: e11a 92bc 1496 19bd eeab 8f3d 591a 383d
00000160: cf0c 20bd e734 963d 6689 2d3d 349a 6f3d
00000170: 3a33 29bd bf5c c03c e3be ffbc 885e 863d
00000180: 8d87 f3bb e23b 093d 7315 613c f539 0d3d
00000190: dd4a d3bc d508 5a3d 41c6 89bd 1644 7b3c
000001a0: 94ea 78bd 5128 b4bd 169b 97bd 6a8f 913d
000001b0: 5031 293d 6983 b33d 393a 8a3d 211f a0bd
000001c0: d568 82bd 7b84 0ebc 748b 38bd e0b3 773d
000001d0: 497f 91bd c150 d8b7 e39f b5bd 4f35 b3bc
000001e0: c5b4 a63d e79d aa3d ae9b 833d 5814 9e3d
000001f0: b7bc 983d 871d debc 98a5 1d3d 54d7 9a3d
00000200: 54c6 2c35 9c33 c33d 82c4 2a3d c32d 533d
00000210: edfb 0abd 254d 403d b6c6 423c 7623 33bc
00000220: 081d 5abd 5ee2 13bd f504 98bd 9592 773d
00000230: 2836 693d 83fc aabc fe0a 4ebd b036 993d
00000240: ae01 803d fc2a af3c eb68 4fbd d408 a33d
00000250: 80c7 323d 2203 5ebd 4e6f a13d ed02 9e3d
00000260: e374 18bd b90a 643d f58a 3abd 2f5c 6bbc
00000270: 8fa3 863d b3c7 adb9 c412 8dbd aca8 85bc
00000280: b138 ccbc 381b 9abc 3920 ab3b 9184 9f3d
00000290: 0cfb 9b3a a3b7 33bd b052 6f3c bdf8 483d
000002a0: ff17 f937 48c0 aebd 6d54 24bc fa55 80bd
000002b0: cc2e 3cbd 946c db3c 54b3 6cbd 8056 093d
000002c0: 2e3a 903d c4fd f6a5 b8ac 53bd 11d1 96bc
000002d0: 1cf4 ce3c 308e 78bd f8fd 473d acc3 a7bd
000002e0: c5a9 aabd 44ae adbd 659b b7bc 007e 603d
000002f0: 7fce 9abd 92c7 a43d 3150 25bd 0ee4 023d
00000300: 79b4 2e3c 7583 a3bd af10 9a3a dabc 563d
00000310: 912f cc3d f3b2 4a3d a3a1 7abd f3e5 8f3d
00000320: 1a75 7d3c 70e2 353d 7b46 6dbd 80a8 2fbc
00000330: fbfb 95bd f522 27bd e51e df3c d263 9dbd
00000340: 402f c83c 67ea 543d f838 9e3c f893 80bd
00000350: 501f 71bd 61e8 fabc 06d5 0e3d 64cd a73d
00000360: 6500 6d3d a127 67bc 331b 153d 5d80 9abd
00000370: 8f15 88bd be05 2f3d 9fbf 68bd 973d 1f3d
00000380: f66c 59bd b079 21bd dc08 a1bd 8cac 2b3d
00000390: 8499 723a 8233 a43d 4ef8 4e3d 34b8 2e3d
000003a0: 4ff1 26bb f665 f4bc c7b2 ddbc 0de3 193c
000003b0: a50c 2c3d b20c 13bd 8166 8f3d 27ee faba
000003c0: 23a5 9fbd 6fb4 23bd bd5b be3d b878 9d3d
000003d0: f99f adbd 9bd9 df39 55cb 3d3d f988 653d
000003e0: e8d6 a93d 2c54 23bd e53b c43c 38ee 363d
000003f0: dc2f 08bd e486 c93c d64e ffbc 5b75 503d
-0.0030941544 0.04228819 -0.045757163 -0.06546034 -0.051877532 0.059380744 0.04428132 0.08285077
0.022277923 -0.019066643 -0.029178774 0.023907155 0.06936038 0.019514386 -0.04852126 -0.027174424
-0.06519308 0.031138618 -0.0563488 -0.08026024 0.07654898 -0.048865996 -0.008832944 0.026980542
-0.0014814882 -0.06625303 -0.07352325 0.07033376 0.0031760514 0.07196052 -0.035599783 0.035188567
-0.019649835 -0.007568035 -0.055782463 0.02703163 0.022423986 0.009155603 -0.013062542 -0.05864716
0.00037410622 -0.06258455 0.031295672 -0.02897147 -0.04924374 0.011261831 -0.040610835 0.020716006
0.013224818 -0.0005971679 0.017312253 0.047327485 0.046348453 -0.0070975786 -0.07032149 -0.015266086
0.026427457 -0.038794864 0.032311697 0.05496781 -0.030942269 0.0034582098 0.030928757 0.0049406504
0.005786221 0.008926171 -0.0008537014 0.023361566 0.069345035 0.082533434 0.049737804 0.012077655
0.05037329 -0.041825943 -0.05831113 -0.065325685 0.10278952 0.049332436 -0.030774971 0.027887274
0.063597634 0.093956955 0.08649051 0.06832892 -0.017835082 -0.03749664 0.07015215 0.044947002
-0.039074715 0.07334309 0.04236736 0.05849667 -0.04130862 0.023481725 -0.031218952 0.06560999
-0.0074319304 0.033504374 0.013738024 0.0344791 -0.025792534 0.05323108 -0.06727267 0.015336057
-0.060770586 -0.08796752 -0.07402627 0.07107432 0.041306794 0.08765299 0.06749386 -0.07818437
-0.063676514 -0.008698578 -0.045054868 0.060474277 -0.07104356 -2.578681e-05 -0.088683866 -0.021876005
0.08139948 0.08330899 0.06426178 0.07718724 0.074578695 -0.02711369 0.038488 0.07560602
6.43636e-07 0.09531328 0.04169131 0.051557314 -0.03393166 0.04694857 0.011888197 -0.0109337475
-0.053250343 -0.036104552 -0.074228205 0.060442526 0.056936413 -0.02087236 -0.05030345 0.07481134
0.062503204 0.021382801 -0.050637167 0.07960668 0.04364729 -0.054202206 0.07882558 0.07715402
-0.037220847 0.05567429 -0.045542676 -0.01436524 0.06574165 -0.0003314592 -0.06888345 -0.01631578
-0.024929376 -0.018811807 0.005222347 0.07788957 0.0011900379 -0.0438763 0.014607117 0.04906534
2.9694287e-05 -0.085327685 -0.010029894 -0.06266399 -0.045943066 0.026785173 -0.057788208 0.03352976
0.07042347 -4.2846156e-16 -0.05167839 -0.018410238 0.025262885 -0.060682476 0.048826188 -0.08191618
-0.08333162 -0.08480504 -0.022412965 0.054807663 -0.07558917 0.080458775 -0.04035968 0.03195577
0.010663145 -0.07984058 0.001175424 0.052426197 0.0997001 0.049487066 -0.061189305 0.07026281
0.015469814 0.0444054 -0.057928544 -0.010721326 -0.07323452 -0.040804822 0.027236411 -0.07685055
0.024436593 0.051981356 0.019314274 -0.06278223 -0.058867753 -0.030628385 0.034871124 0.08193472
0.057861704 -0.014108569 0.036402892 -0.075440146 -0.06644737 0.042730086 -0.05682337 0.038877096
-0.05308243 -0.03942269 -0.07863018 0.0419126 0.0009254443 0.08017637 0.05052977 0.04265614
-0.002547342 -0.029833775 -0.027062787 0.009392512 0.042004246 -0.03590078 0.07001973 -0.0019144461
-0.07795169 -0.039966997 0.092948414 0.07689041 -0.08477778 0.00042696003 0.04633649 0.05603883
0.08292943 -0.039875194 0.023954341 0.044660777 -0.033248767 0.024600454 -0.031165522 0.05089317

bias f4 [128]
00000000: f784 a43d 797e 443d a9c7 a73b 0b17 913d
00000010: 5d80 8d3d ff67 02bd efe7 80bd f27e a1bd
00000020: b2b8 3bbd 08ae 86bd 94aa 08bd a057 d4bc
00000030: e52a 93bd 4d04 653d f4e8 9d3d 857d 9e3d
00000040: 9ced 3d3d b5a4 0b3d 10e1 91bd 4de6 893c
00000050: fa4c 973d 942e c63c e91e 423d 0f97 a73d
00000060: d393 7a3c 10b3 74b5 bd78 b13d 570a a1bd
00000070: 21b2 d9bb ed1a fb3c 4440 813c 18b1 81bd
00000080: 29ec 16bd c4d5 a73d 0aaa 243c 0386 a43c
00000090: f7d1 2a3d 1379 073d 3859 393d 339f da3c
000000a0: 73c3 dcbc 284c d6bb a20c 59bd 30be 353d
000000b0: c969 b23d 239f ae3d 456e 53bd 814d 1c3d
000000c0: 5f39 76bd 8a92 a5bd 008c 883d a587 193d
000000d0: 18a9 85bd 8a05 443c c490 ad3d ce05 0bbc
000000e0: b289 553c 212c f63c 1b73 6c3d 2535 2c3c
000000f0: afcb a13c 1073 09bd d7d8 193d 263e 9cbd
00000100: 2686 1a3d 19f0 97bd 79ea c0bc 3720 4c3d
00000110: 3607 63bd 5f8c c4bc 9d7a d4bc ce97 1ebd
00000120: 8039 47bc 39d4 3fbd b5ca 63bd 4462 75bc
00000130: e148 04bd 01ae c33c 44b9 5b3c b07c 97b9
00000140: 77a1 453b f6cf 1e3c e244 0f3d 77ae 9e3b
00000150: aff4 e73c a478 8f3c 587a 553c 375c b83c
00000160: c563 883d e469 96bc 6885 173c cd59 a1bc
00000170: dfe8 423d c3a2 113d 8527 b93c 064d 4ebd
00000180: d374 73bd d834 933c 4bb5 993d a5ff 58bd
00000190: 4c04 023d 1a0b 47bc 67e8 2b3d af80 173c
000001a0: fa5b e23c 0f17 323d bfb5 e13c 651a 8c3a
000001b0: a2fc 9b3d cf20 6ebd 00f0 733c 5698 96bd
000001c0: 1ff9 91bd 65bf 96bd b181 58bc 20c4 a23c
000001d0: 4601 85bb 82f7 1cbd 7ba8 73bd 8595 36bb
000001e0: 1fc6 5cbd 5bd5 deba 12e9 783d 6c43 6f3d
000001f0: c44b a93c d02e 1ebd ebbb a6bd c3ff 44bd
0.080331735 0.047972176 0.005120237 0.07084473 0.06909249 -0.03183746 -0.06294238 -0.07885541
-0.045830436 -0.065761626 -0.0333658 -0.02592069 -0.07185916 0.055912305 0.07710448 0.07738785
0.04636918 0.034092624 -0.071230054 0.016833449 0.07387729 0.024192132 0.04739276 0.08183109
0.015294033 -9.1157654e-07 0.08665607 -0.078633 -0.006643549 0.030652488 0.015777715 -0.06332606
-0.036846314 0.081950694 0.010050306 0.020083433 0.041704144 0.03307445 0.0452511 0.02668724
-0.026948666 -0.0065398403 -0.052990563 0.04437083 0.08711583 0.08526447 -0.051618833 0.03815985
-0.060113307 -0.08084591 0.06667328 0.037482876 -0.06526393 0.011964211 0.084748775 -0.008485271
0.013033317 0.03005034 0.05772696 0.0105107175 0.019750444 -0.033556998 0.03756031 -0.076290414
0.03772559 -0.07418842 -0.023549305 0.04983541 -0.0554268 -0.023992715 -0.025937373 -0.03871899
-0.012159705 -0.04683325 -0.05561324 -0.014977042 -0.032296065 0.023886682 0.01341087 -0.00028893864
0.0030156055 0.009693136 0.0349778 0.004842575 0.028314916 0.01751358 0.013029657 0.022504909
0.066596545 -0.01836104 0.009248115 -0.01969614 0.047585364 0.035555612 0.022601852 -0.050366424
-0.059437584 0.017969534 0.07505282 -0.052978177 0.03174238 -0.012148643 0.041969683 0.009246989
0.027631748 0.04347902 0.027552484 0.0010689019 0.07616545 -0.058136757 0.014888763 -0.073532745
-0.07127594 -0.07360724 -0.013214515 0.01986891 -0.0040589897 -0.03832198 -0.059486847 -0.0027860117
-0.05389988 -0.0017000841 0.06076915 0.058413908 0.02066601 -0.038618863 -0.08141311 -0.048095476

weight f4 [128, 128]
00000000: fbc3 44bc e886 57bd cbe6 21bd 8441 dbbc
00000010: 1650 a53d 79bb f53a 942f 903d 1026 77bd
00000020: 23b0 273d 9123 a6bd cce6 dcbc b872 0dbd
00000030: efaf bcbd de9b 6cbd e457 21bd 861c 433b
00000040: 34bf 37bd 72d0 9bbd 712d 533c 8c37 243d
00000050: ee6a d33c be22 903d e782 92bb 8fe2 a83d
00000060: 813b 143c a5fa eaa6 15b6 a7bc e37b fcbc
00000070: fe73 05bd 7021 4e3d 5e0a 2cbd 3a8b e83c
00000080: ce64 7bbd 446d 1dbc e2fb 8bbc 63df 44bd
00000090: aa9a 963d 782c abbd 77a8 403d e60b 8fbd
000000a0: 7ae4 4e3d e1f5 823d 872c 5bbc 3ea1 bb3b
000000b0: a0b9 27bb 297d 763d 3de8 983b 6191 42bc
000000c0: 6266 973d fc51 973d 23e0 123b 24f9 0abd
000000d0: 24ef 683d b75d 3ebd 55ce 39bd b7a9 58bd
000000e0: 9f66 033c 1b4f 20bd cb2d a83d 0317 7d3d
000000f0: a8d9 53bd d6fe 20bd 20cc 583d c09d 1cbd
00000100: 58e9 2a3d 8048 38bb 4bce 533d 92e6 543d
00000110: 782c 58bd ae83 79bd ab9c 5e3d 2cef 5abd
00000120: 8736 773b 939d cd3c 049f 6cbd 8d77 b2bb
00000130: c428 4c3d d14b d63b 1fa2 57bd 32c1 9f3d
00000140: 40c0 943d f7af 693c 96db 49bd 1cfb 133d
00000150: a53d fe3c 178c 2abd 60f1 70bd 1509 25bd
00000160: cd5a a83d 291e 06bc 967e b03b c5a5 3c3d
00000170: 4271 46bd 1168 1dbd faf8 123c 534e 963d
00000180: 294b cdbb 77ba e43c 7c87 85bd 0ddc 8abd
00000190: 1202 993c f173 033c 54dc 8d3d e9af dc3c
000001a0: 1820 993d f82b 8ebc 4def 04bd c45e 41ba
000001b0: 0126 15bd defe 383c e26a 94bd 7e7c c9bb
000001c0: dfb7 8abb 0727 143d c7fc c13d 54b3 f33c
000001d0: e375 ee3c c6f6 5bbd 6ea7 dcbc 182e 35bd
000001e0: 2e8b 93bd 5c71 663d f7b9 a43d dc87 963d
000001f0: bbf6 a13d b419 34bd f2d9 18bd c82b b7bc
00000200: 58b6 2dbd 835c 89bd 1bad 9bbd 645e 13bc
00000210: 77f6 4abd 209f 95bd de2e 373d a6a3 b5bd
00000220: e577 33bd 895f 663d 8e77 3cbd 4857 283d
00000230: efa0 77bd 01a4 acbb 5916 ff3c 1622 02bd
00000240: c1c2 58bd 5fda a63b 0345 c9bc cad4 953d
00000250: f62f bebc 9d26 7b3d c357 31bd b9f3 27bd
00000260: fe03 5fb9 e9a5 a938 af38 c03d 4656 053d
00000270: 0429 41bd 50df 103c e178 603d dd60 8a3d
00000280: 33e0 793d fa25 b63c ef05 39bc 5b79 6b3d
00000290: 6f8b cc3c 487a a2bd f90b a43d e2de d0bb
000002a0: 90c9 a23d 0b85 703c a751 dbba 1af0 a1bd
000002b0: 2964 b8bd 7908 3ebd 80fb f43c a892 cd3b
000002c0: aabd 7c3b 15ff 9abd 741f 323d 6128 8cbc
000002d0: f298 283d ae8e a4bd 5cbc acbb cac1 1c3d
000002e0: ea9d ac3c 8574 4ebb ea68 9b3d a65d 86bd
000002f0: d548 b2bd 2001 82bd b191 40bd 7fad ed3c
00000300: afae 6c3d bc62 893d c1a8 023d bf03 02bd
00000310: 6585 523c a1d3 4e3c 7566 b4bd 910c 9fbb
00000320: d7eb 8c3c 989c 873d 006d 623d 8687 11bd
00000330: d763 d6a3 7986 673d 458d 9c3d ba5c 4abd
00000340: 72ec a73d 8f3c e1bc e741 21bd 7811 d8bb
00000350: 0e2f 7a3d b301 6bbd cff8 0f3b 2b10 46bd
00000360: 37f1 38bc a8d7 633d 5466 61bd 5392 45bd
00000370: 9a94 b63c 1c8d 2a3d 03b8 65bb 531b 243c
00000380: 0fde ebba 7cd3 be3c 14b0 a33d 5659 083d
00000390: ac57 843c 6b4d c63c 0dcb f73c 04cb 24bc
000003a0: 1e38 80bd 40de 34bd 3c11 073d b98b 293d
000003b0: e06b 45bd 66df 4ebd bd7d 543d 6e61 6c3b
000003c0: 2604 383d 7fa0 9c3c 6752 403c e06d abbb
000003d0: 876c 06bd 08d7 bc3c 814a 5cbd 7b59 febc
000003e0: a4f5 89bd d275 9eba ff09 32bd 4251 1abd
000003f0: fa24 09bd cc2c 243d c719 333d abd8 563d
-0.012009616 -0.05261889 -0.039526742 -0.026764639 0.08071916 0.0018747888 0.07040325 -0.060339034
0.04093946 -0.081122525 -0.026965521 -0.034533232 -0.09213244 -0.057765834 -0.03939046 0.002977164
-0.04486008 -0.07608117 0.012889252 0.040092036 0.025807824 0.070378765 -0.004471171 0.082463376
0.00904739 -1.6304949e-15 -0.020472566 -0.030820793 -0.032581322 0.050324857 -0.042002074 0.0283867
-0.06137543 -0.0096085705 -0.01708788 -0.0480646 0.073537186 -0.08358091 0.04703566 -0.06984691
0.05051086 0.06394554 -0.013377315 0.0057260087 -0.002559282 0.060177956 0.004666357 -0.011875481
0.07392575 0.07388684 0.0022411428 -0.033929005 0.056868687 -0.046476092 -0.04536279 -0.052896228
0.008020072 -0.03913794 0.08211859 0.061789524 -0.051721245 -0.03930553 0.052929044 -0.03823638
0.04172644 -0.0028119385 0.05171041 0.0519777 -0.052776784 -0.060916595 0.05434863 -0.05345075
0.003772171 0.025099551 -0.057768837 -0.0054463805 0.049843565 0.0065397997 -0.052644845 0.07800521
0.07263231 0.014263145 -0.04928168 0.03612815 0.031035254 -0.041637506 -0.058823943 -0.040291864
0.08220444 -0.008185902 0.005386184 0.046056528 -0.048447855 -0.038429324 0.008970493 0.07339158
-0.0062650633 0.027920945 -0.06519982 -0.067802526 0.018677745 0.008023248 0.0692679 0.02693935
0.074768245 -0.01735495 -0.032454778 -0.0007376487 -0.036413196 0.011291234 -0.07246949 -0.006148874
-0.004233345 0.036170032 0.094720416 0.029748596 0.029108947 -0.05370214 -0.026935305 -0.04423341
-0.07204281 0.05626045 0.080432825 0.07350132 0.07908388 -0.043969825 -0.037317224 -0.022359744
-0.042410225 -0.06707098 -0.076013766 -0.008994672 -0.049551453 -0.07305741 0.04472243 -0.08869104
-0.043815512 0.056243453 -0.046012454 0.041098863 -0.060456213 -0.005268574 0.031138586 -0.031770788
-0.052920107 0.00509195 -0.02456904 0.07315977 -0.023216229 0.06131612 -0.043296587 -0.041003916
-0.00021268424 8.089451e-05 0.093858115 0.03255298 -0.047158256 0.008842304 0.05480278 0.067567565
0.06100483 0.022234906 -0.011292919 0.05748878 0.02496883 -0.079334795 0.08010096 -0.006374226
0.07948601 0.014680157 -0.0016732708 -0.07907124 -0.09003479 -0.0463948 0.02990508 0.0062735863
0.0038565197 -0.07568184 0.043487027 -0.017109098 0.041161485 -0.080350265 -0.0052714776 0.03827075
0.021071393 -0.0031502557 0.0758837 -0.06560831 -0.08705298 -0.06347871 -0.047013942 0.029013393
0.05778378 0.06708285 0.031899218 -0.031741854 0.012849187 0.012623698 -0.08808605 -0.004853793
0.017202301 0.06621665 0.05527973 -0.035529636 -2.324421e-17 0.056524727 0.076441325 -0.049404837
0.08199395 -0.027494697 -0.03936949 -0.0065938793 0.06108003 -0.057374667 0.002196837 -0.048355263
-0.011287979 0.055625588 -0.05502923 -0.04823525 0.022287656 0.04163848 -0.0035052306 0.01001628
-0.0017995256 0.023294203 0.079925686 0.033288322 0.016155086 0.024206838 0.03024819 -0.010058168
-0.062607035 -0.044157267 0.03297542 0.041393016 -0.04819858 -0.050506018 0.051877726 0.0036068815
0.04492583 0.0191195 0.011738396 -0.005231604 -0.032818343 0.023051754 -0.05378199 -0.031048527
-0.06736305 -0.0012089557 -0.043466564 -0.03767515 -0.03348253 0.040081784 0.043725755 0.052452724

bias f4 [128]
00000000: da6d 143d 80c1 723b f141 2f3d 1fa8 633d
00000010: 9254 35bc 230f 0b3d 280a a6bc e9d9 37bd
00000020: afdf 6639 8f14 0b3c 7159 693d 5146 cf3c
00000030: b870 8839 763b 90bd 8057 1cbd 6e11 b8bd
00000040: 7139 dd3c 7d3c 92bd 2be1 15bc bfbd 603d
00000050: 7178 453d 4bae 8ebd fe87 a3a2 3cd2 a2bb
00000060: 79bd 973a 6948 9b3c b99c 3abd b395 7bbd
00000070: c14e 91bd 095c 34bd 6c5b 12bd a6dd 283c
00000080: 4655 303d 2b35 88bc 274b a4bd 6d8a 4bbd
00000090: 1ef5 543d d16a fdba 6f51 17bc 3381 043d
000000a0: c452 043d a769 22bd 7775 083d 5529 56bd
000000b0: d6fe 8c3d 1ad8 95bb ee8f 1e3c fa84 66bd
000000c0: 3835 913d e057 94bd 563c 6c3d 6b1e 15bd
000000d0: de36 e0bc a7e4 02bd 213c 063d 4451 d0bc
000000e0: ad72 563d 1634 a43d e256 963c c0ce 023d
000000f0: 220f 1c3d e352 5a3d 1ff8 b4bd abf8 88bd
00000100: a10c e8bc 814f 5dbd 40c0 49bd 1651 c43d
00000110: 5509 9cbc dc10 67bd 04e2 13bd 78e1 b63c
00000120: d02a 4ebd aa8c 093d 8b73 8e3d 711c 60bd
00000130: 303e 57bc 69dd 393c 7465 5c3a d14a 4cbd
00000140: 2217 b6bd ec0a 64bd 08c7 6e3d 1937 a3bd
00000150: 7bd6 9f3c d9c2 0bbd ff9b 413d f752 e93c
00000160: b285 0b3c 5f36 04bd f8df b4bd aca0 8bbd
00000170: d58f e7bc ee24 a43d 231e 97bd 8ce6 993d
00000180: 1ca9 8bbd bb0c 9f3d f630 16bd b2f6 953d
00000190: 8d34 9ebc ea52 99bd 1718 78bc b326 20bd
000001a0: 35dd e9bc 621e 393d e2f5 81bc b850 2f3d
000001b0: 1c03 a7bd d42c 81bc 9c3b 07bc 2302 bbbb
000001c0: e6b3 11bd cb7f 273b 68ea d13a c2dc c63c
000001d0: f0d3 79bd cf50 98bc 9921 9e3c da18 293d
000001e0: 4ef5 10bd 1887 ab3c 3e3f bd3c ed23 90bd
000001f0: a7ed 3e3c 2bc5 4ebc 7db5 a9bd 6c34 50bc
0.036237575 0.0037041605 0.042787496 0.055580255 -0.011067526 0.033949982 -0.020268515 -0.04488555
0.00022017838 0.008488788 0.056970064 0.025302084 0.00026023923 -0.07042591 -0.038169384 -0.089876994
0.02700493 -0.071404435 -0.0091479225 0.054868456 0.048210565 -0.069668375 -4.4325226e-18 -0.0049689095
0.0011576853 0.018955426 -0.04555962 -0.06142206 -0.07095099 -0.044033084 -0.035731718 0.010306751
0.043050073 -0.016626915 -0.08022147 -0.04969256 0.051991574 -0.0019334202 -0.009235724 0.032349776
0.032305494 -0.03965154 0.03331515 -0.05228551 0.068845436 -0.0045728805 0.00967787 -0.05627916
0.07090229 -0.07243323 0.05767473 -0.036405962 -0.027369913 -0.03195634 0.032772187 -0.025429375
0.052355457 0.08017747 0.018351976 0.031935453 0.03810037 0.053301703 -0.08836388 -0.06688055
-0.028326334 -0.0540309 -0.04925561 0.095857784 -0.019047419 -0.056412563 -0.036104217 0.022324309
-0.050333798 0.033581413 0.06955632 -0.054714624 -0.013137385 0.011344292 0.00084074517 -0.049876038
-0.08891131 -0.05567448 0.05829528 -0.079694934 0.019511452 -0.034121368 0.04726791 0.028481944
0.008515762 -0.032278415 -0.08831781 -0.06817755 -0.028266827 0.08014856 -0.07378795 0.075146765
-0.068193644 0.077661 -0.036667787 0.07322444 -0.019312168 -0.07486518 -0.015142462 -0.039099406
-0.028547863 0.04519499 -0.015864316 0.04280159 -0.0815489 -0.015768446 -0.008253958 -0.005707042
-0.035571955 0.0025558348 0.0016015293 0.024275187 -0.060993135 -0.01859322 0.01930313 0.041283466
-0.03539019 0.020938441 0.023101445 -0.07038102 0.01165334 -0.012620251 -0.08286569 -0.012707811

weight f4 [128, 128]
00000000: d1ae 9dbc 3bd1 97bd 51e3 553d e2a3 02bd
00000010: 393c e5bc 0a2f fa3c 8fd3 273d e10a 1fbc
00000020: 86e8 243d a702 5f3c 37f8 b5bd 7aa0 653d
00000030: 7a16 1d3d 39e0 d6bc 905b c6bc ae72 273d
00000040: d009 5d3d 9d36 173d 8017 4a3d e819 64bd
00000050: 5dac ac3d 9998 a23d 684f b1b8 25ef e0bc
00000060: 6251 bd3c 6f98 343c b012 2fbc ec0d 783b
00000070: 0b5d 7c3d 7d1f 4c3d 9b87 a7bd 3731 9e3d
00000080: 9fe3 3ebc c441 8bbc 4812 d3bc 2c18 56bd
00000090: c7a7 b43d efa9 8abd ca29 283d ff63 b33b
000000a0: 61e6 053d ab95 1abd ea8a 1bbd e83d 09bd
000000b0: dbdc 9fbc 6f95 e5bb 198a 083d f146 87bd
000000c0: 915d 0bbd 0101 abbd e773 993d ec45 083d
000000d0: cb4e 80bc a2a2 2ebd bfa6 2cbd 54ae 963d
000000e0: 9b30 8d3d a45c 8a3d aaec 99bd c377 273d
000000f0: 4d51 073d 2370 003d b8b8 8bbc ed5b fcbc
00000100: 36af 47bd 6d1b 85bd 9a3d 933d 97d2 8b3c
00000110: 941d 913d 512c 7c3d 3633 b23d 12b2 b4bc
00000120: efab 3d3d 1a6b f63a dd5a e9bb b23f 913c
00000130: 1e35 8bbd b42d 8a3d 1ede 1a3d 14c6 683d
00000140: c2f4 2b3d 5558 a23d e262 3fbd 141c 20bd
00000150: ef5a c63d e42b 7b3d 953b 02bd 31a5 9fbd
00000160: 004e 83bd 9378 8a3d 58fe 0a3d 6e78 4c3d
00000170: 5f2d 9abd 1a1f 97bc 56f6 73bd 21b6 533c
00000180: 896e abbc 83e8 d33c 597d 90bb b33b 52ba
00000190: 8690 0dbd 7aa1 39bd 3268 b3bd b8e7 143d
000001a0: a6f3 613d 193a 4b3c 2e99 9f3d 95a9 2dbd
000001b0: 4217 a3bc 60e2 a03d 54e3 1f3c aa09 243d
000001c0: b648 96bc 744a 083d d222 ebbb 9f87 7dbc
000001d0: 1e96 8dbd f4b9 853d 2a32 a2bd 5159 48bd
000001e0: fffe 5bbd 7a33 8b3c 5868 1ebd 1fa2 a13c
000001f0: af19 1d3d 0eaf 363d 3bfc 5e3d b989 acbd
00000200: 1498 e9bc fc37 a2bd cfdb 49bc 065a 663d
00000210: 2e4c a23d 0dd2 263c 9eb8 173c 6c57 893d
00000220: 791b 8fbd cfe3 e7bc 2cff 6c3d 0bc0 99bd
00000230: 44a1 55bc 9252 e8bc 5f48 5fbd a0ee 70bd
00000240: 069c 243d 1477 373d ad34 a23d 20ea 4dbd
00000250: 1827 1f3d 2089 4f3d 4020 2cb2 9684 de3c
00000260: 1a70 613d 3d06 92bd 9114 923b 42db d7bc
00000270: 667f 723d 8271 513d f0b9 48bd 58c7 a9bc
00000280: 057b 723d fdce 8c3d 9139 5ebd e406 233c
00000290: 2092 adbc 4eb5 5e3c 8ff9 033c 18ba 43bc
000002a0: 58ac 91bc 2746 8fbd 5594 843d 57c6 163d
000002b0: 58d7 54bc a8d7 093c 1de1 ac3b 8063 68bb
000002c0: d807 c0bb 1087 313c 84b6 a2bd 016e 423d
000002d0: 2e54 a53d bf35 063c 9829 2fbd 28ea 853d
000002e0: 61e2 b83d a71b 533d 4c2c e93c 6e01 d7bb
000002f0: cfbf 543d defa a23d 5187 933d 91d5 873c
00000300: 5d1c b3bc 7204 9b3d d639 bcbc a188 26bd
00000310: 92b5 c13c e861 ce3c dceb afbd 1b0a 0fbc
00000320: 7b13 13bc 24eb a53d 110e 483d 7aed 5ebd
00000330: 17ed 7e3d 25dc 65bd 97e0 903d 2f35 a2bc
00000340: fda2 d3bc 3faf cebc abfc 333d 1e26 423d
00000350: 2394 38bd beb8 fc3c a706 66bd 761a 71bc
00000360: 4230 90bd aa51 943d 868e b739 e7cb 14bd
00000370: 364b 3d3d 0658 adbd 17a7 3a3d d605 f939
00000380: 74fd a6bd 95b8 9e3c 8961 b6bc a5b2 33bd
00000390: f21b df3c 8b3d 8f3c 9617 6abd 798d e6bc
000003a0: 0522 833d 1717 2f3d a70a b5bd 4f67 b4bc
000003b0: 885b a7bd e728 0bbc 02f9 863c 14d0 f83c
000003c0: 5f3b 8cbc 252b 1abd 6db1 983d d88c 983d
000003d0: 413a 96bd 9685 18bd 4097 aebc 756c 2ebd
000003e0: 5173 ce3b 14a9 f1bc 64b7 17bc b376 863d
000003f0: 0fd3 333d 018a 8cbc 6132 4c3c 195e 87bc
-0.019248398 -0.074129544 0.05221874 -0.031894572 -0.027982818 0.030540008 0.040973242 -0.009707184
0.040260814 0.013611472 -0.08885234 0.056061246 0.038351513 -0.026229965 -0.024213582 0.04088085
0.053964436 0.036917318 0.049338818 -0.05568877 0.08431313 0.07939262 -8.454808e-05 -0.027457783
0.023110095 0.011022671 -0.010685608 0.0037850095 0.06161217 0.049834717 -0.081801616 0.07724231
-0.011650949 -0.016999133 -0.025765553 -0.052269146 0.088210635 -0.067706935 0.04105548 0.005474567
0.03269041 -0.03774039 -0.037974276 -0.033506304 -0.019514492 -0.0070063393 0.033334825 -0.06605328
-0.03402478 -0.08349801 0.0749281 0.033269808 -0.015662571 -0.042635567 -0.04215121 0.07357469
0.068940364 0.06755951 -0.07515843 0.040885698 0.03303652 0.031356942 -0.017055854 -0.030805552
-0.04875108 -0.06499372 0.07189484 0.01706819 0.0708572 0.0615657 0.08701174 -0.022057567
0.046306547 0.0018800229 -0.0071214275 0.017730568 -0.06797241 0.067469984 0.037809484 0.056829527
0.041981466 0.07927004 -0.04672516 -0.039089277 0.09685313 0.061321154 -0.031795103 -0.0779518
-0.06411362 0.06761279 0.033933967 0.04991954 -0.07528185 -0.018447448 -0.059561096 0.012921841
-0.02092673 0.025867706 -0.004409474 -0.000801976 -0.034561656 -0.04532001 -0.08760108 0.036353797
0.055164002 0.012403988 0.077928886 -0.042398054 -0.019908551 0.078556776 0.009758789 0.04004828
-0.018345218 0.03327413 -0.0071757818 -0.015474229 -0.06913398 0.06529608 -0.07919724 -0.048913304
-0.05370998 0.01699232 -0.03867373 0.019730626 0.038354572 0.04460054 0.054439764 -0.08424706
-0.0285149 -0.079208344 -0.012320473 0.056238197 0.07924686 0.010181916 0.009260325 0.067061275
-0.06987662 -0.02830687 0.05786054 -0.075073324 -0.013038937 -0.028359685 -0.054512378 -0.05882132
0.040187858 0.044791296 0.07920203 -0.050272107 0.038855642 0.050667882 -1.00190505e-08 0.027162831
0.05503855 -0.07130096 0.004458018 -0.026349667 0.059203528 0.05113364 -0.04900545 -0.020724937
0.05919935 0.068754174 -0.05425412 0.009950373 -0.021187842 0.013593031 0.008055105 -0.011946224
-0.017782375 -0.069958024 0.064736046 0.036810245 -0.012990795 0.008413233 0.005275859 -0.0035459697
-0.00586031 0.010835424 -0.07944968 0.04746819 0.080726966 0.008191525 -0.042764276 0.065388024
0.09027553 0.051540043 0.028463505 -0.0065614497 0.051940735 0.07958005 0.07203544 0.016581329
-0.02186411 0.07569207 -0.022976797 -0.040657643 0.02364615 0.02519317 -0.085899085 -0.008730437
-0.0089768125 0.0810149 0.04884154 -0.054425694 0.062237825 -0.05611815 0.07074087 -0.01980075
-0.025834555 -0.025230048 0.043942135 0.047399633 -0.04506315 0.03084981 -0.056158688 -0.014715781
-0.070404544 0.07242139 0.00035010668 -0.03632727 0.046214305 -0.08464055 0.045569506 0.0004749733
-0.08153811 0.019375125 -0.022263305 -0.04387154 0.027235005 0.0174854 -0.0571514 -0.028143631
0.06402973 0.04274663 -0.088399224 -0.022021918 -0.08171755 -0.008493639 0.016476158 0.030372657
-0.017118154 -0.037638802 0.07455716 0.07448739 -0.0733533 -0.037236772 -0.021312356 -0.0425839
0.006300368 -0.029499568 -0.009260032 0.06565609 0.043902453 -0.01715565 0.012463183 -0.016524361

bias f4 [128]
00000000: 5aa7 d9bc 263b b83d f8f4 973d bd6e fc3c
00000010: 9095 67bb 4ae0 4f3d 274e 50bd 1869 063c
00000020: d27e 343d 7a25 bfbc ee6b eebc 62c2 88bd
00000030: 9c2a 563d 9f28 853d e348 9bbd 0748 743d
00000040: ade1 953d fb98 9c3d cb0d 083d ed3a 683c
00000050: a213 a1ba c764 35bd 249d dcbc 4a45 9b3d
00000060: ce72 0a3d f406 13bd e2df 36bd 06ed 21bd
00000070: 644a 4bbb e056 2cbd a3b2 6f3c 519e 9bbd
00000080: e121 903d b52d a3bd 8994 813d c335 9cbb
00000090: a6fc 1fbd e04c 18bd c6a5 dfbb e0fb 323c
000000a0: 8036 903d 1667 b2bd 8cc0 31bc 2a61 b4bd
000000b0: 1011 b9bd b4e1 b13d 3921 14bc 7cb6 28bc
000000c0: 74b9 99bc 099b 9ebd c9cf 6e3d 3877 68bb
000000d0: 965c 453a 04ab 77bd 053c 2dbd fb0f b2bd
000000e0: e04b 5bbc d94a a13d 00d3 cfbc 8442 e5bc
000000f0: 6ff7 893d e2ac 083d 7ebc 55bd d387 5d3d
00000100: 8c3c e43c 4791 b43d 725d 9c3d f6f2 8a3d
00000110: 001c fe3c dafe 2bbd 8bed 63bd f9a4 cfbc
00000120: 7731 bdbd 8bb6 9d3b 8170 973d 04c3 8b3c
00000130: 0a0f 6bbc dd42 61bd 0586 61bd 4c5c a4bd
00000140: e046 f2bc 490f 393d cfd4 8e3d 6b4e bf3b
00000150: 167b 973d e67e 75bd a0dc 03bb 705f 933d
00000160: caa2 c03c c58e 2dbd eb56 7fbd 23de 3b3c
00000170: f078 bdbc 8ed4 b1bd b2ae 763c 512b 37bd
00000180: 15df 1f3c 735a 73bc 561a 64bd bfa1 a83d
00000190: 208c 9a3d 92be 983d 7831 37bd aa08 483d
000001a0: 8e40 3ebd c9df 8a3d 8548 553d 121c 2ebc
000001b0: 3a7e 97bd 36f2 82bc e021 13bd b380 9c3c
000001c0: 22ec 81bd 9b14 ea3c d4bd 6f3d 3d95 2b3d
000001d0: 255f 913d 14be a33c 5538 81bd 8d3d 42bd
000001e0: 2cce 973d b192 6bbd 4ab6 c13c 45f8 f1bc
000001f0: 4d6c 843d 5d0c a9bd fe65 3a3d 0c6f 91bc
-0.026569057 0.08995657 0.07419771 0.030814523 -0.003533695 0.050751008 -0.050855782 0.008203767
0.044066258 -0.0233333 -0.0291042 -0.066777006 0.05228673 0.065018885 -0.075822614 0.059639003
0.07318435 0.07646366 0.03321628 0.014174205 -0.0012289176 -0.044285562 -0.0269304 0.07581575
0.033800893 -0.035895303 -0.044647105 -0.039532684 -0.0031019682 -0.042075038 0.014629993 -0.07598556
0.07037712 -0.07967702 0.06327159 -0.004767151 -0.039059304 -0.03718269 -0.0068251817 0.0109243095
0.07041645 -0.08711068 -0.010849129 -0.08807595 -0.090364575 0.086856276 -0.009041124 -0.010297414
-0.018765189 -0.07744414 0.058303628 -0.003547145 0.000752875 -0.060465828 -0.042293567 -0.08694454
-0.013384789 0.07875604 -0.025369167 -0.027985819 0.06736647 0.033368 -0.052181713 0.05408461
0.027860902 0.08816772 0.07635011 0.06784622 0.03101921 -0.041991092 -0.05564646 -0.02534722
-0.0923795 0.0048130206 0.07394505 0.017060764 -0.014346847 -0.054995406 -0.05505945 -0.08025417
-0.029574811 0.045180593 0.06974184 0.0058382056 0.07396524 -0.059935473 -0.0020120516 0.07195938
0.023515124 -0.042372484 -0.06233875 0.011466536 -0.023128957 -0.0868312 0.015056299 -0.044719044
0.009757777 -0.014853108 -0.05568918 0.082339756 0.07546258 0.074582234 -0.04472491 0.048836388
-0.046448283 0.06780965 0.052071113 -0.01062681 -0.07397123 -0.015984636 -0.035920978 0.019104337
-0.06343867 0.028574279 0.058530644 0.04189037 0.070982255 0.019988097 -0.063095726 -0.04742198
0.07412371 -0.057512943 0.023646493 -0.02953733 0.06465969 -0.08254311 0.045507424 -0.017753147

weight f4 [2, 128]
00000000: 39a2 4ebb abc6 e13c a066 c0bb 60f7 7ab9
00000010: 5b94 9cbd eae7 07bd 1756 b2bd 6fd3 843d
00000020: 0aa2 8b3d 9f0f 443d c3e0 ad3d fcb7 47bc
00000030: f5be 343d 113a 12bd 1ea3 4f3d 7ddd 83bd
00000040: a674 45bc cf19 943d 57da 85bd 315e 74bd
00000050: 76c2 a339 2faa 133d 57ef 25bd c429 f23c
00000060: 1b6d 96bd 1c7a 8d3c b4de 7e3d 07c2 b8bc
00000070: c94f 343d fb5c 50bd 565c b2bc 5916 933c
00000080: 780a 9c3d ca52 7a3d f9eb a3bd 7446 1a3d
00000090: c2d5 d53c cf39 25bd 4c99 48bb 0ea2 9b3d
000000a0: af6e 5bbd 80cb 783d ced6 35bd 2b14 723d
000000b0: 624b 463d 73e2 a33d 05ec a6bd a927 3f3d
000000c0: 249b 643d 0c76 aebc 6e2f 5b3d 220b 84bd
000000d0: 0062 f7bc 058e dabc d6ab 443d 78a0 333d
000000e0: c464 b8bd d7c4 3abd d0a3 57bd e3e9 483d
000000f0: 6adb 873d 52cc 74bd 7ebc 8c3d e804 543d
00000100: f7a8 133d a26f 953d d017 183d dae3 69bd
00000110: 86f9 2abd ac4b 763d 56db a3bd 4221 87bd
00000120: 2023 93bd 92ee 1e3d fa9a 55ba 366b 843d
00000130: d250 31bd 51be fabc 18f0 ad3d dc08 963d
00000140: 7efb cc3b d0be 883d 5515 9abd bb12 4a3c
00000150: 458a 1cbd 58f2 b3bd ab22 31af 140a 023d
00000160: 8dcd 403d 9aee 72bd 40d5 7a3c d6a5 d83c
00000170: d149 b2bd b7dd d23b b534 d5bc 7020 5bbd
00000180: a618 73bd d491 95bd cc66 eabc 9f46 c93b
00000190: ea04 f7bc 5675 b23d b4f1 4cbb b387 e53c
000001a0: ed7b 6bbb 8b62 163d 0fc4 aa3d cace 9dbd
000001b0: 53c8 4b3c 7184 8b3d 32f0 5dbd 7955 07bd
000001c0: f470 003c 94e7 a93d ce8a 8d3d 1c97 33bd
000001d0: 64e1 133c 69d2 9fbd ebe0 4ebd e2cf ec3c
000001e0: 2606 243d fd25 873b 9d2a d1bb e095 d83c
000001f0: 8baa a0bd 7760 61bd c650 993d 4a24 a8bd
00000200: df27 133c f19c 13bd 213d 203d 1c9f 16bd
00000210: 05ce 9c3d fb1c 773d 7fce d0bc d84f 103d
00000220: 1d28 1cbd c9a3 fb3c ce7f aabd 2609 583d
00000230: 7294 05bd 279b 4b3d 9271 b13d f892 3f3d
00000240: 7b3b a13d e3bd 983b 5237 b03d 9702 36b8
00000250: 1fe6 273c ad55 333c db15 52bd d8cb a9bd
00000260: 9e81 48bd 6acd b83c f70d 8ebd 4a88 8abd
00000270: 7767 d43c 450e a23d 17c6 583c c2ff d3bc
00000280: f3d9 aebd 71dc 79bc bed9 13bd 20e5 ae3d
00000290: 677c a4bc 2392 26bc 4999 483b a7ef bb3c
000002a0: 97c0 89bd 6094 6f3c 3fb5 783d de4f 103d
000002b0: 6b71 38bc 868e 2bbd a80f 5e3d 23d1 8ebc
000002c0: 5c31 063d 7573 ab3d dfa1 8fbd 4e21 0f3d
000002d0: 6ad0 94bc 3a94 8fbd 997e b5bc 1af0 57bd
000002e0: 388a 6abd 6004 07bd 27fb f53c 91c2 6bbd
000002f0: fd5b 883d 4da0 9fbd d242 5a3d d2ee cb3c
00000300: 0905 5f3d f7da a8bc 87cb 243d 7946 703c
00000310: f55b 823c 04ba b13d 74ea a8bd 5db3 c73c
00000320: 7740 3d3d ffbd 45bd 6212 2a3c 5b43 9ebd
00000330: a6c0 45bd 6dbc 68bd 3c31 68bc 9117 d9bc
00000340: aa3a 3d3c 9984 a43d 19b4 a73d 2b15 9e3b
00000350: a892 81bd 15bb 95bd 2cbe e5ba 3943 89bc
00000360: c21b 7bbd 3470 bdbc 3c47 af3d 8c91 b63c
00000370: 381e e8bc 98f4 e9bb 77db d8bb e18a 643d
00000380: 697c e8bc ae66 bf3c bb92 3ebd 34ff 8ebd
00000390: 707a a03c e6e3 983d a9df 6c3c ade0 2ebd
000003a0: 0f11 103c 3380 64bd bb35 a93d a924 a9bd
000003b0: 992e 42bd 8974 c83c bd95 2c3d 790f 27bb
000003c0: 9970 42bd 7f21 cd3c fd04 29bd f88c 073d
000003d0: 524b ccbc 3edb 8d3d 43a2 87bd 4b7e 80bd
000003e0: 2738 12ba adc7 733d bd89 763c bf79 3d3d
000003f0: 9957 bbbc 03ca 4b3d e5d4 20bb df76 08bc
-0.0031529798 0.027560553 -0.005871609 -0.00023934012 -0.07645484 -0.033180155 -0.087078266 0.0648564
0.06818016 0.04786646 0.084901355 -0.012189861 0.044127423 -0.035699908 0.05069267 -0.0643873
-0.012051737 0.07231485 -0.06535786 -0.05966014 0.00031234667 0.03605097 -0.040511455 0.029560931
-0.07345029 0.01727014 0.062224105 -0.022553457 0.0440214 -0.050869923 -0.021772545 0.017954992
0.07619184 0.06111411 -0.080039926 0.037664846 0.026102904 -0.040338334 -0.003060895 0.07599269
-0.053572353 0.060740948 -0.044394307 0.059101265 0.048411734 0.08002176 -0.08150486 0.046668682
0.055812016 -0.021296524 0.05351203 -0.06447436 -0.030198097 -0.026679048 0.048015438 0.043854207
-0.090035945 -0.045597877 -0.05264646 0.049051177 0.06633647 -0.059765168 0.068718895 0.05176249
0.03604981 0.07296683 0.037132084 -0.05710206 -0.04174187 0.06013076 -0.080008194 -0.0659814
-0.07184434 0.038801737 -0.00081483985 0.06465761 -0.043289967 -0.030608328 0.0849306 0.073259085
0.006255566 0.066770196 -0.075236 0.012333567 -0.0382178 -0.08786458 -1.6110373e-10 0.031747892
0.04707103 -0.05930958 0.015309632 0.026446264 -0.087054856 0.006435122 -0.02602611 -0.05349773
-0.05934968 -0.07303205 -0.02861347 0.006142452 -0.03015371 0.08713786 -0.0031271996 0.028018808
-0.003593202 0.03671507 0.083381765 -0.077054575 0.012437898 0.068123706 -0.054184146 -0.033040497
0.00783943 0.08296123 0.069112405 -0.04384528 0.009025905 -0.078038044 -0.050507467 0.02890772
0.040044926 0.0041244016 -0.0063832537 0.026438653 -0.078450285 -0.055023637 0.074861094 -0.082100466
0.008981674 -0.036038343 0.039120797 -0.036772832 0.076564826 0.060330372 -0.02548909 0.035232395
-0.038124193 0.030717747 -0.08325158 0.0527431 -0.03261227 0.04970851 0.0866424 0.04677102
0.07872673 0.004661308 0.086043015 -4.3394593e-05 0.010247736 0.01094572 -0.051290374 -0.08290833
-0.048951738 0.022558887 -0.06936257 -0.06764276 0.025928242 0.07912878 0.013230822 -0.02587879
-0.08537664 -0.015250311 -0.036096327 0.08539796 -0.02007885 -0.010166678 0.0030608943 0.022941424
-0.06726187 0.014622778 0.060719725 0.035232417 -0.01125751 -0.041883968 0.05421415 -0.017433709
0.032761917 0.08371631 -0.07013296 0.03494387 -0.018165786 -0.07010694 -0.022155093 -0.052719213
-0.057260722 -0.032963157 0.030026985 -0.0575586 0.0665817 -0.07794247 0.05328638 0.024894152
0.05444816 -0.020612223 0.04023316 0.0146652395 0.01591299 0.08678058 -0.082478434 0.02437752
0.046204057 -0.048276898 0.010380359 -0.07727691 -0.048279427 -0.05682032 -0.014171895 -0.026500495
0.011549631 0.080331035 0.08188648 0.0048243008 -0.063268006 -0.07311074 -0.0017527989 -0.016755687
-0.06130577 -0.023124792 0.08558509 0.022286199 -0.028334722 -0.0071397536 -0.006617959 0.055796508
-0.028379636 0.023364391 -0.04652665 -0.0698227 0.019589633 0.07465343 0.014457622 -0.042694736
0.00879313 -0.055786323 0.082622014 -0.082589455 -0.04740772 0.02446963 0.04213499 -0.00254914
-0.047470663 0.025040386 -0.041264523 0.033093423 -0.02493826 0.06926583 -0.06622746 -0.062740885
-0.00055778254 0.059516598 0.015047488 0.046258684 -0.022868918 0.0497532 -0.0024540958 -0.008329122

bias f4 [2]
00000000: 1e7e 80bd 3bb7 03bd
-0.06274055 -0.032157164
