save_model/similar/models/NeuralNetTorch/net.params (torch, 205447 bytes, 10 tensors)

weight f4 [128, 1]
00000000: bd44 3bb2 defc 0b3f ad43 54bf d2ca 3dbf
00000010: eaab cabe 2ccd 823e dfb3 c1bc 0e78 4b3f
00000020: ed1c bfbd 846f 853e d0da 9bbe 5575 38be
00000030: 843c 73bf 38ac 2bbf 6ce3 c4be b18f ca3c
00000040: cd3b d93e 4e50 163f 100a 2fbf ae81 e6be
00000050: f7c3 bb3e 39dd 523f bffe 63be 3d96 413f
00000060: 5940 21be 84fa fe3d 2421 643f 40e1 71bf
00000070: 358b 21bf e070 8dbe 3f42 c7be 67de 5f3f
00000080: 4e9c 26bf 40e9 e3be 0ee9 32bf e29d 73bf
00000090: a038 16bf 1af4 5c3f e9cc e03e 1dc3 f83e
000000a0: 162b 3a3b cd11 febe 5299 303e 54fa 6dbf
000000b0: 2f0c 3bbf e1c2 04bf c0b9 213f fc17 183f
000000c0: e50b e6be 8b12 fbb9 a1f0 223f 35b8 7a3f
000000d0: 6192 c83e e935 0e3e f9a1 2b3f 5b7f 17bf
000000e0: ac2d 303e 46b3 45bf 8d4e 33bf 9d81 04bf
000000f0: abed ea3e a813 ce3e 7561 1abf 0dfb 993e
00000100: 1448 0e3f f18d 09be b36a 283a 13fe 863e
00000110: 3aad 1c3f 6b86 743f bae2 46bf 8aec bfbe
00000120: e2bf cc3e 6f51 513f a5ff 5e3f fce1 613f
00000130: abaf 7b3e efbb 5ebf b546 0e3e 656c 22bf
00000140: 0687 6ebf fe09 633f a13c 423f 69c9 80bf
00000150: 1290 3b3e dd54 31be 84e7 31be 54ac e9be
00000160: ff29 ce3e b30d 1abf 6275 c03e d0a9 023f
00000170: 5094 343f 9a7a be3e a7ca 7ebf 168f 28bf
00000180: 3b53 043f 8152 4b3e de33 4bbf 434b 15bf
00000190: 4102 733f 8149 2a3f 415b e1be dede 80be
000001a0: aa3c 74bf a6ed 85bc 5222 3ebf 0f16 41bf
000001b0: 7671 1fbd 793c 493e 141d d1be 7e47 153f
000001c0: f3ad 1ebf e6a9 663f e4db 313f 835c 5abf
000001d0: 993b 77be 1de4 bd3a 0dfc 1c3e 8d75 8b3e
000001e0: 8a16 c73e 63bc a83d baeb febe d02a ec3e
000001f0: eeff 75bf 80b0 19bf 523d 89be 7ae2 f1be
-1.0900462e-08 0.5468272 -0.82915765 -0.74137604 -0.39584285 0.2554716 -0.02364534 0.79480064
-0.09331689 0.26061642 -0.30440378 -0.18013509 -0.95014215 -0.6705966 -0.3845476 0.02472672
0.42428437 0.58716285 -0.6837473 -0.45020813 0.36672947 0.8236881 -0.22265147 0.7561987
-0.15747203 0.12450126 0.8911307 -0.9448433 -0.6310304 -0.2762518 -0.3891773 0.87448734
-0.6508225 -0.44513893 -0.69886863 -0.95162785 -0.5868015 0.8630997 0.43906334 0.4858636
0.002840703 -0.49622956 0.17245987 -0.92960095 -0.73065466 -0.5185986 0.63174057 0.594116
-0.4493095 -0.00047888266 0.6364842 0.9793733 0.39174178 0.13887753 0.67044026 -0.59178704
0.17204922 -0.77226675 -0.70041734 -0.51760274 0.4588445 0.40249372 -0.6030496 0.3007435
0.5557873 -0.13433053 0.0006424591 0.26365718 0.6120182 0.95517606 -0.7768971 -0.37485152
0.39990145 0.8176488 0.8710883 0.8823545 0.24578731 -0.87005514 0.1389416 -0.63446647
-0.9317478 0.8868712 0.7587376 -1.0061466 0.18316677 -0.17317529 -0.17373472 -0.45639288
0.40266415 -0.60177153 0.37589556 0.51040363 0.70538807 0.37202913 -0.9952797 -0.6584333
0.516895 0.19855691 -0.7937602 -0.58317965 0.94925314 0.6651841 -0.44014934 -0.25170034
-0.95405066 -0.016348671 -0.7427112 -0.75424284 -0.038926564 0.19651975 -0.40842497 0.58312213
-0.61984175 0.90102994 0.6947615 -0.8529741 -0.24143828 0.0014487539 0.15330525 0.27238122
0.38884383 0.08239057 -0.4978922 0.46126413 -0.9609364 -0.6003494 -0.26804596 -0.472431

bias f4 [128]
00000000: 28ca 7abe 6000 55bf 1a9b 57be b4e3 593e
00000010: 4b6c 27bf 80c9 89bd ddb6 383f ed99 eebd
00000020: 73d8 cc3c 3b3d cebd 4543 563e e111 283f
00000030: 5616 743f 81d4 233f 0439 763f bfc1 a1bd
00000040: eb47 5fbf 0cbc ffbe e7bf 2e3f d983 a63a
00000050: 9e8e 07bf 1dd6 4dbf ef27 68bf fe9d 59bf
00000060: 56f5 5cbe 7810 0e3f c9bc 0d3f 5c1c 6fbf
00000070: f0ae 1f3f 77aa 3ebf 4554 61be 4d76 c6be
00000080: 63d0 42be b0c9 5ebe c01e 66bf 5663 57bf
00000090: f760 21be 4cb6 953c 3674 e8be 10e3 c93e
000000a0: a1a6 49bf fc30 a7bd b9d1 623f 8f2e d8be
000000b0: 2a93 643f f490 b43e cae1 69bf 3c87 233f
000000c0: 7617 dcbd 7a7c adbe 64c1 4c3f 80c7 55bf
000000d0: ddf0 d33d 8463 68be 9efb 383f e73d 8f3e
000000e0: 750d 003f 0481 b43e 5e48 74be 622c 58be
000000f0: 6738 55bf 5e68 0b3f a141 4a3f a905 313f
00000100: c6cf 3bbf 63da 2f3d 1e08 18bf d8cb 06bf
00000110: 5539 1bbf 9973 ae3e 608b 16bf b542 76bc
00000120: 3622 173d 34c3 263f 466c 47bf 646a 35bf
00000130: 91a0 06bf a8d7 333f 7e1e 9cbe 6561 573f
00000140: 1ad9 b63e 5ff6 033e fc29 d1bc 7e59 3ebe
00000150: ffe0 f43d e73c 65be cb05 82bb ebbf e73d
00000160: d598 48bf fb0c 02bf 8976 4e3f fae6 51bf
00000170: 7da5 c7bd f903 7f3f 012c bb3e 40ec 0c3d
00000180: ae30 5fbf e990 003f 5209 33bf 8984 8ebe
00000190: ef0f a9be 90dd 27be fe8c 1a3c 9aea 553f
000001a0: c7b6 013e defb 663f a1ff 163f 9512 2abf
000001b0: e559 e93e a23d 27bf 8e4e e1be 357d 9f3e
000001c0: 234f ac3e 9840 423f 9f3a 9dbe be52 b73b
000001d0: d8ab 053f 7aba 5abf 5e5f 383f c0b1 48bf
000001e0: 9145 223c b582 22be 3420 08bf 5a12 003e
000001f0: f826 553f f639 91be 38c2 11bf 4cb9 c9be
-0.24491179 -0.832037 -0.2105526 0.21278268 -0.65399617 -0.06727886 0.7215403 -0.11650453
0.025005555 -0.100702725 0.20924099 0.6565228 0.9534658 0.6399613 0.9618075 -0.07898282
-0.87219113 -0.49948156 0.6826157 0.0012704089 -0.5295199 -0.80404836 -0.90685934 -0.850067
-0.21577963 0.5549388 0.5536619 -0.9340265 0.6237631 -0.7447886 -0.22004803 -0.3876213
-0.19024806 -0.21756625 -0.8989067 -0.8413595 -0.15759645 0.018275402 -0.45401162 0.39431047
-0.7876988 -0.0816364 0.8860126 -0.4222302 0.89287055 0.3526684 -0.9136015 0.63878226
-0.10746662 -0.3388403 0.7998259 -0.8350754 0.103486754 -0.22694212 0.7225894 0.27976915
0.50020534 0.3525468 -0.23855731 -0.2111068 -0.8328919 0.54456127 0.7900639 0.6914926
-0.7336391 0.04293288 -0.59387386 -0.5265479 -0.60634357 0.3407257 -0.5880642 -0.015030553
0.03689786 0.65141606 -0.7789959 -0.70865464 -0.52588755 0.7025094 -0.30492014 0.8413299
0.3571251 0.12886952 -0.025532715 -0.18588826 0.11956977 -0.22386514 -0.0039679757 0.11315902
-0.78358203 -0.50801057 0.8064962 -0.8199307 -0.09748361 0.99615437 0.3655701 0.034404993
-0.87183654 0.50221115 -0.69936097 -0.2783549 -0.3301997 -0.16393113 0.009433029 0.835611
0.1266738 0.9022807 0.5898381 -0.66434604 0.45576397 -0.6532842 -0.44005245 0.31150213
0.33654127 0.7587981 -0.30708787 0.0055945804 0.5221534 -0.8544079 0.7202052 -0.78396225
0.009904281 -0.15870173 -0.5317414 0.12507 0.83262587 -0.28364533 -0.5693698 -0.39399183

weight f4 [128, 128]
00000000: 6a29 8abc 8032 223d d9ae 0abd 3b07 52bd
00000010: a094 90bd e2f7 1f3d 0fe9 313d cc23 653d
00000020: 155e 2d3d 23c8 25bd f713 93bc 7eca f73c
00000030: fbb9 9b3d 119a f43c 1197 21bd 9a66 1ebd
00000040: 8096 98bd 79aa 3f3c 27b3 34bd 6a26 87bd
00000050: de1a 9c3d 96ae 8cbd 85eb fabc ab5d c23c
00000060: 2e2b 02bc 0eca 82bd 5ba1 b3bd b995 8d3d
00000070: 5a00 9e3c ddab 4e3d 4114 aabc 75e6 2f3c
00000080: 314e 1ebc b4f2 4e3c e2f7 84bd d83a ff3c
00000090: f3b6 1b3d a658 7bbc ac13 bbbc 3170 8dbd
000000a0: 81d3 a83b cb7a 5fbd 4759 f53c 53bf 54bc
000000b0: 459d 1cbd 7ef8 ae3c 5a3a 46bd 3a14 bd3b
000000c0: 734c de3c 40ea dabb baf5 30bb ce7b f23c
000000d0: ab41 a23c 8117 4dbc bdc9 b2bd 137b 07bc
000000e0: 53e0 c03c 9107 a0bc 7b46 2f3d 8336 923d
000000f0: 4e5b 3abd e0c8 3ebc 6f17 273d 7324 8bbb
00000100: 740b ec3b 81d0 953c ce96 05bc 9e44 f33b
00000110: 904a 503d c4b4 863d 42b1 7a3d 3256 ae3c
00000120: f8a4 c43c 28f6 73bd 6aff a2bd feea aebd
00000130: 9d6e ab3d eb10 7c3d aa06 51bd 6d17 1e3d
00000140: 86f0 9b3d db89 903d 2fa5 7e3d aacf 993d
00000150: 1adc 13bd 2ade 30bd 7031 aa3d d7d8 783d
00000160: 8113 47bd c53c aa3d 2cfd 0d3d 4f95 463d
00000170: 5eb9 8bbd 58e7 7b3c 2e55 d2bc f3aa a43d
00000180: 7c19 89bc 4155 d83c 7592 9b3c 3b2c 433d
00000190: b59d 3ebd 2432 f63c 915f 5dbd db88 a13c
000001a0: 798c 5abd 914a b4bd ec7b 86bd 9afd 973d
000001b0: c4d5 433d 91c8 9c3d d7ca 863d 5e83 c0bd
000001c0: dfc8 45bd 1638 e9bc af4b 8ebd dcba 933d
000001d0: f72f 78bd 0891 99ba 0f2e b3bd d694 28bd
000001e0: 5c0f 6e3d c85c 893d 511a 803d 7be6 553d
000001f0: bad0 ae3d ba7d 1bbc d346 813c b759 ae3d
00000200: c293 1b39 9c74 7d3d f4d3 423d 1c79 7b3d
00000210: a34e 52bc 96c9 3a3d 70d0 ea3c 2fd7 68bc
00000220: caf3 36bd 66ad 48bd 0806 6fbd 6799 913d
00000230: 7517 8b3d aec4 fdbb 24d5 22bd 7ef5 413d
00000240: 5dcf 923c 6f9d 23bb 9da3 29bd 4aec 9d3d
00000250: 9f94 633c 8fd3 93bd f2b4 383d 04cb 523d
00000260: 74f4 70bc 46ca 843d f351 1abd fbfa 40bc
00000270: 6b1b a53d 8f3d 0e3c 8c37 82bd acb4 dbbc
00000280: 9642 c6bc e026 cdbc 35f7 a93c 061e ad3d
00000290: fdab 5b3b d461 3dbd e1fc 0abc 0e73 5f3d
000002a0: 9611 a63a 0f47 9ebd 9c58 1c3a ee57 9ebd
000002b0: 3ecc eabc 17a6 183d 52b8 acbd 8996 443d
000002c0: a134 a23d c816 be30 79d2 2bbd f41e 18bd
000002d0: 96ea e13c 3106 bebd d37b 653d 262a 90bd
000002e0: 4c6e 87bd 99f7 aabd 5d9a 98bc b2b6 6e3d
000002f0: a15b e3bd 618c af3d c230 efbc e8b3 2a3d
00000300: a658 84bc 82f6 95bd 92c5 1f3c 13de 153c
00000310: 1b03 9b3d 5910 703d bc07 8abd 0ff6 953d
00000320: 2eee 703c c434 673d ce6f a0bd 0be8 f8bc
00000330: e4ab f1bd 1883 fcbc d96c cdbc 9f17 79bd
00000340: 18ed 0b3d 8113 6a3d 68e0 b23c 8de5 58bd
00000350: eeea 5fbd 4e6c 3fbc 2ddf 223d eafc b93d
00000360: ccb8 833c 7c73 b4bb 64a1 3f3d 2dec eabd
00000370: c669 8bbd d01d 703d 8bdf 2ebd bd24 363d
00000380: 765e b7bd 5741 f2bc 5664 8abd 821a 2f3d
00000390: cc40 27bb a39e 943d 897b 6a3d 1b66 823d
000003a0: 521f 2a3c 332c 2abc f06a 78bc 71c2 863c
000003b0: 2893 7d3d 6043 d0bd f9e6 a63d 6ca6 883a
000003c0: b0cb 88bd c2c4 12bd 0046 aa3d 78ae a43d
000003d0: c5bb 9abd 2fac b53b 6d2b 6e3d 528e 6b3c
000003e0: 58c8 ac3d d1b5 a7bd 47f7 113d 5621 463d
000003f0: 774f cfbc 7495 c53c e07b 34bb a54c 483d
-0.01686545 0.03959894 -0.033858154 -0.051276427 -0.07059598 0.03905476 0.043435153 0.05594234
0.04232605 -0.04047407 -0.017953856 0.030247923 0.07603832 0.02985862 -0.03945071 -0.038672067
-0.074505806 0.011698359 -0.044116165 -0.06599124 0.07622312 -0.06869237 -0.030629883 0.023726305
-0.007944865 -0.06386195 -0.087710105 0.06913323 0.019287277 0.05045687 -0.020761611 0.010736098
-0.009662197 0.012631107 -0.064925924 0.031155989 0.03801627 -0.01534096 -0.022836529 -0.069061644
0.0051521664 -0.054560464 0.029949797 -0.012985068 -0.03823592 0.021358725 -0.048395492 0.0057702335
0.027136063 -0.006680757 -0.0027001933 0.02960005 0.019806704 -0.012517811 -0.08729885 -0.008269089
0.023544466 -0.019534858 0.042791825 0.071393035 -0.04549723 -0.011644572 0.040793832 -0.0042462884
0.0072035138 0.018287899 -0.00815363 0.0074239513 0.05085236 0.06577447 0.061204202 0.021281336
0.024004444 -0.059560925 -0.079588726 -0.08540915 0.08370707 0.06153957 -0.051031746 0.03859656
0.076142356 0.07057544 0.06216925 0.07510312 -0.036098577 -0.043180622 0.08310211 0.06075367
-0.048602585 0.08312372 0.03466527 0.048482236 -0.06822465 0.015374981 -0.025675382 0.080404185
-0.016735785 0.02640784 0.018990735 0.047649603 -0.04653712 0.030053206 -0.054046217 0.019718578
-0.05335662 -0.08803285 -0.06566605 0.074214175 0.047811285 0.076554425 0.065816574 -0.09400056
-0.04828727 -0.028469127 -0.06948029 0.07213375 -0.060592618 -0.0011716196 -0.08749019 -0.041157566
0.058120117 0.0670715 0.062550195 0.052221756 0.08535905 -0.009490425 0.015780842 0.085132055
0.00014836996 0.061878785 0.047565416 0.061394796 -0.012836131 0.045602404 0.028663844 -0.01421146
-0.04466609 -0.04899349 -0.05835536 0.07109337 0.067915834 -0.0077443933 -0.039754048 0.04735326
0.017921144 -0.0024965664 -0.0414158 0.07711084 0.0138904145 -0.07218086 0.045094438 0.051463142
-0.01470672 0.06483893 -0.03767581 -0.011778588 0.0806187 0.008681669 -0.06358251 -0.02681955
-0.024201673 -0.025042951 0.02074776 0.08452992 0.003351926 -0.046235874 -0.008483143 0.054553084
0.0012670036 -0.07728397 0.00059641316 -0.07731615 -0.028661843 0.03726777 -0.08433594 0.047995124
0.079201944 1.3830794e-09 -0.04194877 -0.037138894 0.02757768 -0.09278525 0.05602629 -0.07039289
-0.06612834 -0.08348007 -0.018628294 0.0582797 -0.11101461 0.08571697 -0.029198054 0.04167548
-0.016155552 -0.07322408 0.009751694 0.009147185 0.07568952 0.05860934 -0.067397565 0.073223226
0.014705224 0.056446806 -0.07833825 -0.030384084 -0.11800364 -0.03082423 -0.025076317 -0.060813542
0.034161657 0.057147507 0.02183552 -0.05295329 -0.054667406 -0.011683537 0.03976362 0.09081443
0.016079329 -0.005506931 0.046784773 -0.11470828 -0.06807284 0.05862218 -0.042693656 0.04446863
-0.08953564 -0.029572172 -0.06757419 0.04274989 -0.00255208 0.0725682 0.05724672 0.06367131
0.010383444 -0.0103865145 -0.015162215 0.016450139 0.061907917 -0.10169101 0.08149523 0.0010425574
-0.06679475 -0.035832174 0.08314133 0.0804109 -0.075553454 0.0055442075 0.058146883 0.0143771935
0.0843665 -0.081889756 0.035636213 0.048371635 -0.025306446 0.024119116 -0.0027539656 0.04890122

bias f4 [128]
00000000: 2b37 aa3d fb63 853d 422e 3abc d302 463d
00000010: 6f12 773d 5465 aabc 96a5 3abd f075 94bd
00000020: da82 d2bc 67df 79bd 83c7 12bd 9c10 bfbc
00000030: 2a2c c6bd f3f9 6e3d f1e6 a23d f07c bd3d
00000040: 5c98 843c 939f d93c 1026 91bd afdd 71bb
00000050: b63d 813d c5e9 a63c 9ad2 653d 374c c13d
00000060: 6635 7e3c c366 3db9 737f c23d 905a 90bd
00000070: e86e 8c3b ab75 da3c c089 713c 3427 cbbd
00000080: 62b6 23bd f715 b13d f8b5 0a3b 04fc 943c
00000090: 27e6 e43c c8a6 f43c 4f3e 633d 15fa 0e3d
000000a0: 9517 cdbc 0734 c9bc 6934 2ebd 01d4 503d
000000b0: 2bd5 c93d ff04 a73d 6d39 4bbd 7c93 033d
000000c0: d414 58bd c7a4 b1bd 494d 5f3d b843 1b3d
000000d0: ded9 84bd f1c8 1f3c 5d10 923d 5dc4 f0bb
000000e0: ac71 993c 5ce3 053d de96 703d f0c0 893c
000000f0: fa6c 913a 62e6 e8bc fd2d 243d 15a7 91bd
00000100: 736a 1f3d a175 b6bd 5c1c 89bc f317 163d
00000110: a09c 2bbd 5cf4 6abc c116 11bd ecc1 33bd
00000120: 79c2 cbbc e720 36bd c080 8dbd f88a 45bc
00000130: 0d95 d3bb 99b4 5dbb 247d 703c c19e 223c
00000140: b284 b43b de5b afbb 93db 473d d890 a43c
00000150: 678f 2f3d c3aa 1e3d 61be ad3c 0f9a c33c
00000160: 5d68 aa3d 1691 1ebd d4d9 8dbb f77a ebbb
00000170: 49ca 443d be94 2a3d d63f 403c aaad 1bbd
00000180: 5a85 53bd 7fae d33c 8305 9e3d 6154 51bd
00000190: a0e0 fc3c e533 3dbc 12ad 1a3d cb9f 8f3c
000001a0: 58df 213d 776f fb3c 4903 1d3d b172 84bb
000001b0: 7e8e ce3d c61f 90bd bce9 e33b f4d2 c7bd
000001c0: de3a 8dbd 2ce8 acbd 52de 013c 3528 2d3d
000001d0: 2828 383a be5f e9bc 6f38 54bd ec25 88bc
000001e0: 70f1 47bd f2a6 1bbb 298e b13d f553 8e3d
000001f0: b57a d13c 07cc c4bc 9883 94bd 964b 0ebd
0.08311304 0.065132104 -0.011363568 0.048342537 0.060320314 -0.02080027 -0.04556807 -0.07249057
-0.02569716 -0.06100407 -0.0358348 -0.02332335 -0.096763924 0.05834384 0.07954205 0.092523456
0.016185932 0.026565349 -0.07087338 -0.0036905815 0.063105986 0.020375142 0.05610905 0.09438365
0.015515661 -0.00018062726 0.09496965 -0.070485234 0.004285682 0.026667437 0.014742315 -0.09919587
-0.039968856 0.086467676 0.002116559 0.018186577 0.027941776 0.029864684 0.055479344 0.034906466
-0.025035659 -0.024560941 -0.04253045 0.050983433 0.09855112 0.0815525 -0.049615312 0.032123074
-0.05275424 -0.08674007 0.054517064 0.03790638 -0.06486867 0.009752498 0.07132027 -0.007347627
0.01873096 0.03268753 0.05873763 0.016815633 0.00110951 -0.028430168 0.04008292 -0.071119465
0.038919877 -0.08909155 -0.016737156 0.036643934 -0.041897416 -0.014340486 -0.03542209 -0.04388611
-0.024873005 -0.044464972 -0.06909323 -0.0120570585 -0.006456977 -0.0033829568 0.014678273 0.009925545
0.0055089826 -0.0053515276 0.048793387 0.020088598 0.04286137 0.03873707 0.021208944 0.023877172
0.08320687 -0.038712583 -0.0043289457 -0.0071862894 0.048044477 0.041645758 0.01173397 -0.038007416
-0.051640846 0.025840042 0.07715895 -0.05110586 0.030868828 -0.011548017 0.03776271 0.01753225
0.039519638 0.030692799 0.03833321 -0.0040419926 0.10085772 -0.0703731 0.0069553535 -0.09757033
-0.06895994 -0.08442721 0.00792654 0.042274673 0.0007025027 -0.028488036 -0.05181163 -0.016619645
-0.048814237 -0.002375063 0.08669693 0.06949607 0.025571207 -0.02402307 -0.07251662 -0.034740053

weight f4 [128, 128]
00000000: 7937 1dbc 45fb 0bbd 36fc 14bd 99a1 0fbd
00000010: 8207 a73d 6055 febb c821 a63d 5f55 7bbd
00000020: dcc3 493d 6b70 c5bd 98a4 b3bc 9d16 f6bc
00000030: ce89 cbbd 4419 90bd 4c8b 89bd f5f8 85bc
00000040: 46f9 40bd acc7 91bd a0c9 db3a 580c 0b3d
00000050: 3d3d fb3b f6db 2e3d 4f4f 43bb f497 a53d
00000060: f3f7 b6b8 aa50 6eb1 f5de 48bb 469a 08bd
00000070: 007d 00bd f64d 043d b43e 44bd 0c5d 823c
00000080: 9243 8abd a92a fcbb d723 52bc 2f94 1dbd
00000090: 7da6 7b3d d087 85bd 7194 283d 23a0 95bd
000000a0: 815d 293d b38c 9e3d 5e5b 44bc 58b3 04bc
000000b0: 5f13 0f3b 8790 423d f792 97ba 275e aabc
000000c0: a419 af3d c2b5 993d 2d48 bebc e471 43bd
000000d0: fbfa 3e3d 266d 2bbd fee3 5ebd dd7d 35bd
000000e0: 6ebe 9c3b fd0f 1ebd ad8f 653d bc56 8a3d
000000f0: 878f 4cbd 6254 c7bc 8453 953d 7c57 1ebd
00000100: 734c 673d 07b3 63bc 46b5 803d fded 283d
00000110: 7da6 8ebd 58be 78bd cbd0 323d a044 94bc
00000120: 12bd 833c faf1 a53c e53a 8bbd 2e94 38bc
00000130: 9dba 9e3d 4ae5 77bc af8f 7dbd 03e9 933d
00000140: 6c72 ad3d 45b2 033d e944 5bbd 1dd4 103d
00000150: a0b4 ed3c e1fe 32bd 0886 78bd 4c3e 97bc
00000160: 90e8 943d e35c 24bc 50a6 8e3a 3453 333d
00000170: 399c 50bd 304c b2bc 7dd5 2b3c 0ed7 9d3d
00000180: 8869 c6bb bd4c cf3c 6706 94bd a211 a9bd
00000190: a2e4 2c3c 0891 60bb c95b 933d 6cc4 cd3c
000001a0: a8a2 a83d 1a59 fabc c418 9dbc 9f67 8cbb
000001b0: 5bfb 17bd b1cc 353c 19bf 98bd 3005 403b
000001c0: 68d9 edbc 8ec5 c83c fdb9 b83d 404e 153d
000001d0: 1dc1 863c 42fa 8bbd bea7 2cbd 207e 51bd
000001e0: 953d 95bd f441 5c3d 55e6 b33d 0c64 8a3d
000001f0: a729 953d 86c7 25bd 19f9 1ebd b51d f1bc
00000200: 189b 08bd e9cf a0bd 1e7e 89bd fa0f e33a
00000210: 7a51 4fbd cca5 62bd fba9 983d d2fd 98bd
00000220: 6d5a d5bc 40cc 903d d325 1cbd 8955 213d
00000230: f17e 59bd 40cb 1e3c 4c61 1e3d c7f9 b4bc
00000240: 626e 50bd 8349 983c ea13 9bbb 1666 a93d
00000250: 9314 793a a2b8 983d f1e7 2fbd 839f 35bd
00000260: c1e7 1c3c e0a5 103b 80a3 9e3d b446 573d
00000270: c78d 18bd 0510 253a f2fb 8b3d 31fb aa3d
00000280: efaf 8e3d 9c6e 043d ae56 19ba 8a33 873d
00000290: b3a2 143d 4007 88bd 020e c73d 3641 d5bb
000002a0: d23d 8d3d e6dc 833d 769d f8ba 9b7d 84bd
000002b0: e1de a8bd 99ab f9bc a8b5 143d 45a5 283c
000002c0: d602 7d3a 9db1 94bd 934a 8b3d d49e 9abc
000002d0: c516 733d 9215 96bd f1ce 9fbc 9d4f 533d
000002e0: 435f 153d 7eb5 9bbd 18cd 9b3d 20d8 71bd
000002f0: 344a 8abd d20c 84bd 2958 94bd 7c3e 0a3d
00000300: 0780 923d ab72 9d3d 7616 343d 2044 79bc
00000310: fad0 dc3c dbb1 d63c 5a80 9fbd db92 203b
00000320: 4998 8f3c 2ea6 a23d f59e 5d3d 4df0 69bc
00000330: 2501 ad3b 78bc 6e3d f2ac bc3d bc89 21bd
00000340: 913a ba3d 202a 0dbd ebc9 e1bc 9fe3 f83b
00000350: 32fa 8b3d a640 2bbd 4efe 83bb 4979 7ebd
00000360: 46cd 873b fdf5 743d 050d 0dbd ff48 07bd
00000370: 3268 023d 1120 463d 4bff 7d3b 4862 19bc
00000380: 4a1b 4e3a 8045 da3c e12d a63d 31e2 333d
00000390: 98ab a33c db15 213d c3c4 0c3d dc13 993b
000003a0: cdeb 82bd aef7 5fbd 6dfe d53c cc20 993c
000003b0: 146a 27bd 45fe 29bd 8485 6f3d d8da 18bc
000003c0: 89b1 883d f4e0 083d a2ed 913c 53f0 c7bc
000003d0: d543 e1bc 3396 103d 5b14 47bd 4fed a2bc
000003e0: 01ae 69bd 7188 9bba 7498 6dbd 04ae 21bd
000003f0: 68ad bbbc d7ed 333d 6470 773d 3fbb 863d
-0.009595745 -0.034175176 -0.03637334 -0.03506622 0.08155729 -0.0077616423 0.08111912 -0.061360713
0.04925905 -0.09640583 -0.02192907 -0.03004008 -0.099383935 -0.07036069 -0.06716022 -0.016354064
-0.047112726 -0.071181625 0.0016768463 0.03394732 0.0076672123 0.04269024 -0.002980191 0.080856234
-8.7246204e-05 -3.467941e-09 -0.003065047 -0.03335025 -0.03136921 0.03230091 -0.04791136 0.015913509
-0.06751169 -0.007695515 -0.012825928 -0.038471397 0.061438072 -0.06520045 0.04115719 -0.07305934
0.041348938 0.0774168 -0.011984674 -0.0080993995 0.0021831614 0.047501113 -0.0011564185 -0.020796848
0.085498124 0.07505371 -0.023227775 -0.047716036 0.046626072 -0.04185214 -0.05441665 -0.044309486
0.004783443 -0.038589466 0.056045223 0.067548245 -0.049941566 -0.024332229 0.0729132 -0.03865765
0.056469392 -0.013897664 0.06284575 0.04124259 -0.06965349 -0.0607284 0.04365615 -0.01809913
0.016081367 0.020256985 -0.067983426 -0.011265798 0.077504374 -0.01513035 -0.061904605 0.07222178
0.0846909 0.032152433 -0.053532515 0.035358537 0.029016793 -0.043700103 -0.060674697 -0.018462323
0.0727092 -0.010031912 0.0010883305 0.04378052 -0.050930236 -0.021764845 0.010487911 0.07707034
-0.006055061 0.025305146 -0.07227784 -0.08255316 0.010552557 -0.0034266133 0.07195241 0.025118075
0.08234149 -0.030560065 -0.019176848 -0.0042848135 -0.037104946 0.0110961655 -0.07458324 0.0029299967
-0.029034331 0.024508264 0.090198494 0.03645158 0.016449505 -0.06834842 -0.04215216 -0.051145673
-0.072871365 0.053773835 0.08784167 0.06757364 0.07283335 -0.040473484 -0.038811777 -0.02943311
-0.033351034 -0.07852156 -0.06713508 0.0017323487 -0.05061481 -0.055333897 0.07454296 -0.074702874
-0.026044095 0.070702076 -0.03812201 0.039388213 -0.053099576 0.009692013 0.03866701 -0.02209176
-0.05088652 0.01858974 -0.0047325986 0.082714245 0.0009501662 0.07457091 -0.042945806 -0.044341575
0.009576739 0.0022071525 0.07746029 0.052557662 -0.037244584 0.00062966376 0.06835164 0.08348692
0.069671504 0.032332048 -0.0005849403 0.06601627 0.036287975 -0.06642008 0.09719469 -0.006508018
0.06896557 0.064386174 -0.0018967825 -0.0646927 -0.08245636 -0.030477332 0.036306053 0.01029331
0.00096516067 -0.072604395 0.06801333 -0.018874563 0.059347887 -0.07328333 -0.019507857 0.051589597
0.0364678 -0.07602976 0.07607478 -0.059044003 -0.067524344 -0.06447758 -0.07243378 0.033750996
0.071533255 0.07687887 0.043966733 -0.015213996 0.026955117 0.026207855 -0.07788153 0.0024501595
0.01752867 0.079418525 0.05410667 -0.014278484 0.0052796775 0.058285207 0.09212674 -0.039437994
0.09093202 -0.034464 -0.027562102 0.007595494 0.0683483 -0.0418097 -0.004028118 -0.062127385
0.0041443435 0.059804905 -0.034436245 -0.0330286 0.03183765 0.048370425 0.0038756903 -0.009361811
0.0007862343 0.026644468 0.081142195 0.043916885 0.019979283 0.039327484 0.034367334 0.004671557
-0.06392632 -0.054679565 0.026122296 0.018692397 -0.04087265 -0.041502256 0.05847694 -0.00932952
0.06674487 0.033417657 0.017813507 -0.024406588 -0.027498165 0.03529949 -0.048603397 -0.019888548
-0.05705071 -0.0011866224 -0.05800672 -0.039472595 -0.022909835 0.043927994 0.06040992 0.06578683

bias f4 [128]
00000000: 2fb1 e93c 52f5 583c 77d6 2f3d af64 1d3d
00000010: 8afb 88bc c186 d33c 82f5 1bbd 7a55 54bd
00000020: 42ad 4b3b 00f7 b23c 4fc9 543d 93ea 333d
00000030: e6a6 993b 7f7f a2bd fbb8 53bd fb99 99bd
00000040: 411a 963c b3bc b4bd 1a64 2d3b f6eb b33d
00000050: ae81 653d 1c8c 86bd 964d 1cac 383e 0e3c
00000060: dec7 ee3b aebc e73c d9b2 0abd 607e 55bd
00000070: 36d7 80bd b017 49bd e267 dbbc f3e5 6e3c
00000080: cfa5 463d e168 88bc 4a75 adbd 203b 7dbd
00000090: 72b2 393d af9f f5ba c4c3 dabb 4acd 143d
000000a0: 0e33 463d e573 d2bc 00c3 f13c 1eea 9abd
000000b0: cc41 863d cb08 1abc 723a ac39 aa33 5cbd
000000c0: 1117 973d 0c2d a1bd 5db6 743d b1ef 26bd
000000d0: 3c9e aabc 5a6b 77bc e24e d03c 0225 aebc
000000e0: eef3 7d3d 3f2b 993d af76 db3b b71e d83c
000000f0: f692 063d 34a2 6f3d f4ed a9bd 8ea8 68bd
00000100: 18c8 ddbc 74f6 76bd d81c 53bd a72d ba3d
00000110: b42a 75bc b22d 69bd 6d69 47bd 5edf 2ab9
00000120: 6ba1 8dbd 8d6c 5b3d d1f9 9f3d acbf 52bd
00000130: f684 54bb 8b92 c63c f99d 6a3b aa8b 7ebd
00000140: 2040 abbd 25ef 48bd 0453 503d 1a33 69bd
00000150: 7944 a73c 252d 98bc e4c1 5a3d 5586 e23c
00000160: 4a1d e83b da84 94bc e35d b1bd f131 a0bd
00000170: 3fdb 86bc 7a28 bb3d 093f 7abd 8fb2 a73d
00000180: 3cca 96bd 6845 aa3d df91 01bd 11de bd3d
00000190: 2f2b 16bc 1c35 90bd 0e45 5abb c10a 4ebd
000001a0: 2d7f f6bc 5f50 683d e6b7 60bc 2432 f13c
000001b0: 8661 c5bd 2dc0 f23b 13e0 9cbc fc18 f239
000001c0: eda4 11bd 7573 a73b 0389 12bc 93fa 233d
000001d0: beeb 4cbd 39fb 10bd 19fc 323d b72f 1b3d
000001e0: 7074 20bd f466 963c be86 223c c934 b9bd
000001f0: 56e4 813c cb11 64bc d6ab 6ebd 3264 96bc
0.02852687 0.013242083 0.04292914 0.038426097 -0.016721506 0.025821092 -0.03807593 -0.05183933
0.0031078612 0.021846294 0.051949795 0.04392488 0.0046890853 -0.07934474 -0.051690083 -0.075000726
0.018323066 -0.08825054 0.002645737 0.0878524 0.056031875 -0.065696925 -2.2212002e-12 0.008681826
0.0072870096 0.028288212 -0.03386197 -0.052122474 -0.06291048 -0.049094856 -0.026782934 0.014581191
0.04849797 -0.016651573 -0.08469637 -0.061823964 0.045336194 -0.0018739606 -0.006676169 0.03632859
0.048388533 -0.025690028 0.029511929 -0.075641856 0.065555185 -0.0094015105 0.00032849942 -0.05376021
0.073774464 -0.0786992 0.059744228 -0.04075593 -0.020827405 -0.015101278 0.02542824 -0.021257881
0.062000208 0.07478952 0.006697498 0.026381833 0.032854997 0.0585043 -0.08297339 -0.05680137
-0.027072951 -0.06029363 -0.05154118 0.09090739 -0.0149637945 -0.056928344 -0.048684526 -0.00016295674
-0.06915554 0.05357032 0.078113206 -0.051452324 -0.0032427884 0.024239799 0.0035799725 -0.062144913
-0.0836184 -0.04905619 0.05086042 -0.0569335 0.020418392 -0.018576214 0.053407565 0.027651945
0.0070835697 -0.018129755 -0.086604856 -0.078220256 -0.016461967 0.0913858 -0.06109527 0.08188354
-0.07362792 0.083140194 -0.031633254 0.092708714 -0.009165569 -0.0704138 -0.003330532 -0.050303224
-0.030089939 0.056717273 -0.01371572 0.029442854 -0.09637742 0.007408163 -0.019149816 0.00046176452
-0.035557676 0.005110199 -0.008943799 0.040033888 -0.05002951 -0.035395835 0.04369745 0.0378873
-0.039173543 0.018359639 0.00991982 -0.09043271 0.01585595 -0.013920258 -0.058269344 -0.018358324

weight f4 [128, 128]
00000000: 8623 06bd 1491 8ebd b4c6 3d3d aaa2 e6bc
00000010: 0a0d aabc eb18 2c3d 83b1 7f3d 7dd6 9abc
00000020: 26e0 ea3c 631b 563c a2ac a7bd 5beb 8c3d
00000030: 38dd 263d 6984 46bd 0195 e6bb 99fa 6a3d
00000040: ef5c 663d a3bd 023d 3746 5d3d fc57 90bd
00000050: 41db 8f3d 3d22 943d 103a 14bb a600 38bd
00000060: 1514 103d ee77 993c 037e b6bb a69f 3d3c
00000070: 5285 633d a526 ad3d a64c 97bd 82ca a23d
00000080: eccc 94bb 395a 13bd 420e debc 1a70 71bd
00000090: 6cd0 a13d b69a a4bd 8cfc 463d d852 5c3c
000000a0: cb09 c03c a41f 23bd 6a03 1dbd e18d c5bb
000000b0: cae2 19bc 4a5a 31bc d232 063d b32e 67bd
000000c0: ed34 1cbd ead8 a9bd c857 a53d 7de2 ff3c
000000d0: bef9 b9bc 45e6 2fbd dd08 48bd 6653 a43d
000000e0: bbd8 a23d 1b91 9c3d 4534 8ebd f3c9 253d
000000f0: c9f4 e63c 8ac4 053d 3a96 73bc de5d e0bc
00000100: bfd9 2bbd acb0 a3bd 8ce4 853d 8997 333c
00000110: eb57 8f3d 4f62 853d 485a d43d 71d9 c0bc
00000120: 753f 3d3d 00a3 82bb 25ed 79bc 0f20 a33c
00000130: 0f2a 95bd 02c9 9a3d ea5c 233d e562 703d
00000140: 5cca 0c3d 2986 a63d 2796 1cbd e543 77bd
00000150: 3495 a43d ceb2 6a3d cc1b 23bd 40a7 a5bd
00000160: d5e8 61bd 8df9 863d e025 4a3d a099 393d
00000170: e0fd b2bd 0d3f 10bc 2445 96bd bc32 ce3c
00000180: ad40 1cbc d7de d33b 7adb 983b 35e0 81bc
00000190: d6ab 5abd 7aef 8dbd 7441 b7bd 5a37 da3c
000001a0: 473e 273d 26c2 d33b 01e9 783d bbfd 29bd
000001b0: c88c 0bbc 300c 953d d337 5d3c c99e 543d
000001c0: 68a7 4cbc 82f5 093d 0c3a 2fbc a5ae 92bc
000001d0: f428 9fbd 94ab 983d e9bc 9abd 4c89 51bd
000001e0: 9829 d8bc 82a5 523b 086a 0fbd c657 0a3d
000001f0: 76b0 d23c 6d43 383d 787f 373d caa4 69bd
00000200: 93ea 8dbc 36c6 b2bd 2274 aabb c9a5 5d3d
00000210: 83d0 9a3d 0918 76bb dd14 e7bb e186 a73d
00000220: 630c 62bd f57e c9bc f2a4 423d f717 b5bd
00000230: 336f 87bc 9850 25bd 2485 9bbd 8647 91bd
00000240: 2e83 193d 0ad4 433d 7c7b a53d f2d3 22bd
00000250: 40d8 4a3d 2a90 253d 838e 65b7 9a70 363d
00000260: 4dde 393d a948 b0bd 2a1e d1ba 5c96 e5bc
00000270: 3120 5e3d 22c0 d03c 9200 4dbd 7cf2 06bc
00000280: a5dc 543d cba0 883d 970e 2ebd b543 e1bb
00000290: e4be afbb b5c4 5f3c 5b8e 093c ecf9 8dbc
000002a0: 6a94 efbb b71b 5fbd 52d9 7c3d 3cf9 723c
000002b0: 1c75 81bc 3100 94ba 0eea b03a e1ca 55bc
000002c0: 73cd 2dbc 0021 5d3c 06b4 93bd 0c2d 3a3d
000002d0: 48d5 a63d aeae 5d3c 390e 01bd 54de 603d
000002e0: abac ab3d ad8a 4e3d bcdb 733c 0c25 22bc
000002f0: bdf2 3c3d bb8d a13d 4b28 913d 766e 9d3c
00000300: 1d41 b4bc 797f a33d 5f46 31bc a214 2fbd
00000310: e66e c73c 5585 323c 89ff d6bd 5aa0 92bc
00000320: 6ef4 2bbc f785 ae3d 114c 593d 99f6 6fbd
00000330: 468a 933d bfbd 84bd 82b6 953d 67dd d7bc
00000340: 316b 69bc d0aa ddbc e15f 0a3d 6e0c 803d
00000350: 5302 04bd 7994 263d 73fe 65bd ed2a 92bc
00000360: e136 adbd add4 913d a6b2 75bc 161e d6bc
00000370: bd11 5c3d 0649 b7bd c806 623d 974c 06bc
00000380: b3ed c4bd 050c ff3c 7bd7 efbc 01d0 efbc
00000390: bd4b f83c 3c61 e93c 9a4b 6ebd f30e 09bd
000003a0: ffda 9c3d 3f17 403d f499 8fbd 1ecc cfbc
000003b0: dc70 b9bd 6dca f23b 5f5b 3e3c 818f bb3c
000003c0: a105 b8bc 5b25 11bd 71c4 9e3d 458a b13d
000003d0: 9b35 8dbd b0ea 42bd 8bca eabc a7ef 3dbd
000003e0: ee13 a4bc bcfe bdbc 8b51 6fbc e270 503d
000003f0: f473 393d 1140 b7bc 2305 d53c 7315 60bc
-0.03274872 -0.06961265 0.046332076 -0.028153736 -0.02075817 0.04201595 0.062425148 -0.018901104
0.028671335 0.013068053 -0.08187224 0.06880828 0.040738314 -0.04846612 -0.0070368056 0.057367895
0.056240972 0.031919133 0.05402204 -0.07048032 0.07024241 0.07233093 -0.0022617616 -0.044922493
0.0351754 0.018733945 -0.005569221 0.011573708 0.055547066 0.084546365 -0.073876664 0.079487815
-0.00454103 -0.035974715 -0.027106408 -0.0589448 0.079010814 -0.08037321 0.04858069 0.013447486
0.02344217 -0.039825097 -0.038333334 -0.006028876 -0.00939245 -0.010824749 0.03276331 -0.05644102
-0.03813641 -0.08293326 0.080733836 0.031235928 -0.022702094 -0.04294421 -0.048836578 0.080237195
0.07951494 0.07644864 -0.06943563 0.040475797 0.028192895 0.032658137 -0.01486736 -0.02738851
-0.041955706 -0.07992682 0.065377325 0.010961422 0.06999191 0.065128915 0.10368782 -0.023541184
0.046203095 -0.0039867163 -0.015254294 0.019912748 -0.07283413 0.075578704 0.03988353 0.058688063
0.034372672 0.08131058 -0.038229134 -0.060367484 0.08036271 0.057299428 -0.03982143 -0.08088541
-0.055153687 0.06590567 0.049352527 0.045312524 -0.08739829 -0.008804095 -0.07337406 0.025170676
-0.009536904 0.0064657736 0.0046648355 -0.01585398 -0.05338653 -0.06930442 -0.08948031 0.026637722
0.040830877 0.0064623533 0.060769085 -0.04150174 -0.008517452 0.07277715 0.013502079 0.05190924
-0.012491085 0.0336814 -0.010694992 -0.017905543 -0.07771483 0.07454601 -0.07555563 -0.051156327
-0.026387021 0.0032142107 -0.03501323 0.033775114 0.025718909 0.044986177 0.044799298 -0.05704192
-0.017323768 -0.08729212 -0.0052018324 0.054113183 0.07559302 -0.0037550947 -0.0070520476 0.08180023
-0.055187594 -0.02459667 0.047520585 -0.088424616 -0.016532516 -0.040360063 -0.07593754 -0.0709372
0.03747862 0.047809638 0.080801934 -0.039752908 0.04952264 0.04042069 -1.3682645e-05 0.04454098
0.04537802 -0.08607609 -0.0015954424 -0.028025798 0.05422992 0.025482241 -0.050049372 -0.008236524
0.051968236 0.06671294 -0.042494383 -0.0068745264 -0.005363332 0.013657738 0.008395757 -0.017331086
-0.0073113935 -0.05446979 0.06173069 0.01482993 -0.015802912 -0.0011291561 0.0013497488 -0.013048858
-0.010608065 0.013496637 -0.07212071 0.045453116 0.08146149 0.013530416 -0.031507704 0.05489953
0.08382543 0.05042522 0.014883932 -0.009896528 0.04612993 0.07888361 0.070877634 0.019217711
-0.022003705 0.07983298 -0.01082 -0.042744286 0.024344873 0.010896047 -0.10497958 -0.017898727
-0.010495288 0.085216455 0.05305106 -0.058584783 0.07204108 -0.06481504 0.07310201 -0.02635069
-0.014246748 -0.027058989 0.033782844 0.06252371 -0.03222878 0.04066894 -0.056150865 -0.017842734
-0.08457733 0.07120643 -0.014996206 -0.026137393 0.053727854 -0.08949475 0.05518225 -0.008196971
-0.0961565 0.031133661 -0.029277554 -0.029273989 0.030309552 0.028488748 -0.058177568 -0.033461522
0.07658958 0.04689717 -0.07011786 -0.025365885 -0.09054729 0.007409385 0.011618464 0.022895576
-0.022463622 -0.035436016 0.07752312 0.08668951 -0.0689499 -0.047587097 -0.028661033 -0.04637113
-0.020029034 -0.023192756 -0.014606844 0.050888903 0.045276597 -0.022369416 0.026003426 -0.013676989

bias f4 [128]
00000000: 616c 10bd e49d bc3d 13e6 9a3d 22d5 c03c
00000010: 49ff 303c 0770 623d 36d8 1abd 7a40 383c
00000020: afa5 2d3d ed02 03bc 7af3 7ebc 431b 40bd
00000030: e016 523d 613f 703d 1327 9dbd 1e9b 8a3d
00000040: 8a53 a93d 66ee 973d 5ea9 2f3d 71d5 fb3c
00000050: bbea 6ebb d85c 46bd dd0c b7bc beaf 993d
00000060: f2c2 373d 7016 ccbc 7310 55bd 4e13 e1bc
00000070: 137c 07bb 3420 2bbd a74b 9aba 3f2f 77bd
00000080: bc99 9d3d 642f 89bd a6c6 893d 19ff f7bb
00000090: 1a21 21bd db74 3ebd 1801 5bbb 3f77 323c
000000a0: 7a7f 8e3d c054 89bd 80b3 a0bc af39 96bd
000000b0: 8963 a1bd d854 b33d dd50 1b3b f33e da3b
000000c0: 785c 04bd b96a a0bd a5dc 783d c935 d4bb
000000d0: 181a 2e3c 752c 57bd 39fc 1ebd 7b1d b6bd
000000e0: b6ba 50bc 31e4 ae3d 6a79 cdbc 352a d2bc
000000f0: 223f 9a3d cae4 393d ce67 2cbd 4062 723d
00000100: 81db 3d3d 9dab af3d 4885 b23d 8ea9 a53d
00000110: d764 413d 3425 54bd 7c33 81bd 4368 67bc
00000120: 85a1 c5bd 4d7f 9d3b 99ab 993d 0f91 963c
00000130: df37 03bc d931 8cbd 6eaf 46bd 651f 92bd
00000140: f20e a6bc a2bd 333d 8712 9a3d d537 333c
00000150: b6c9 883d 00a7 85bd 3749 58bc da6a 983d
00000160: e3d8 0d3c 2c2c 28bd 52b0 74bd 0ac4 b93c
00000170: 7af6 cebc 1231 c8bd 1a77 ae3c eef3 7dbd
00000180: 0f0f 273c 0395 74bc 7525 0fbd e9ad a23d
00000190: 3de3 a63d f08a ac3d eee4 2abd 225d 723d
000001a0: e23f 6dbd 0de3 933d 9d51 863d 6510 01bc
000001b0: 441f babd 44de a4bc 4a4c eabc c95f ef3c
000001c0: 3929 5fbd b07b b33c 9860 7b3d 6fff 5a3d
000001d0: 6307 933d 7cca eb3c 1c3b 88bd 3193 45bd
000001e0: 3235 813d 9422 34bd cd64 fa3c 32b2 28bd
000001f0: cb9d a33d 7636 b5bd 498c 793d e99a f7bc
-0.03525961 0.09209803 0.075634144 0.02353913 0.010803052 0.05528262 -0.03780385 0.011245841
0.042394336 -0.007996303 -0.015560979 -0.046901 0.051291347 0.058654193 -0.076734684 0.067678675
0.08267887 0.07418518 0.04288613 0.030741425 -0.0036455828 -0.048428386 -0.022345 0.07504223
0.04486365 -0.024913043 -0.05201764 -0.027475026 -0.002067332 -0.04177876 -0.0011771814 -0.06034779
0.07695338 -0.06698492 0.06727342 -0.007568252 -0.03933821 -0.04649816 -0.00334174 0.010892688
0.06957908 -0.06705618 -0.019616842 -0.07335221 -0.07880313 0.08756417 0.0023699321 0.006660336
-0.032314748 -0.07832856 0.060757298 -0.0064761383 0.010626338 -0.052532632 -0.038814757 -0.08892342
-0.012739828 0.08539618 -0.025082309 -0.025654892 0.07531573 0.045384206 -0.042091183 0.05917573
0.046351913 0.085776545 0.08716828 0.080889806 0.04721531 -0.051793292 -0.06308648 -0.014123979
-0.09649948 0.004806435 0.07503433 0.018379716 -0.008008926 -0.06845445 -0.048507147 -0.07134894
-0.020270798 0.04388202 0.07523065 0.010938604 0.06679098 -0.06525993 -0.0132010495 0.07442255
0.008657667 -0.04105775 -0.059738465 0.022676487 -0.025264014 -0.097749844 0.021297026 -0.062000208
0.010196461 -0.014928105 -0.03494783 0.07943327 0.08148811 0.08424938 -0.04172223 0.05917085
-0.05792225 0.07221041 0.06558535 -0.007877444 -0.09087995 -0.020125516 -0.02860083 0.029220479
-0.054482672 0.021909565 0.061371416 0.053466257 0.07179143 0.028783076 -0.06651899 -0.048236076
0.06308974 -0.04397829 0.030565644 -0.041185565 0.07989081 -0.08848278 0.060924802 -0.030225234

weight f4 [2, 128]
00000000: 4fad 2ebc 4b72 163d fba9 e0bb ab12 adbb
00000010: 968c aabd 815f 37bd f269 cabd 696b aa3d
00000020: 5dfc 7e3d ec22 1e3d c7a3 c83d ba65 73bc
00000030: 86e0 263d f67b e0bc 9e00 313d 69cb 92bd
00000040: 3bfe d7bc c473 993d 5e8a aabd 9752 92bd
00000050: 78af 4abc ea74 053d d1f4 2fbd 3b9e f33c
00000060: d321 abbd 6465 cb3b 4371 773d 2704 81bc
00000070: a9b3 623d 8029 6bbd 7efb 16bd 6781 b73c
00000080: 6da4 a83d 9953 a33d 0270 b0bd 63df 1f3d
00000090: ea59 943c 9b52 4dbd 2d48 e92e 9361 a33d
000000a0: 0479 56bd 3cb3 b73d 98e1 49bd ee49 573d
000000b0: 21f2 113d 3cf5 a33d 6d82 c2bd 54ea 853d
000000c0: 4548 563d 62f0 11bd 41b1 853d 3bc8 a1bd
000000d0: fbd6 26bd 45b1 b3bc 6cf8 723d 744e 4c3d
000000e0: 3b17 babd 5d5f 62bd 3402 66bd 908b 953d
000000f0: ee1a 943d 4c22 7fbd 8648 903d 6a53 713d
00000100: 660e e33c 4fa0 963d f4e9 a93c 90c3 a3bd
00000110: 45e9 4fbd ec78 933d a2eb 99bd 21c0 a6bd
00000120: f5fd d2bd d185 2f3d 1d04 beb9 d02b a43d
00000130: 4b4d 41bd 5c0d c0bc 340d b53d f816 7c3d
00000140: f898 83bb f708 913d 7055 acbd 3594 ac3b
00000150: e59e 48bd 3b68 b8bd 52e0 a5b5 7e5d 323d
00000160: 9551 273d bf8d 87bd 9197 c33b 27b1 2b3d
00000170: 8ac9 afbd 6959 8d3b f5f9 0bbd 7865 3bbd
00000180: b91c 6bbd f31e a3bd 2213 32bc 0056 0cbb
00000190: 134c fbbc a022 983d 8d2a 16bc fe33 333d
000001a0: 3195 533a 97c4 3d3d 6b23 993d 82fc a9bd
000001b0: 7594 533c d232 7b3d 100a 82bd 823b 24bd
000001c0: 959c 913c 0611 9a3d f413 a13d cf05 66bd
000001d0: 94be 793c 425a b2bd 067c 75bd 6754 f53c
000001e0: fac1 b03c 463f 04bc e21d 11bc 7187 073d
000001f0: bd78 c1bd 9442 82bd e618 c33d af25 bdbd
00000200: d716 873c 022c 39bd 6746 243d c2f7 01bd
00000210: 41c6 aa3d 7a4a 933d c304 61bc 0043 8a3c
00000220: 2de0 03bd 6f58 d63c 7542 c5bd 1037 613d
00000230: 486b efbc b09e 293d 48c5 c03d 586e 5d3d
00000240: b38c be3d 6e51 063b ebe5 d43d 085d 403c
00000250: 5ada bb3c 3f22 6c3c 58c3 45bd 0b29 aabd
00000260: be1d 1fbd 6bb8 093d b54e 8abd e079 98bd
00000270: 4e4b 6f3c b274 af3d a5fd e73c 82db f8bc
00000280: 0774 bbbd bac2 0abd 10a5 f5bc 73f1 ab3d
00000290: 1201 46bc d1fe c5b9 2081 9cb2 1cf5 9c3c
000002a0: 033c 8cbd 8ac3 63bc 2460 863d 97c8 b13c
000002b0: 54e1 31bb edb3 2bbd 499c 8a3d ad44 0ebd
000002c0: 9383 143d 86cd c83d 84bb a7bd 9e9a 4a3d
000002d0: 072e fabb 5b4f 99bd 6007 09bd 918f 70bd
000002e0: 312b 67bd 64d5 bebc 6b5c 093d 1fac a7bd
000002f0: 9e39 783d 1bad 96bd 4c43 533d 1d56 913c
00000300: 8f93 803d f99a adbc 4bf1 673d 57b3 193d
00000310: b238 cc3c 2b63 993d 63c4 b1bd 4316 233d
00000320: 467a 9e3d 6e55 56bd 43a9 223c 3c04 bebd
00000330: 63c7 35bd 8708 83bd ae4c 98bc 7378 83bc
00000340: dfc2 b23c 503c 9c3d 3af4 b93d a2d4 423c
00000350: 660c 57bd e746 91bd 320e 48bc 20e9 e9bc
00000360: 939f 61bd 7fef 7abc 527d c13d 11e6 d43b
00000370: 9e2f f2bc e11a a4bb d76e c83a a2cf 443d
00000380: 7576 f8bc d1db ec3c 99c0 83bd b810 7cbd
00000390: 7ec1 a43c ac36 b33d 40e7 a73c 8651 6fbd
000003a0: d45d 043c 65f1 85bd 1fd8 ba3d cef8 9cbd
000003b0: d9c0 43bd 8412 003d 878f 523d cca0 933b
000003c0: 0127 6bbd 1b35 063d e116 50bd 52fb 393d
000003d0: 933a ffbc 1363 a03d 1da5 68bd d1f3 84bd
000003e0: bbb6 923c 12e0 923d 5f89 8f3c 333d 223d
000003f0: b523 e1bb a3ee 6e3d 471e bbbc 0897 fc3a
-0.010661437 0.036730092 -0.0068562008 -0.0052817664 -0.08327596 -0.044768814 -0.09883489 0.08321268
0.06225239 0.038607523 0.09796863 -0.0148557965 0.040741466 -0.02740286 0.04321348 -0.07167704
-0.026366344 0.07492784 -0.08327173 -0.07144659 -0.012370937 0.0325822 -0.042958084 0.029738536
-0.08356061 0.006207155 0.06041075 -0.01574905 0.05534712 -0.057412624 -0.036860935 0.022400571
0.08234487 0.07974929 -0.08615114 0.039031398 0.01810928 -0.050127607 1.0608434e-10 0.07977595
-0.052361503 0.08969733 -0.04928741 0.05256074 0.035631303 0.08005759 -0.09497533 0.06538835
0.052315015 -0.035629638 0.06527949 -0.07899519 -0.040732365 -0.021935115 0.059318945 0.049879506
-0.09086462 -0.055266727 -0.056154445 0.0730201 0.07231699 -0.062288567 0.07045083 0.05891744
0.027716827 0.07354795 0.02074144 -0.07996285 -0.050759573 0.072007984 -0.075156465 -0.081421144
-0.10302345 0.042852227 -0.0003624269 0.08016169 -0.047192853 -0.02344387 0.08840409 0.061545342
-0.004016038 0.07081788 -0.084147334 0.005266691 -0.04897966 -0.090042554 -1.2358744e-06 0.043546192
0.040849287 -0.06618833 0.005968996 0.041916993 -0.085833624 0.004313637 -0.034173924 -0.045751065
-0.05740044 -0.079648875 -0.010868819 -0.0021413565 -0.030675923 0.07428479 -0.009165418 0.043750755
0.00080712425 0.04633006 0.074774586 -0.08300115 0.012913813 0.061327763 -0.063495755 -0.040095814
0.01777486 0.07522778 0.07865134 -0.056157883 0.015243191 -0.087086216 -0.05993273 0.029947473
0.02157687 -0.008071726 -0.008857222 0.03308815 -0.09446857 -0.06360355 0.095262334 -0.09235703
0.016490383 -0.045207985 0.040106203 -0.03173042 0.08338595 0.0719194 -0.013734045 0.016877651
-0.032196213 0.026165215 -0.09631816 0.054984152 -0.02922596 0.0414111 0.094126284 0.05406031
0.0930418 0.0020495313 0.10395416 0.01174093 0.022931267 0.014412462 -0.048281997 -0.083086096
-0.038846724 0.03362314 -0.067532934 -0.07445121 0.014605356 0.0856718 0.02831919 -0.030378107
-0.0915299 -0.033877112 -0.029985934 0.08395662 -0.012085216 -0.0003776462 -1.821951e-08 0.019159846
-0.06847384 -0.013901601 0.06561306 0.021702094 -0.0027142363 -0.041919637 0.0676809 -0.034733463
0.03625829 0.098048255 -0.08190063 0.04946386 -0.0076348814 -0.07485839 -0.0334543 -0.058730666
-0.056437675 -0.023295112 0.033535402 -0.08187126 0.060601823 -0.07357236 0.05157785 0.017741257
0.062781446 -0.02119206 0.0566266 0.037524547 0.024929378 0.07489618 -0.08680036 0.039816152
0.077381656 -0.052327566 0.00992805 -0.092781514 -0.044379603 -0.06398111 -0.018591251 -0.016048646
0.021821437 0.07628691 0.09079786 0.011891516 -0.05250206 -0.07093602 -0.012210416 -0.028553545
-0.055083822 -0.015315889 0.09447731 0.0064971526 -0.029563721 -0.005008087 0.0015291822 0.048049577
-0.030329922 0.02891341 -0.064332195 -0.06153938 0.020111796 0.08750662 0.02049601 -0.058427356
0.008079011 -0.06540183 0.09123253 -0.07664643 -0.047791336 0.031267658 0.05140641 0.0045052525
-0.057410244 0.03276549 -0.05080307 0.045405693 -0.03115586 0.07831397 -0.05679809 -0.06491817
0.017909398 0.07171644 0.017521558 0.039609145 -0.0068707117 0.05833305 -0.022841586 0.0019271085

bias f4 [2]
00000000: 984b 88bd bb38 e8bc
-0.06655043 -0.028347364
