save_model/postag_liwc/models/NeuralNetTorch/net.params (torch, 285831 bytes, 10 tensors)

weight f4 [128, 158]
-0.00053395086 0.009480645 -0.04854986 -0.0876808 -0.078650154 0.023654973 -0.010304258 0.059429687
-0.034474917 -0.009989791 -0.021142697 -0.013155565 -0.06711271 -0.036816142 -0.059957817 0.024417534
0.035074074 0.067329496 -0.050016783 -0.041174233 0.039674144 0.060011394 -0.04064595 0.024868906
-0.04252458 -0.009221892 0.051313158 -0.05188571 -0.082814306 -0.05173161 -0.006241873 0.057897434
-0.030218372 -0.060210742 -0.029555203 -0.081058465 -0.037602488 0.054975767 0.03797947 0.04699287
0.0051303115 -0.034349628 0.016575055 -0.062419645 -0.054804254 -0.0019141017 0.03407438 0.058845427
-0.00870367 -1.8724772e-05 0.06501471 0.0763215 0.020259721 0.010691453 0.06713633 -0.058908805
0.03754675 -0.055149417 -0.06541171 -0.03913823 0.04333526 0.033523675 -0.035880093 0.040808227
0.046930928 0.010603556 -0.0030654578 0.022065248 0.055858403 0.08255086 -0.0873255 -0.030576196
0.044912364 0.10928876 0.09228652 0.090139106 0.029617053 -0.06518304 0.007198757 -0.035342176
-0.07137952 0.08392488 0.074842654 -0.08541645 0.027609818 -0.009575804 0.004230565 -0.014732981
0.010697041 -0.045018714 -0.0017393406 0.017111568 0.069193065 -0.0022109807 -0.11371033 -0.019101951
0.024437735 -0.0036477884 -0.047467742 -0.035852276 0.06857361 0.062500685 -0.020108517 -0.028795715
-0.08840729 0.0041812775 -0.067801304 -0.042170428 0.0018437854 0.031412225 -0.031656783 0.080934204
-0.036538173 0.043627206 0.058145918 -0.057500444 -0.04941866 0.0020259873 0.025946757 0.026050285
0.013583174 0.01196975 -0.039018244 0.033552743 -0.073842034 -0.05190524 -0.013923396 -0.041233692
-0.02158477 -0.05467525 -0.01125889 0.0032035161 -0.050889008 -0.0014006938 0.073319905 -0.0076227216
0.016024051 -0.016449539 0.02997304 0.03883767 0.09284106 0.052607674 0.11087678 -0.017669026
-0.06993224 -0.026935976 0.061262812 0.0059425705 -0.025039172 -0.05829377 -0.068345554 -0.06837644
-0.030327251 0.034284566 0.044303764 -0.07816313 0.05962688 -0.041170377 -0.0010734927 -0.031194769
-0.025246184 0.0011170764 -0.0856228 -0.05816818 -0.040150248 -0.04928596 -0.070397004 -0.011117849
-0.11911058 -6.635465e-06 0.04896563 -0.04214828 0.075877115 0.004367526 -0.06485832 0.03949964
-0.032903366 -0.01296289 0.085463874 -0.083173074 -0.008544602 -0.019886607 0.045380987 0.017354276
0.024392413 0.043749597 -0.0148373265 -0.008077824 -0.05529007 0.04428174 0.07654407 0.049529616
-0.044091605 0.013635467 -0.057068367 -0.049585287 -0.056073964 0.029075583 -0.0484678 -0.011301348
-0.019878728 0.047397923 -0.024820123 -0.059179224 -0.054975234 0.04955019 -0.03628326 0.062360313
0.018715251 0.011109138 0.005495662 -0.022365684 0.016262807 -0.015141223 0.019012427 0.020895844
-0.044375192 -0.02783077 0.07684459 -0.073791996 -0.013689304 0.09803686 0.031799283 -0.005009041
-0.07282746 0.029784514 -0.060783263 -0.019231293 -0.040809184 -0.010473887 -0.00028138666 0.06501835
0.0022919625 0.07402029 0.054146323 -0.03408912 0.04933653 -0.05665232 -0.011702414 0.02699308
0.026348805 0.06257827 -0.023686377 0.02590873 0.03331418 -0.0782989 0.06443558 -0.057167944
-0.0030252587 -0.031612724 -0.03578788 -0.008388757 0.05949097 -0.010670682 -0.041628107 -0.032820698
00000000: d6f8 0bba b554 1b3c 38dc 46bd fe91 b3bd
00000010: 5513 a1bd 13c8 c13c 31d3 28bc 8b6c 733d
00000020: 9235 0dbd 38ac 23bc 7333 adbc 708a 57bc
00000030: 6372 89bd 86cc 16bd 5496 75bd 4807 c83c
00000040: d5a9 0f3d 0ce4 893d 66de 4cbd 50a6 28bd
00000050: 5b81 223d 82ce 753d 5e7c 26bd e0b9 cb3c
00000060: 412e 2ebd 6b17 17bc bf2d 523d 1c86 54bd
00000070: 8c9a a9bd 86e4 53bd a088 ccbb dc25 6d3d
00000080: 858c f7bc 8a9f 76bd c11d f2bc fb01 a6bd
00000090: 1105 1abd 452e 613d 5c90 1b3d 987b 403d
000000a0: 2c1c a83b 32b2 0cbd 69c8 873c beab 7fbd
000000b0: 6d7a 60bd 98e2 faba 9491 0b3d e707 713d
000000c0: d799 0ebc 2413 9db7 6f26 853d 724e 9c3d
000000d0: b7f7 a53c 342b 2f3c c67e 893d 5c4a 71bd
000000e0: 9fca 193d 5be4 61bd 93f6 85bd 694f 20bd
000000f0: 5080 313d 1f50 093d 01f7 12bd 8726 273d
00000100: a53a 403d 8aba 2d3c d9e5 48bb 2ec2 b43c
00000110: c8cb 643d 6d10 a93d b6d7 b2bd ee7a fabc
00000120: 07f6 373d c9d2 df3d b700 bd3d da9a b83d
00000130: 769f f23c b07e 85bd 8de3 eb3b f5c2 10bd
00000140: 6d2f 92bd cfe0 ab3d 1b47 993d d2ee aebd
00000150: fc2d e23c d5e3 1cbc 8da0 8a3b 9a62 71bc
00000160: a442 2f3c 8b65 38bd 96fa e3ba 8f2d 8c3c
00000170: 18b5 8d3d 1ae6 10bb f6e0 e8bd b27b 9cbc
00000180: a531 c83c bc0f 6fbb 896d 42bd d6d9 12bd
00000190: 5270 8c3d 5c00 803d 9eba a4bc fee4 ebbc
000001a0: e20e b5bd 1903 893b 69db 8abd e6ba 2cbd
000001b0: 2cab f13a 1baa 003d 8baa 01bd d5c0 a53d
000001c0: 0da9 15bd 71b2 323d 6a2a 6e3d 9685 6bbd
000001d0: 396b 4abd 6dc6 043b 4b8e d43c 6867 d53c
000001e0: f68b 5e3c c51c 443c 98d1 1fbd 9a6e 093d
000001f0: 7e3a 97bd 979a 54bd f51e 64bc a9e4 28bd
00000200: 8bd2 b0bc 28f3 5fbd 3577 38bc 15f2 513b
00000210: fe70 50bd 7c97 b7ba bf28 963d 06c8 f9bb
00000220: df44 833c 2fc1 86bc 058a f53c 4014 1f3d
00000230: 7423 be3d 257b 573d 5d13 e33d a2be 90bc
00000240: a238 8fbd d6a8 dcbc b7ee 7a3d e5b9 c23b
00000250: f31e cdbc 73c5 6ebd c1f8 8bbd f208 8cbd
00000260: db70 f8bc f96d 0c3d dd77 353d fe13 a0bd
00000270: 513b 743d 45a2 28bd 70b4 8cba 2c8c ffbc
00000280: 16d1 cebc dd6a 923a 025b afbd c241 6ebd
00000290: 9674 24bd 13e0 49bd 4e2c 90bd a327 36bc
000002a0: 3ff0 f3bd 36a6 deb6 2f90 483d ada3 2cbd
000002b0: 7665 9b3d 771d 8f3b 70d4 84bd 60ca 213d
000002c0: aec5 06bd 4d62 54bc af07 af3d a556 aabd
000002d0: a9fe 0bbc 3de9 a2bc 6ae1 393d 8e2a 8e3c
000002e0: 99d2 c73c c732 333d 4218 73bc d958 04bc
000002f0: d777 62bd c560 353d 23c3 9c3d 91df 4a3d
00000300: 6699 34bd 4b67 5f3c 85c0 69bd f119 4bbd
00000310: d0ad 65bd eb2f ee3c 2c86 46bd 4a29 39bc
00000320: b7d8 a2bc 5324 423d 9253 cbbc ea65 72bd
00000330: b62d 61bd 24f5 4a3d c19d 14bd 876d 7f3d
00000340: ba50 993c 1a03 363c f414 b43b 3d38 b7bc
00000350: 9439 853c e412 78bc f3bf 9b3c c32d ab3c
00000360: c3c2 35bd 5bfd e3bc b260 9d3d 4220 97bd
00000370: 1a49 60bc 8dc7 c83d f73f 023d e222 a4bb
00000380: 9026 95bd a7fe f33c dff7 78bd f28a 9dbc
00000390: 8827 27bd ab9a 2bbc 1487 93b9 5728 853d
000003a0: c034 163b f397 973d 89c8 5d3d 08a1 0bbd
000003b0: 1a15 4a3d 430c 68bd 7bbb 3fbc 9720 dd3c
000003c0: 73d9 d73c 0929 803d ef09 c2bc 8c3e d43c
000003d0: 7374 083d 2c5b a0bd cdf6 833d ef28 6abd
000003e0: 6b43 46bb 587c 01bd 5096 12bd ff70 09bc
000003f0: ceac 733d 16d4 2ebc 3c82 2abd ff6e 06bd

bias f4 [128]
0.019986095 0.03904559 0.071386494 -0.055748038 -0.017466292 -0.05851083 -0.035928763 0.035008468
0.058641918 0.020184085 -0.016177155 -0.03293091 -0.04965473 0.012448868 -0.059756618 0.060600594
-0.00070228544 0.0045187795 -0.03783907 -0.033908166 0.027145948 0.010010569 0.0397955 0.055272855
-0.053947624 0.0733937 0.0027949715 -0.069353506 0.044609617 -0.049704347 0.060181573 -0.044503413
-0.0033962545 0.028358173 0.082389474 -0.060470015 0.027519707 -0.0618005 0.071687095 -0.007280047
0.035944164 -0.05529422 0.030845927 0.058364313 0.039873637 0.05861679 0.060084008 -0.015212099
-0.07745464 0.006967107 -0.05730256 -0.08410438 0.026195494 0.058600713 0.023944348 -0.060485672
0.00803691 0.059046116 0.00445085 -0.06454527 -0.017214198 -0.055306185 0.0012065178 -0.05020387
-0.072161496 0.013176631 -0.020718629 -0.07564042 0.06928371 -0.01967043 -0.06716155 0.036863633
0.0596129 -0.043330345 -0.065860234 -0.005713983 0.0847694 0.085288584 0.036692467 -0.025322795
0.045869336 0.010121703 0.007269988 0.02168164 -0.03953093 -0.03273667 -0.028498515 -0.030594695
0.007232143 0.01031365 0.014851647 0.06749903 0.013531834 0.04144971 -0.013429501 -0.055098288
0.034387276 0.077083446 0.04475104 -0.003517814 -0.009301498 -0.06764097 0.06630169 0.058909867
0.021282136 -0.0075913984 0.032955226 -0.048926823 0.043862514 -0.06407068 0.079376265 -0.03752248
-0.0051780986 0.0033856938 -0.0154746 0.019936113 -0.051656745 -0.03142333 0.0009553639 -0.035223916
-0.017945588 0.0011976814 0.027832286 0.038953178 0.041395135 0.048389547 -0.035890028 -0.0529531
00000000: e1b9 a33c 45ee 1f3d 1533 923d 0e58 64bd
00000010: 7815 8fbc 0da9 6fbd 0a2a 13bd 0a65 0f3d
00000020: 8232 703d 1859 a53c f485 84bc 90e2 06bd
00000030: c262 4bbd 56f6 4b3c 5bc3 74bd 5438 783d
00000040: 9419 38ba 4512 943b 24fd 1abd 4ae3 0abd
00000050: 2e61 de3c 5f03 243c 9b00 233d ca65 623d
00000060: 2ff8 5cbd 704f 963d d72b 373b 3609 8ebd
00000070: 93b8 363d c996 4bbd f480 763d 3649 36bd
00000080: b293 5ebb 664f e83c d0bb a83d 68af 77bd
00000090: 0271 e13c 8522 7dbd afd0 923d 768d eebb
000000a0: 303a 133d 317c 62bd 99b0 fc3c 6b0f 6f3d
000000b0: 8a52 233d 2918 703d a61a 763d 2b3c 79bc
000000c0: 8aa0 9ebd 544c e43b 17b6 6abd eb3e acbd
000000d0: ef97 d63c 4d07 703d f026 c43c d3bf 77bd
000000e0: 3ead 033c 57da 713d 70d8 913b 4f30 84bd
000000f0: ca04 8dbc bd88 62bd 0524 9e3a 93a2 4dbd
00000100: 68c9 93bd cce2 573c 1dba a9bc 5de9 9abd
00000110: 9ee4 8d3d e223 a1bc ff8b 89bd 52fe 163d
00000120: a82c 743d 297b 31bd bbe1 86bd 5d3c bbbb
00000130: 949b ad3d c8ab ae3d d74a 163d c071 cfbc
00000140: 7ce1 3b3d 80d5 253c 1439 ee3b b29d b13c
00000150: 2feb 21bd e316 06bd b875 e9bc baa1 fabc
00000160: 9dfb ec3b 95fa 283c 5354 733c ee3c 8a3d
00000170: a0b4 5d3c 2cc7 293d 6907 5cbc beae 61bd
00000180: acd9 0c3d eddd 9d3d de4c 373d 208b 66bb
00000190: 4f65 18bc 5987 8abd 2ec9 873d 794b 713d
000001a0: e057 ae3c 44c1 f8bb 0ffc 063d 7e67 48bd
000001b0: 2ea9 333d 7d37 83bd 0690 a23d 2cb1 19bd
000001c0: 0aad a9bb 84e2 5d3b 2d89 7dbc 0f51 a33c
000001d0: 0696 53bd c0b5 00bd 6371 7a3a f446 10bd
000001e0: a002 93bc 85fb 9c3a 8900 e43c 5e8d 1f3d
000001f0: f28d 293d 1e34 463d 6c01 13bd 5ae5 58bd

weight f4 [128, 128]
-0.027798204 -0.07808509 -0.0901561 0.032411214 -0.061049365 -0.0011903353 0.08739259 0.100888446
0.024462556 -0.011633265 -0.009984932 0.105367616 -0.03268415 0.04680527 0.07210656 -0.02443239
0.008257009 0.031522952 -0.054562964 0.038500752 0.021705456 -0.06941921 0.08870241 0.1110975
0.05559099 0.038189817 0.048734773 0.019189436 0.018319793 -0.0023689715 -0.044857204 -0.016739817
3.6494494e-05 -0.011927708 -0.101964064 0.05704754 0.066721916 -0.024345174 0.05020192 0.05963543
0.01372613 0.015427284 -0.027642487 -0.03307268 0.06946417 0.03954701 -0.012842631 0.035346054
-0.017861342 -0.05342306 -0.0267951 0.07814132 -0.03903379 0.073357984 0.010684711 -0.0364728
-0.08089159 0.05113689 0.032291118 0.060853492 0.044288762 -0.08208248 0.049027003 0.023594316
-0.020415526 -0.05871476 0.09323993 0.011567468 0.066896334 -0.052501444 -0.014758386 0.030647455
-0.027955852 -0.0136179 -0.037671693 -0.07509832 0.07920456 -0.030487934 0.024937635 0.059801392
-0.06969428 -0.07649603 -0.07364777 0.03253096 -0.02641729 0.06720521 0.09868184 -0.06769347
0.018801242 -0.028021825 0.066862024 0.009196559 0.029491054 0.032327455 0.0025908295 -0.07955991
-0.006328177 0.004096017 -0.058409076 0.10150056 0.0030120313 0.0004744473 0.025830079 -0.013613859
0.015806653 -0.05085591 0.003064456 0.08759499 0.07331693 -0.01992633 -0.075941764 -0.05201641
-0.011063118 -0.013201503 -0.06934647 0.042820264 -0.0852212 0.024720583 0.07925922 0.06248612
0.025782054 -0.0067796074 0.015319604 0.058670923 -0.085881956 0.035182424 -0.06027126 0.08310326
0.054876376 -0.051906336 -0.04710183 0.04684929 -0.036573876 -0.06735588 -0.06428977 0.048643302
-0.008395279 0.019933106 -0.0998391 -0.050882928 0.047628235 0.024821198 -0.06735424 -0.04824116
-0.043109093 0.088012986 -0.11630941 0.0056036 0.0023757583 0.06190954 0.046158817 -0.08351543
-0.06646225 0.06574028 -0.052940216 -0.04178014 -0.059002712 -0.07538869 0.023341462 0.08201513
-8.963624e-05 -0.012813779 -0.00802502 -0.035786126 -0.0035773176 0.047228143 -0.081621304 0.027853582
0.005356148 0.05880213 -0.081103414 -0.071022965 -0.043120515 0.010528013 0.12829687 0.09924229
-0.0168572 -0.01328661 -0.056083895 -0.039137755 0.011038102 -0.05717359 -0.095581755 0.09219666
-0.051727977 -0.0774429 0.08413488 0.082910694 0.07583331 0.01806507 -0.042729206 0.018831069
0.009253461 -0.023699969 0.051901687 -0.0479272 -0.07324152 0.035028525 -0.019727245 0.094806746
0.06331236 -0.016912015 -0.004335839 0.034596898 -0.0301581 0.093379036 0.021979842 0.028653838
-0.042867504 0.103083774 -0.028926713 0.04400536 0.019358829 0.077753074 -0.02639997 -0.00082381506
-0.031001035 0.014412809 -0.103397585 0.075643234 0.08731393 -0.050346464 0.06498818 0.07135096
0.0699736 -0.07672315 -0.07098547 -0.086376235 0.039469704 -0.029371273 -0.037677176 0.049727373
0.019544814 0.02911567 0.019183757 -0.038130324 0.0125513375 -0.025692271 -0.049367085 0.045129843
-0.011363491 0.0749491 0.03463651 0.051799636 0.04380985 0.07853329 -0.04679703 -0.045149688
0.030557116 -0.041064285 -0.039773807 0.012559505 0.059654567 -0.065314256 -0.0044478234 -0.05268623
00000000: 0fb9 e3bc 13eb 9fbd c3a3 b8bd 9fc1 043d
00000010: e60e 7abd 0605 9cba e3fa b23d 9a9e ce3d
00000020: b365 c83c 7399 3ebc d797 23bc faca d73d
00000030: d1df 05bd e2b6 3f3d 9bac 933d 7026 c8bc
00000040: 6848 073c 361e 013d 6a7d 5fbd f7b2 1d3d
00000050: a4cf b13c a92b 8ebd 9ca9 b53d 1687 e33d
00000060: 61b3 633d ed6c 1c3d 1d9e 473d 2a33 9d3c
00000070: 6413 963c bf40 1bbb 30bc 37bd f121 89bc
00000080: aa11 1938 6f6c 43bc 89d2 d0bd aeaa 693d
00000090: 80a5 883d 886f c7bc 87a0 4d3d 4844 743d
000000a0: 90e3 603c b8c2 7c3c 7f72 e2bc 3877 07bd
000000b0: 3b43 8e3d 0cfc 213d e669 52bc 06c7 103d
000000c0: f351 92bc 23d2 5abd 6681 dbbc 8e08 a03d
000000d0: e5e1 1fbd b63c 963d ed0e 2f3c 8164 15bd
000000e0: 7daa a5bd ea74 513d b143 043d 8341 793d
000000f0: 2268 353d dc1a a8bd 8ad0 483d de48 c13c
00000100: 763e a7bc e37e 70bd 94f4 be3d 7a85 3d3c
00000110: f200 893d c10b 57bd 28cd 71bc 5f10 fb3c
00000120: ac03 e5bc 9d1d 5fbc a24d 1abd 26cd 99bd
00000130: 0036 a23d d5c1 f9bc 034a cc3c 4ef2 743d
00000140: e0bb 8ebd f3a9 9cbd a4d4 96bd 2f3f 053d
00000150: 1369 d8bc e3a2 893d b419 ca3d e0a2 8abd
00000160: 1005 9a3c 078e e5bc f5ee 883d 2aad 163c
00000170: 3997 f13c cb69 043d e8ca 293b 4ef0 a2bd
00000180: 995c cfbb e237 863b 5b3e 6fbd 87df cf3d
00000190: 8065 453b 3dbf f839 9a99 d33c aa0c 5fbc
000001a0: f47c 813c 494e 50bd 0ad5 483b 0165 b33d
000001b0: 3027 963d 8b3c a3bc 5b87 9bbd 290f 55bd
000001c0: 1542 35bc 1e4b 58bc 8605 8ebd 4d64 2f3d
000001d0: 7488 aebd d282 ca3c a852 a23d 72f1 7f3d
000001e0: e334 d33c 7827 debb 14ff 7a3c ec50 703d
000001f0: e1e2 afbd 721b 103d ffde 76bd 0b32 aa3d
00000200: 0dc6 603d bd9b 54bd d9ed 40bd 0be5 3f3d
00000210: 7dce 15bd e1f1 89bd 5baa 83bd 333e 473d
00000220: 5a8c 09bc c14a a33c 7178 ccbd 9e6a 50bd
00000230: d315 433d d355 cb3c 05f1 89bd 8698 45bd
00000240: 2993 30bd 2740 b43d a133 eebd 679e b73b
00000250: 9cb2 1b3b dc94 7d3d 0711 3d3d 230a abbd
00000260: 5c1d 88bd d7a2 863d d7d7 58bd a721 2bbd
00000270: d4ac 71bd 6365 9abd 9836 bf3c 8cf7 a73d
00000280: 17fb bbb8 e2f0 51bc 607b 03bc 7994 12bd
00000290: 6e71 6abb 4c72 413d 1229 a7bd 322d e43c
000002a0: a082 af3b 81da 703d 8c19 a6bd 7d74 91bd
000002b0: 239f 30bd b07d 2c3c 4160 033e 8b3f cb3d
000002c0: 1c18 8abc 15b0 59bc 3ab8 65bd e94e 20bd
000002d0: 28d9 343c db2e 6abd 5ec0 c3bd 9ad1 bc3d
000002e0: b7e0 53bd 629a 9ebd e84e ac3d 15cd a93d
000002f0: 7f4e 9b3d 33fd 933c d204 2fbd 9d43 9a3c
00000300: d49b 173c 7026 c2bc dd96 543d 504f 44bd
00000310: a6ff 95bd 127a 0f3d 089b a1bc 0a2a c23d
00000320: e9a9 813d 118b 8abc a713 8ebb 7ab5 0d3d
00000330: 1f0e f7bc 823d bf3d 120f b43c 74bb ea3c
00000340: d695 2fbd 961d d33d b7f7 ecbc f73e 343d
00000350: 6896 9e3c 013d 9f3d c044 d8bc 4bf5 57ba
00000360: e2f5 fdbc b423 6c3c 1dc2 d3bd d7ea 9a3d
00000370: a5d1 b23d 1838 4ebd 8618 853d 7420 923d
00000380: 524e 8f3d 0721 9dbd d560 91bd 06e6 b0bd
00000390: fcaa 213d 069c f0bc 6253 1abd eeae 4b3d
000003a0: 721c a03c fc83 ee3c 4127 9d3c 8b2e 1cbd
000003b0: 20a4 4d3c 9978 d2bc 2435 4abd 12da 383d
000003c0: f02d 3abc ea7e 993d 03df 0d3d db2b 543d
000003d0: f571 333d 10d6 a03d 3eae 3fbd e1ee 38bd
000003e0: eb52 fa3c 0633 28bd dce9 22bd 62c6 4d3c
000003f0: 5958 743d 7bc3 85bd 0cbf 91bb 84cd 57bd

bias f4 [128]
0.03158577 -0.062435817 0.03546923 -0.07281656 0.060702413 -0.050402883 0.039934576 -0.062147845
0.06620277 -0.08348893 0.040259197 0.0071362555 -0.04973859 0.03587467 0.072266385 0.07167786
-0.018864024 -0.034969416 0.061650928 -0.06820415 -0.032955177 -0.030455785 0.037767995 0.0031604513
-0.01952401 0.00043261846 0.08862389 -0.07842877 -0.05270976 0.013264242 -0.017867917 -0.05927395
0.042377308 0.05987115 -0.024431229 0.070693724 -0.07719027 -0.0025590458 -0.003855677 -0.024657171
0.03614569 -0.074371144 -0.041381642 0.015808174 -0.051730998 0.044939622 -0.08266253 0.044958953
0.039433543 0.048262313 -0.056143932 -0.08930545 0.061226778 -0.074801214 -0.022910057 -0.024182208
-0.078504026 0.054904547 -0.08824966 0.034362037 -0.014479346 0.051236276 -0.07871217 -0.061576363
-0.056839988 -0.02996039 -0.033265214 0.08378111 0.04930039 0.04681459 0.015414419 -0.005887596
0.027929278 -0.054304637 0.07220089 0.050469346 0.07419104 0.024801392 0.058483656 0.043184943
-0.013537517 -0.0825312 -0.02662359 -0.041596208 -0.012324188 0.0747676 0.036910813 -0.06282062
-0.01189596 0.045787908 0.045501336 -0.0020182624 -0.06828099 -0.08046937 0.008938944 -0.063121445
-0.06827863 -0.088081904 0.01320861 -0.04443184 -0.004012959 -0.07235397 0.08183044 -0.07410459
0.035562426 0.018898807 0.017937899 -0.088700965 0.092870496 0.09134131 0.011936238 0.08629714
0.010123128 -0.01863867 -0.020792091 0.012471033 0.07885546 -0.04887207 0.046876457 0.07465807
0.02465789 -0.006567875 0.07533805 -0.072741844 0.0006411596 -0.051188566 0.05323573 -0.075104885
00000000: 1560 013d b3bc 7fbd 2f48 113d d920 95bd
00000010: 18a3 783d 4173 4ebd 7092 233d bd8e 7ebd
00000020: 5195 873d 3efc aabd d4e6 243d 40d7 e93b
00000030: b1ba 4bbd 51f1 123d 6600 943d d8cb 923d
00000040: ba88 9abc 173c 0fbd af85 7c3d 9eae 8bbd
00000050: 02fc 06bd 697e f9bc 9db2 1a3d 931f 4f3b
00000060: d1f0 9fbc 11d1 e239 7180 b53d 439f a0bd
00000070: 30e6 57bd 4352 593c bd5f 92bc 3ec9 72bd
00000080: d493 2d3d 733b 753d 0024 c8bc dfc7 903d
00000090: ef15 9ebd aab5 27bb 87af 7cbb d6fd c9bc
000000a0: 810d 143d e64f 98bd cc7f 29bd 2580 813c
000000b0: e2e3 53bd 9c12 383d f94a a9bd e126 383d
000000c0: 1185 213d b4ae 453d 2ef7 65bd c7e5 b6bd
000000d0: eec8 7a3d 6131 99bd dfad bbbc c419 c6bc
000000e0: b8c6 a0bd 97e3 603d 3dbc b4bd 35bf 0c3d
000000f0: c73a 6dbc 21dd 513d d933 a1bd 7f37 7cbd
00000100: 0cd1 68bd 7e6f f5bc 1b41 08bd 6e95 ab3d
00000110: 35ef 493d a8c0 3f3d c28c 7c3c bcec c0bb
00000120: f1cb e43c 8a6e 5ebd 0fde 933d f2b8 4e3d
00000130: 79f1 973d 4a2c cb3c 8f8c 6f3d b2e2 303d
00000140: 76cc 5dbc 1e06 a9bd b719 dabc c960 2abd
00000150: 64eb 49bc c11f 993d cb2f 173d 19a8 80bd
00000160: 46e7 42bc 1a8c 3b3d 9c5f 3a3d d344 04bb
00000170: e7d6 8bbd 20cd a4bd a674 123c d145 81bd
00000180: abd5 8bbd 4964 b4bd ed68 583c 29fe 35bd
00000190: 247f 83bb 512e 94bd b896 a73d 26c4 97bd
000001a0: e8a9 113d acd1 9a3c 80f2 923c daa8 b5bd
000001b0: e332 be3d 2711 bb3d 3690 433c 8ebc b03d
000001c0: 7adb 253c 20b0 98bc 2d54 aabc 4e53 4c3c
000001d0: f97e a13d 142e 48bd 8701 403d 55e6 983d
000001e0: 58ff c93c 5437 d7bb d64a 9a3d adf9 94bd
000001f0: 7e13 283a 1aab 51bd b50d 5a3d 97d0 99bd

weight f4 [128, 128]
-0.0553744 -0.036990833 0.03331952 0.05176294 0.0071514747 -0.0108317025 -0.021419605 0.0410464
-0.08219464 -0.09030588 0.05205028 0.023782492 -0.04705734 -0.018025238 0.02322753 -0.0070550945
0.06538139 0.027544837 0.025185784 0.04972224 -0.0055699423 0.10309043 -0.029992871 -0.09254909
0.07422423 -0.02214368 -0.018975627 0.07913838 -0.0018355331 -0.09480236 -0.050121255 0.047675207
-0.015230005 0.027733793 -0.04089022 -0.04764906 -0.053804293 -0.025246106 -0.009289261 -0.0092928335
0.0466115 0.040464442 -0.06707592 0.03070219 -0.049902797 -0.070474416 -0.05940681 -0.08525096
0.05154047 -0.07944118 -0.052983105 0.034581225 -0.030422106 -0.038692635 -0.08505405 0.056623753
-0.033071566 0.08202803 -0.016451908 0.039842535 -0.028195158 -0.05362878 0.033065405 -0.02462889
0.066259645 0.06629206 0.0038190857 -0.02748082 -0.013030093 -0.0019254663 0.074824296 -0.064326294
0.08626136 -0.026128849 0.07704176 -0.008453636 -0.027440974 -0.020797899 0.042988244 0.08508396
0.10067641 -0.096030094 -0.07363603 0.0075249244 -0.032993406 0.049234636 0.031860813 0.05562393
0.021803673 0.0481816 -0.09100634 0.093029395 0.05900451 0.01591655 0.03696072 0.047463883
-0.05122786 0.040584296 -0.038117196 -0.040819574 0.062469598 0.0456303 0.036438 0.03906553
0.055197306 -0.07052268 0.01893852 0.035514884 0.0019488162 0.054267563 -0.090901405 -0.043103978
0.06517237 -0.04265658 -0.025227964 -0.06857854 0.05736392 0.07399631 0.016724069 0.044833995
-0.05123498 0.05631878 -0.08753779 -0.022122683 0.017904555 0.105217196 0.029271623 0.035075802
0.026918324 -0.056732107 -0.08040248 0.0847765 0.069653675 -0.026001638 0.09435506 0.09630252
0.082725964 -0.04006568 0.07250212 0.024468655 -0.022330416 -0.07047131 0.022585696 0.06395218
-0.054627478 -0.059635986 0.07804314 0.09471558 -0.05046605 -0.012293136 -0.061604153 0.014007328
0.097314335 0.014992099 0.06461632 0.04201174 -0.0064495797 0.048554562 0.037337083 -0.10075434
0.00922831 0.06727417 0.008435609 0.0077072983 -0.047397923 0.023549233 -0.10852327 -0.07029696
-0.0036350517 0.028366756 0.05495912 -0.06945624 -0.076222755 0.060631637 0.033444718 0.01418089
-0.09380517 0.036851093 0.05014694 0.050830416 0.001383298 -0.0802445 0.0815496 0.047448892
-0.060152028 0.009948041 -0.07787277 0.061200067 0.030085659 -0.07393242 0.012713578 0.06212521
0.05094203 0.024702452 0.042636074 0.07759853 -0.068348825 0.03094309 -0.0813667 -0.024664612
-0.06047224 -0.013499148 0.07013401 0.041772306 0.07861727 0.087084554 0.05947001 0.06988708
-0.013637853 -0.038639355 0.005383621 -0.03823366 -0.0029668512 0.0073119947 -0.030038888 0.04218588
0.07181358 0.0036560956 0.07971366 -0.019767832 0.0037240295 0.008996332 -0.08595525 -0.064543836
-0.06095943 0.014517105 0.07728739 0.0060083712 -0.090746194 0.12677658 -0.031180637 -0.031791873
0.009947819 0.0596031 0.057876743 -0.09321085 0.07455642 -0.0845484 0.04243175 0.086503305
-0.044017624 0.041507315 -0.022036886 0.012663125 -0.011800077 0.0678864 -0.044447996 0.07790041
-0.031849936 -0.010886371 0.033797294 0.011265744 0.0067529446 -0.05898272 0.017379032 -0.07724033
00000000: 44d0 62bd b383 17bd 0d7a 083d 6005 543d
00000010: eb56 ea3b 7477 31bc 2b78 afbc 4520 283d
00000020: aa55 a8bd 4af2 b8bd ad32 553d 80d3 c23c
00000030: 33bf 40bd aaa9 93bc a947 be3c 6c2e e7bb
00000040: aee6 853d b6a5 e13c 6b52 ce3c 8ca9 4b3d
00000050: 1084 b6bb 1321 d33d 9cb3 f5bc 618a bdbd
00000060: e002 983d aa66 b5bc c672 9bbc 4e13 a23d
00000070: 4596 f0ba bd27 c2bd f24b 4dbd 1447 433d
00000080: 4587 79bc fb31 e33c 817c 27bd a92b 43bd
00000090: e461 5cbd ecd0 cebc fc31 18bc f840 18bc
000000a0: b3eb 3e3d 0bbe 253d 1a5f 89bd 2983 fb3c
000000b0: e066 4cbd e454 90bd 8e54 73bd 0e98 aebd
000000c0: 1a1c 533d 0fb2 a2bd d004 59bd 0ba5 0d3d
000000d0: c837 f9bc 2b7c 1ebd d130 aebd 4fee 673d
000000e0: 0d76 07bd 50fe a73d 27c6 86bc ed31 233d
000000f0: 88f9 e6bc daa9 5bbd 976f 073d 87c2 c9bc
00000100: 23b3 873d 22c4 873d a049 7a3b 751f e1bc
00000110: 2c7c 55bc ee5f fcba 7b3d 993d 81bd 83bd
00000120: cca9 b03d 2b0c d6bc 12c8 9d3d 1f81 0abc
00000130: e5cb e0bc 5b60 aabc 7114 303d 8040 ae3d
00000140: 6f2f ce3d 6dab c4bd 7dce 96bd a493 f63b
00000150: 1824 07bd 42aa 493d 7c80 023d ebd5 633d
00000160: 9e9d b23c 125a 453d 8861 babd 3286 be3d
00000170: b7ae 713d 6d63 823c 2064 173d 7d69 423d
00000180: 4ed4 51bd b83b 263d c720 1cbd 6d32 27bd
00000190: 1fe0 7f3d d6e6 3a3d 0340 153d 2d03 203d
000001a0: 9216 623d 326e 90bd f524 9b3c 0e78 113d
000001b0: 6c6f ff3a aa47 5e3d 842a babd cc8d 30bd
000001c0: 1779 853d abb8 2ebd e0aa cebc e872 8cbd
000001d0: 6ef6 6a3d 618b 973d ea00 893c daa3 373d
000001e0: c5db 51bd 85ae 663d 0347 b3bd a13a b5bc
000001f0: 93ac 923c 1d7c d73d 0bcb ef3c a5ab 0f3d
00000200: d183 dc3c ed5f 68bd 0eaa a4bd 4d9f ad3d
00000210: 96a6 8e3d 6301 d5bc 3a3d c13d 413a c53d
00000220: 3b6c a93d e91b 24bd fe7b 943d 7d72 c83c
00000230: 47ee b6bc 4353 90bd a305 b93c 5cf9 823d
00000240: 10c1 5fbd dd44 74bd 15d5 9f3d 3efa c13d
00000250: 7db5 4ebd 2669 49bc a354 7cbd fe7e 653c
00000260: bd4c c73d 6ca1 753c 9055 843d 8114 2c3d
00000270: ff56 d3bb 26e1 463d c5ee 183d 4b58 cebd
00000280: 5632 173c 0ac7 893d 8235 0a3c 818d fc3b
00000290: 5324 42bd 52ea c03c 7341 debd daf7 8fbd
000002a0: 0c3a 6ebb 6661 e83c d01c 613d 133f 8ebd
000002b0: ad1a 9cbd e158 783d 54fd 083d f756 683c
000002c0: ed1c c0bd 2cf1 163d e166 4d3d 8e33 503d
000002d0: c74f b53a 3a57 a4bd 7a03 a73d c559 423d
000002e0: f961 76bd 1cfd 223c c27b 9fbd ecac 7a3d
000002f0: 3376 f63c e169 97bd 9c4c 503c 0177 7e3d
00000300: 97a8 503d cc5c ca3c 2aa3 2e3d faeb 9e3d
00000310: 78fa 8bbd 5d7c fd3c 96a3 a6bd 710d cabc
00000320: bdb1 77bd 882b 5dbc 6ba2 8f3d 7019 2b3d
00000330: 1702 a13d 6359 b23d d396 733d f520 8f3d
00000340: 4d71 5fbc 4d44 1ebd 1669 b03b e69a 1cbd
00000350: 816f 42bb 7599 ef3b 1d14 f6bc 1acb 2c3d
00000360: 0013 933d 1b9b 6f3b ea40 a33d 26f0 a1bc
00000370: d90e 743b 5a65 133c 4e09 b0bd 8f2f 84bd
00000380: 98b0 79bd 27d9 6d3c da48 9e3d dfe1 c43b
00000390: 24d9 b9bd b8d1 013e 896e ffbc 3238 02bd
000003a0: 2dfc 223c 6122 743d 2a10 6d3d 55e5 bebd
000003b0: 09b1 983d b627 adbd eacc 2d3d a528 b13d
000003c0: d34b 34bd 9303 2a3d b386 b4bc ff78 4f3c
000003d0: 1c55 41bc 0608 8b3d 1a0f 36bd 408a 9f3d
000003e0: 1475 02bd c05c 32bc 086f 0a3d f593 383c
000003f0: ce47 dd3b dd97 71bd 795e 8e3c 2e30 9ebd

bias f4 [128]
-0.08110732 0.06706193 -0.055904824 -0.049648974 -0.0827248 -0.01675186 -0.014034368 0.04818483
-0.07150197 0.022927769 -0.0005716807 0.08789355 -0.03358122 0.09626208 0.096310765 0.000109805325
0.015157112 -0.049242493 -0.03595919 -0.05575009 0.060778443 0.09320804 -0.07500289 0.02641066
0.04867571 0.03665782 -0.022118125 0.010462399 -0.011624813 0.0273973 0.054537404 0.03548079
-0.056733586 0.0039428873 0.01907304 0.03972754 0.08761797 0.04458025 -0.0033201515 -0.07089082
-0.01733215 -0.013178832 -0.029324247 0.06245294 -0.023431985 0.04140046 0.09225635 -0.00876614
0.09542691 -0.013468407 0.057790607 0.025014328 -0.07666783 0.042112872 -0.039477404 -0.034684587
-0.017232193 0.09446862 0.08615791 0.027480874 -0.01556743 0.082049124 -0.014749725 0.03151431
-0.018666603 0.0308722 -0.015720816 0.09156483 -0.06126251 -0.0093521355 -0.0057380004 0.03086208
-0.06729698 0.020558758 0.07567407 -0.06665885 0.04198677 0.024340792 0.08065704 0.040210005
-0.06579905 -0.06081622 -0.07692373 -0.06556215 0.051771294 -0.040430803 -0.042173084 0.03923101
0.018898908 0.010705633 0.078900106 0.056919686 -0.024392663 -0.067468114 -0.031642433 0.015849676
-0.08612992 -0.08489318 0.021242162 -0.044733584 -0.00049650646 -0.07874441 -0.03847603 -0.015229054
-0.052967906 0.040570717 -0.011889099 0.048237182 -0.037993718 -0.030215697 0.012635839 0.0444397
-0.029470112 0.01031647 -0.057469442 -0.028087305 0.09882762 -0.01814811 0.00093535316 -0.042273957
0.060178857 -0.06614219 0.07980874 -0.07491468 -0.055248205 -0.078235246 0.0017693936 -0.033302434
00000000: 981b a6bd c457 893d 75fc 64bd b95c 4bbd
00000010: 9f6b a9bd 323b 89bc 68f0 65bc 755d 453d
00000020: a06f 92bd 04d3 bb3c d8dc 15ba 8901 b43d
00000030: 768c 09bd 0e25 c53d 943e c53d 4947 e638
00000040: 8955 783c 7fb2 49bd f249 13bd 355a 64bd
00000050: d1f2 783d dbe3 be3d 1d9b 99bd 2b5b d83c
00000060: 2e60 473d 8326 163d 1231 b5bc 7b6a 2b3c
00000070: 0076 3ebc 4d70 e03c 9d62 5f3d 4e54 113d
00000080: 7a61 68bd 5633 813b 103f 9c3c 58b9 223d
00000090: 0d71 b33d c899 363d e696 59bb 352f 91bd
000000a0: 27fc 8dbc 07ec 57bc 6739 f0bc a7ce 7f3d
000000b0: 6ff4 bfbc 8793 293d e6f0 bc3d db9f 0fbc
000000c0: 2f6f c33d 98aa 5cbc d8b5 6c3d d9ea cc3c
000000d0: 0604 9dbd 8c7e 2c3d 0fb3 21bd 6d11 0ebd
000000e0: 872a 8dbc c478 c13d 8f73 b03d 921f e13c
000000f0: 890e 7fbc 5f09 a83d d5a8 71bc 2615 013d
00000100: b4ea 98bc b2e7 fc3c f1c8 80bc 5786 bb3d
00000110: 66ee 7abd b339 19bc d605 bcbb 79d2 fc3c
00000120: 00d3 89bd d76a a83c 02fb 9a3d 6f84 88bd
00000130: 52fa 2b3d 5766 c73c 852f a53d 3fb3 243d
00000140: a7c1 86bd 6e1a 79bd 308a 9dbd 7345 86bd
00000150: 230e 543d c59a 25bd afbd 2cbd b2b0 203d
00000160: e2d1 9a3c ae66 2f3c 6196 a13d 9e24 693d
00000170: 1fd3 c7bc b92c 8abd 7f9b 01bd 2ed7 813c
00000180: e264 b0bd 7adc adbd 0b04 ae3c 903a 37bd
00000190: fc27 02ba c044 a1bd 0b99 1dbd 4883 79bc
000001a0: e0f4 58bd 7b2d 263d 7fca 42bc 5a94 453d
000001b0: 4d9f 1bbd e986 f7bc 8d06 4f3c 6706 363d
000001c0: 4e6b f1bc 6906 293c 1465 6bbd 5917 e6bc
000001d0: 2366 ca3d 58ab 94bc 7d32 753a 7527 2dbd
000001e0: 1b7e 763d 8e75 87bd c472 a33d de6c 99bd
000001f0: f14b 62bd cd39 a0bd ffea e73a 2268 08bd

weight f4 [128, 128]
0.04500111 0.03360065 0.043413986 -0.06264208 0.077009365 0.075174116 -0.04967444 0.09799827
0.084508106 -0.036913633 0.007224322 -0.049910247 0.05767678 -0.071993776 -0.04626744 0.086391985
-0.013542267 0.04491107 0.034886535 -0.052159186 -0.072628774 -0.04578026 -0.030529065 0.029710548
0.05042623 -0.056342613 -0.003909489 0.0836178 0.04640942 -0.015502546 0.08114077 -0.04497997
-0.041714594 0.03542472 -0.057755765 -0.06770795 0.015045615 -0.007079617 0.053033702 0.019803975
0.023689363 -0.07193498 0.047183026 -0.06266266 -0.01222558 0.094168 -0.032304488 0.065996714
-0.08157264 -0.066769674 0.04556071 -0.01791919 -0.05101886 -0.023082333 -0.02027036 0.07491214
0.06003371 -0.0016443324 0.12472981 -0.05541716 -0.028433418 -0.036487367 0.056495752 -0.0289994
-0.013120918 -0.0069696396 -0.0020910783 0.09158783 0.046570197 -0.045937017 -0.10613456 0.08971388
0.039767046 0.062107757 0.100622475 0.03756882 0.083923936 0.07557592 0.0033328999 0.10473317
-0.016468365 -0.0632567 -0.033733767 0.015937835 0.057161532 -0.06835079 0.0056863837 0.085549325
0.05234459 0.087795995 -0.025647959 -0.012496287 0.0078086685 0.037956856 -0.038311247 0.014395009
0.03190101 -0.022854038 -0.010001518 0.0038361708 -0.02374473 -0.08731034 -0.054175638 0.08837754
0.009124422 0.04589312 0.107257314 0.05969068 0.081223205 0.043943055 0.04848551 0.058690812
-0.036304463 -0.05850567 0.0121783605 0.08894845 -0.027987128 0.038583044 0.07744929 0.034554966
0.101882204 -0.044959065 -0.06274808 0.018035226 -0.08565196 0.049236096 -0.06511638 -0.0605277
0.0028235428 -0.06145396 0.028015602 0.039890427 0.00397385 0.0060436795 0.07413041 -0.037906546
0.096003115 0.061085578 0.013764984 0.0006381426 0.0019318523 -0.09192562 0.04304658 0.019613795
-0.01156759 -0.008636895 0.003711417 0.04416368 -0.0021497328 0.07262603 0.024766289 -0.050499395
0.12065284 0.005390155 -0.047084756 0.080857806 0.054241832 0.09930631 0.07763837 -0.08328589
-0.05338496 -0.08174143 0.04703613 0.008200272 -0.028506173 0.0897495 -0.02476097 0.12933798
-0.011763164 0.06430115 -0.08953961 0.053975545 -0.0074519827 0.053208526 0.02555136 -0.07955682
-0.065339044 0.057412814 0.07689809 0.037283413 -0.0693005 0.056907933 -0.0410578 -0.06877277
0.07320131 0.059881624 0.0009615893 0.0031660427 0.072438955 0.08563558 -0.060903013 0.0822779
0.06074388 0.06589873 0.033335324 -0.056927077 0.026635164 -0.015204901 -0.013495481 0.052829135
-0.031962592 0.0893879 -0.020779036 0.06287483 0.072159536 0.08805377 0.051937442 -0.026050007
-0.01406316 0.014524376 0.06875514 0.0067577655 -0.030026311 -0.0676404 -0.07560097 0.05787183
0.032362126 0.0027448602 -0.07687213 -0.0070442734 0.07881117 0.065734595 -0.06909453 -0.086182304
0.0101477085 -0.040667694 0.02017866 0.05481531 -0.04949541 0.027288381 0.070460826 -0.06422155
-0.05804509 -0.038462054 0.055659954 0.039104637 0.0030524263 -0.04076249 0.045031533 0.038209043
-0.012556527 -0.018578915 0.01554069 -0.007542369 0.024652645 0.030723011 -0.052935228 0.033213634
-0.036789678 0.052277908 -0.05213209 -0.038207326 -0.061267346 0.022160847 -0.07478363 -0.04744453
00000000: 1553 383d d6a0 093d ddd2 313d 7e4a 80bd
00000010: 16b7 9d3d e3f4 993d 6d77 4bbd 51b3 c83d
00000020: 9612 ad3d c032 17bd 01ba ec3b b06e 4cbd
00000030: 7d3e 6c3d 7971 93bd ed82 3dbd 48ee b03d
00000040: 62e0 5dbc acf4 373d 2fe5 0e3d dfa4 55bd
00000050: 65be 94bd 1584 3bbd 1718 fabc 8963 f33c
00000060: bc8b 4e3d 83c7 66bd 2c1b 80bb cf3f ab3d
00000070: ce17 3e3d 64fe 7dbc 222d a63d eb3c 38bd
00000080: ecdc 2abd 8319 113d 4f91 6cbd 77aa 8abd
00000090: e281 763c 22fc e7bb de39 593d f23b a23c
000000a0: 3210 c23c a652 93bd fd42 413d 4855 80bd
000000b0: cd4d 48bc 27db c03d b651 04bd 4929 873d
000000c0: 8e0f a7bd 8abe 88bd de9d 3a3d 44cb 92bc
000000d0: 27f9 50bd 2917 bdbc 070e a6bc 896b 993d
000000e0: e8e5 753d a486 d7ba 5872 ff3d 1bfd 62bd
000000f0: 33ed e8bc c773 15bd 1768 673d 2690 edbc
00000100: 1ef9 56bc 9361 e4bb 790a 09bb 6692 bb3d
00000110: 64c0 3e3d 7428 3cbd 145d d9bd e9bb b73d
00000120: c5e2 223d b464 7e3d 2813 ce3d c3e1 193d
00000130: 50e0 ab3d 8cc7 9a3d c86c 5a3b 587e d63d
00000140: aae8 86bc bb8c 81bd 6b2c 0abd 1090 823c
00000150: 3622 6a3d 80fb 8bbd d854 ba3b 7c34 af3d
00000160: 4867 563d 63ce b33d ab1b d2bc 3abd 4cbc
00000170: dcdf ff3b a678 1b3d 41ec 1cbd 0bd9 6b3c
00000180: a2aa 023d 6438 bbbc 68dd 23bc 4468 7b3b
00000190: 4f84 c2bc c3cf b2bd 46e7 5dbd 49ff b43d
000001a0: 9a7e 153c 6dfa 3b3d b9a9 db3d 377e 743d
000001b0: 5a58 a63d a2fd 333d be98 463d c765 703d
000001c0: fdb3 14bd a4a3 6fbd bf87 473c 9b2a b63d
000001d0: 4345 e5bc 4109 1e3d bc9d 9e3d 8289 0d3d
000001e0: 9ea7 d03d ff26 38bd 1182 80bd 9cbe 933c
000001f0: 4b6a afbd caab 493d bd5b 85bd e5eb 77bd
00000200: 300b 393b 26b7 7bbd fa80 e53c 2564 233d
00000210: 1237 823b 0f0a c63b afd1 973d e543 1bbd
00000220: 489d c43d df34 7a3d 8786 613c 0649 273a
00000230: 3536 fd3a 8043 bcbd 9c51 303d 1cad a03c
00000240: fd85 3dbc c381 0dbc 3f3b 733b fae4 343d
00000250: 88e2 0cbb f5bc 943d ace2 ca3c 74d8 4ebd
00000260: d618 f73d e69f b03b f2db 40bd c798 a53d
00000270: af2c 5e3d 1b61 cb3d de00 9f3d cb91 aabd
00000280: 30aa 5abd 0d68 a7bd f5a8 403d 6f5a 063c
00000290: c785 e9bc 96ce b73d 85d7 cabc 2d71 043e
000002a0: 49ba 40bc 52b0 833d 8b60 b7bd 7615 5d3d
000002b0: c32f f4bb 2ff1 593d 1651 d13c b0ee a2bd
000002c0: 7ad0 85bd b329 6b3d bf7c 9d3d 7eb6 183d
000002d0: 6ced 8dbd 4b18 693d 392c 28bd bdd8 8cbd
000002e0: 92ea 953d 6f46 753d 2a13 7c3a 627d 4f3b
000002f0: e05a 943d b561 af3d 7075 79bd 5181 a83d
00000300: 93ce 783d eaf5 863d 9f8a 083d 5e2c 69bd
00000310: fd31 da3c fa1d 79bc 261c 5dbc 5d63 583d
00000320: 35eb 02bd 0111 b73d cc38 aabc 85c4 803d
00000330: 61c8 933d 8955 b43d 5bbc 543d d366 d5bc
00000340: 2b69 66bc a6f7 6d3c 7fcf 8c3d 3f70 dd3b
00000350: bdf9 f5bc 0d87 8abd aed4 9abd 030b 6d3d
00000360: 268e 043d 1de3 333b 236f 9dbd a6d3 e6bb
00000370: c067 a13d dc9f 863d 6f81 8dbd 5980 b0bd
00000380: 9342 263c 2b93 26bd b84d a53c 0586 603d
00000390: b3bb 4abd e28b df3c c44d 903d 9786 83bd
000003a0: b0c0 6dbd 638a 1dbd b1fb 633d 2f2c 203d
000003b0: 370b 483b 92f6 26bd fc72 383d 1681 1c3d
000003c0: e4b9 4dbc cf32 98bc 619e 7e3c fa25 f7bb
000003d0: 58f4 c93c d3ae fb3c 9cd2 58bd 050b 083d
000003e0: c6b0 16bd 5c21 563d 7588 55bd 497f 1cbd
000003f0: 78f3 7abd aa8a b53c 2928 99bd 3255 42bd

bias f4 [128]
0.07223217 0.06941184 0.03560649 -0.05701416 -0.01944876 0.044984918 0.06596004 -0.030330453
-0.044999994 -0.060200837 -0.076173685 -0.046437908 0.06298501 0.01610275 -0.046425223 -0.032160576
-0.013109871 -0.02197456 0.021707686 -0.013222185 0.058821492 0.044374853 0.062111575 0.09720914
0.0040375893 0.081652075 -0.040636763 0.104961336 0.00074893545 0.04132912 0.016549477 -0.025472773
-0.05694235 0.08637981 0.09268039 -0.025473844 0.04764477 0.013713837 -0.0011666369 0.039019305
0.00989736 -0.08740294 0.0722282 -0.019703897 -0.018827066 -0.08567256 -0.006513808 0.06278379
0.06482247 -0.060342558 -0.025466274 -0.04164863 -0.030855294 0.030353354 -0.04217987 0.038259
-0.08635635 -0.020528415 -0.048686188 0.08914178 0.05181105 -0.022106932 -0.03464577 0.038274787
-0.05869048 0.08374668 0.006277289 0.03298957 0.08740723 -0.042896505 -0.020792913 -0.041971076
0.07155066 0.076943144 -0.013293338 -0.06415684 -0.036532674 -0.06032064 -0.046474725 -0.050160084
-0.05452363 0.012786054 0.005352246 0.050178465 -0.060496252 0.070443526 -0.04239784 0.07143174
-0.08493844 0.09234007 0.02338009 0.060532372 -0.05972568 -0.037562545 0.07322489 0.039982844
-0.057359863 -0.07386885 0.012379132 -0.006132244 -0.07537434 0.034627017 0.0030632068 0.042702895
-0.058071304 -0.07916185 0.08834338 -0.026621323 -0.03164061 -0.06095387 0.09509135 0.052229796
0.036498804 -0.037198335 -0.07821442 -0.065954186 0.069641046 -0.036775127 -0.05471266 0.0414529
-0.036877844 -0.055947486 0.06366094 -0.04100291 0.065511286 0.011783732 0.08923014 0.03695338
00000000: 76ee 933d cb27 8e3d 1cd8 113d ae87 69bd
00000010: 0253 9fbc 1b42 383d 0f16 873d 9277 f8bc
00000020: ea51 38bd 2795 76bd f300 9cbd ad35 3ebd
00000030: 49fe 803d eae9 833c 6028 3ebd cfba 03bd
00000040: c9ca 56bc fe03 b4bc 51d4 b13c dda1 58bc
00000050: ceee 703d 68c2 353d b568 7e3d 9615 c73d
00000060: c14d 843b 3439 a73d bc72 26bd f8f5 d63d
00000070: 3554 443a b948 293d c592 873c 47ac d0bc
00000080: 623c 69bd e6e7 b03d 37cf bd3d 86ae d0bc
00000090: 2a27 433d 00b0 603c d7e9 98ba b5d2 1f3d
000000a0: 8928 223c 5000 b3bd 61ec 933d 116a a1bc
000000b0: 383b 9abc 1875 afbd c871 d5bb ca94 803d
000000c0: a5c1 843d c229 77bd a69e d0bc c197 2abd
000000d0: 3ec4 fcbc 99a7 f83c cdc4 2cbd 78b5 1c3d
000000e0: 99db b0bd 352b a8bc 2b6b 47bd f78f b63d
000000f0: d337 543d 9919 b5bc b9e8 0dbd 06c6 1c3d
00000100: 6e65 70bd 6183 ab3d b7b1 cd3b 1220 073d
00000110: 9002 b33d 3fb4 2fbd e655 aabc dde9 2bbd
00000120: 2789 923d 5e94 9d3d 4dcc 59bc a964 83bd
00000130: 49a3 15bd c712 77bd 485c 3ebd a974 4dbd
00000140: 2b54 5fbd 997c 513c e561 af3b ef87 4d3d
00000150: ebca 77bd b244 903d 5ca9 2dbd ce4a 923d
00000160: 34f4 adbd ca1c bd3d 9a87 bf3c cbf0 773d
00000170: eaa2 74bd 2fdb 19bd eef6 953d 0dc5 233d
00000180: 2df2 6abd 8d48 97bd d8d1 4a3c fef0 c8bb
00000190: dd5d 9abd 0fd5 0d3d 15c0 483b 3be9 2e3d
000001a0: 2ddc 6dbd 9c1f a2bd 60ed b43d f614 dabc
000001b0: 9699 01bd c4aa 79bd 41bf c23d e9ee 553d
000001c0: c57f 153d 485d 18bd e22e a0bd fd12 87bd
000001d0: f79f 8e3d 84a1 16bd 621a 60bd 84ca 293d
000001e0: 390d 17bd 3129 65bd ab60 823d abf2 27bd
000001f0: c82a 863d 8e10 413c 4bbe b63d 6d5c 173d

weight f4 [2, 128]
0.051664174 0.04694051 0.0019928573 0.12062239 0.06642827 -0.0870431 -0.06351915 0.06460457
0.022247963 -0.098208435 0.061334617 -0.13474107 0.025467688 0.075114936 0.07151146 -0.068114445
0.083498016 0.09978512 -0.11162295 0.09850558 -0.11043507 0.046138495 -0.002120608 -0.10202513
0.032347586 0.022412054 -0.08740936 0.006451741 0.0985969 -0.040421996 -0.10556683 -0.009744598
-0.025347924 0.05333086 0.0157559 -0.01715836 0.0111576775 -0.024349965 -0.019717714 0.016717715
-0.011451304 0.008112914 -0.038912255 -0.08301393 -0.08594884 0.06869973 -0.08595318 0.048266236
0.12127699 -0.045756105 0.07054349 0.02396053 -0.056869 -0.010651923 0.07172414 0.029759903
-0.06884838 -0.020352976 0.043837003 -0.024302734 -0.07832362 0.025517587 0.015331399 -0.038491074
-0.012459478 0.10107659 -0.09940918 0.10450745 -0.0220356 0.069777906 -0.044115596 0.09140006
-0.06744213 0.110798 -0.11232842 0.055168953 -0.038476653 -0.10578537 0.06168757 0.07560376
0.05429307 0.08254624 0.04591036 0.025202962 0.08634099 0.11888821 0.051077172 -0.07439023
-0.029478814 0.015298987 -0.09280796 -0.028509028 0.0058318675 0.058797073 -0.020851832 0.030567579
0.029524326 0.12636064 -0.09042135 0.08109716 -0.0013954161 0.015817305 0.08709398 0.06781996
-0.086482026 -0.030965399 -0.03708475 -0.054375287 0.100491144 -0.072351165 -0.064573124 -0.087683685
-0.036179524 0.014660334 -0.06626073 0.004110852 -0.09674389 -0.010043652 -0.08088582 0.01260506
-0.08648874 0.079068184 0.08081575 -0.11517827 -0.10618495 -0.053598117 -0.120152175 -0.033408493
-0.088056326 -0.1144992 -0.04512818 -0.08096267 0.026163032 0.04034869 0.10451976 -0.0626726
-0.07247909 0.03243525 -0.029992292 0.056878977 0.028379377 -0.066197686 -0.019934433 0.10007392
-0.028780838 -0.08865654 0.02121656 -0.012598279 0.108015895 0.12591025 -0.11646689 0.010026488
0.0863694 -0.04480244 0.0007080963 -0.11543073 -0.11573447 0.042121224 0.033743612 -0.011066536
0.046576966 -0.08771724 -0.07288804 -0.016022177 -0.07638209 0.10251404 0.03324489 0.13982525
0.08191824 0.04757688 0.102712974 -0.054716475 -0.009278358 -0.040533602 0.06188964 -0.038923033
-0.06732284 -0.019480338 -0.005653936 -0.0656438 0.04517467 0.11930869 -0.07791556 0.035056643
0.03721295 0.097688004 -0.06817958 0.11701826 0.092207246 -0.06675205 0.10891004 0.08834886
-0.077268094 -0.05642326 0.04499517 -0.022643734 0.059616283 -0.021117572 -0.0151847135 -0.11059003
0.030595323 -0.04494722 0.07225642 0.115717135 0.089418404 0.04400916 -0.025463864 -0.003489977
-0.07405894 0.04063679 -0.09891506 -0.07314002 -0.008236303 0.029808965 -0.042851314 0.026874311
-0.0578946 -0.10758325 0.0048553697 0.05835321 0.0933161 0.04319584 0.10807972 -0.06421313
-0.039532278 -0.022164075 0.092890784 0.08193074 0.046053004 -0.07512285 0.01649139 -0.06721564
0.032478254 -0.06509468 0.08039814 0.10229394 -0.08995919 -0.07736169 0.09064155 0.074613295
0.09824724 0.14431521 0.11437471 0.08765324 0.0252204 0.06265612 0.038207494 0.10830737
0.010434792 -0.05289171 -0.09254639 -0.01217481 0.012308448 -0.07162426 0.052773908 0.0696848
00000000: d09d 533d b144 403d 999a 023b df08 f73d
00000010: 8b0b 883d a743 b2bd 5416 82bd 674f 843d
00000020: 5c41 b63c 8121 c9bd 023a 7b3d 90f9 09be
00000030: 9da1 d03c dcd5 993d 9a74 923d 967f 8bbd
00000040: 0201 ab3d 245c cc3d 939a e4bd 4bbd c93d
00000050: c82b e2bd b8fb 3c3d e6f9 0abb 8df2 d0bd
00000060: e77e 043d 7c99 b73c ae03 b3bd 2069 d33b
00000070: 2ced c93d 8991 25bd 6c33 d8bd cea7 1fbc
00000080: 73a6 cfbc 7671 5a3d 8412 813c b08f 8cbc
00000090: b1ce 363c 9479 c7bc 0b87 a1bc 97f3 883c
000000a0: 409e 3bbc 07ec 043c 7562 1fbd 3503 aabd
000000b0: f205 b0bd 72b2 8c3d 3908 b0bd d1b2 453d
000000c0: 1260 f83d c16a 3bbd 1b79 903d e048 c43c
000000d0: 78ef 68bd 6785 2ebc 1be4 923d 0acb f33c
000000e0: 6100 8dbd 49bb a6bc 6e8e 333d 8716 c7bc
000000f0: 2268 a0bd 420a d13c 8c30 7b3c d1a8 1dbd
00000100: d722 4cbc 3e01 cf3d 0a97 cbbd 0008 d63d
00000110: 0184 b4bc b8e7 8e3d 8eb2 34bd f42f bb3d
00000120: 191f 8abd 10ea e23d 710c e6bd d7f8 613d
00000130: b299 1dbd 00a6 d8bd 1bac 7c3d 25d6 9a3d
00000140: 6962 5e3d 010e a93d 800c 3c3d 7176 ce3c
00000150: 8cd3 b03d a97b f33d 4c36 513d e859 98bd
00000160: 8e7d f1bc 9aa8 7a3c 1a12 bebd c48b e9bc
00000170: 4019 bf3b 33d5 703d 76d1 aabc dc68 fa3c
00000180: 00dd f13c af64 013e d42e b9bd 4516 a63d
00000190: 65e6 b6ba 4b93 813c 545e b23d 31e5 8a3d
000001a0: 7d1d b1bd 26ab fdbc 2ee6 17bd 9fb8 5ebd
000001b0: 4dce cd3d d92c 94bd ea3e 84bd 8193 b3bd
000001c0: fb30 14bd e631 703c b5b3 87bd 53b4 863b
000001d0: a921 c6bd 218e 24bc 77a7 a5bd 7485 4e3c
000001e0: 0221 b1bd 80ee a13d ba82 a53d 96e2 ebbd
000001f0: 7f77 d9bd b389 5bbd 5812 f6bd 58d7 08bd
00000200: e056 b4bd 8e7e eabd 54d8 38bd c2cf a5bd
00000210: db53 d63c ab44 253d 750e d63d 7e5a 80bd
00000220: eb6f 94bd d3da 043d 65b2 f5bc eef9 683d
00000230: de7b e83c a792 87bd 894d a3bc 8ef3 cc3d
00000240: cbc5 ebbc 8f91 b5bd 5ace ad3c 0369 4ebc
00000250: 7037 dd3d 9eee 003e 3186 eebd 2446 243c
00000260: 71e2 b03d c382 37bd 8a9f 393a f266 ecbd
00000270: 3206 edbd 4e87 2c3d be36 0a3d 6b50 35bc
00000280: 7dc7 3e3d 19a5 b3bd 5346 95bd f140 83bc
00000290: 376e 9cbd e2f2 d13d cb2b 083d 5a2e 0f3e
000002a0: c0c4 a73d f9df 423d 2e5b d23d 621e 60bd
000002b0: 4104 18bc 9006 26bd fe7f 7d3d c26d 1fbd
000002c0: 8fe0 89bd 3b95 9fbc a744 b9bb 4270 86bd
000002d0: 1309 393d 1d58 f43d 3192 9fbd 8e97 0f3d
000002e0: 9b6c 183d a610 c83d bca1 8bbd 45a7 ef3d
000002f0: 27d7 bc3d 4cb5 88bd 3a0c df3d 3ff0 b43d
00000300: bc3e 9ebd 141c 67bd db4c 383d 5a7f b9bc
00000310: 3430 743d c2fe acbc 4ec9 78bc 077d e2bd
00000320: 0ba3 fa3c 931a 38bd 2dfb 933d 1bfd ec3d
00000330: ff20 b73d f342 343d 9899 d0bc 19b8 64bb
00000340: 37ac 97bd c372 263d fb93 cabd 6fca 95bd
00000350: 8ff1 06bc ee31 f43c dc84 2fbd 8427 dc3c
00000360: e322 6dbd 9b54 dcbd cb19 9f3b c703 6f3d
00000370: 831c bf3d 1fee 303d e658 dd3d 2c82 83bd
00000380: 99ec 21bd 6f91 b5bc 863d be3d 4ecb a73d
00000390: 13a2 3c3d 02da 99bd f418 873c 5aa8 89bd
000003a0: eb07 053d 5c50 85bd c8a7 a43d 7c7f d13d
000003b0: 863c b8bd ce6f 9ebd 47a2 b93d dbce 983d
000003c0: d935 c93d 5ec7 133e 4a3d ea3d 8b83 b33d
000003d0: 039b ce3c da51 803d 767f 1c3d 41d0 dd3d
000003e0: b1f6 2a3c faa4 58bd f688 bdbd db78 47bc
000003f0: 5fa9 493c bdaf 92bd 7429 583d e8b6 8e3d

bias f4 [2]
-0.08126948 -0.0028327825
00000000: 9d70 a6bd 34a6 39bb
