save_model/liwc/models/NeuralNetTorch/net.params (torch, 264839 bytes, 10 tensors)

weight f4 [128, 117]
0	0xbc30ec05	-0.010798459
1	0x3d3e2792	0.046424456
2	0xbd70e2f7	-0.0588102
3	0xbdc98cb6	-0.098412916
4	0xbb8bf72f	-0.00427141
5	0x3d006432	0.031345554
6	0x3cc9ae88	0.024619356
7	0x3dcf587f	0.10124301
8	0x3c88e4aa	0.016710598
9	0x3d553f61	0.052062396
10	0x3c17bec9	0.009261795
11	0xbc56f1c7	-0.013119168
12	0xbd95812a	-0.07300027
13	0xbd7af58b	-0.061269324
14	0xbd244f2d	-0.04011457
15	0xbbf7008c	-0.007537907
16	0x3d467a2f	0.048456367
17	0x3d34559c	0.044026956
18	0xbd82fb53	-0.063955925
19	0xbccde030	-0.025131315
20	0x3ca9fc7a	0.020750273
21	0x3db2f64e	0.08738385
22	0xbc6e82d9	-0.014557564
23	0x3da5829a	0.08081551
24	0xba372b7f	-0.00069873774
25	0x3d5ba1c1	0.053621057
26	0x3d92a0a2	0.071595445
27	0xbdc4e0e5	-0.09613208
28	0xbd87faa9	-0.066396065
29	0xbcbd2e50	-0.023093373
30	0xbcdc7250	-0.026909977
31	0x3d9acc77	0.0755853
32	0xbd68eef7	-0.05686852
33	0xbd67c08c	-0.05658011
34	0xbd746530	-0.059666812
35	0xbdba81ad	-0.09106765
36	0xbd6658dd	-0.05623709
37	0x3da1911f	0.07889008
38	0x3d2ae649	0.041723523
39	0x3cde8d5c	0.027167015
40	0xbabc398a	-0.001436041
41	0xbd876293	-0.066105984
42	0x3bfc1217	0.007692586
43	0xbdc336f4	-0.09531966
44	0xbd932c9d	-0.07186244
45	0xbd573d8f	-0.05254894
46	0x3d7f34d5	0.062306244
47	0x3d423954	0.047417954
48	0xbd2618f9	-0.04055116
49	0xbb6ecd13	-0.0036438152
50	0x3d652cba	0.055950858
51	0x3dc98280	0.09839344
52	0x3d1044f6	0.035222016
53	0x3cf7b705	0.030238638
54	0x3d578d11	0.052624766
55	0xbd52094e	-0.051278405
56	0x3c55d2b3	0.013050723
57	0xbdb27ef1	-0.087156184
58	0xbd83f713	-0.0644361
59	0xbd4bc28d	-0.049746085
60	0x3d333541	0.04375196
61	0x3d2630d4	0.04057391
62	0xbd72482e	-0.059150867
63	0x3d003bea	0.03130714
64	0x3d32ae60	0.04362333
65	0xbc817a87	-0.015805496
66	0xbbe1e350	-0.006893553
67	0x3ce8232a	0.02833708
68	0x3d13acae	0.036053352
69	0x3dbf199b	0.09331056
70	0xbd9c23db	-0.076240264
71	0xbd4c3fee	-0.049865656
72	0x3d056ecb	0.032576364
73	0x3d9ccb72	0.076559916
74	0x3d931c9c	0.07183191
75	0x3d9c7e88	0.076413214
76	0x3ca6c642	0.020358209
77	0xbd906910	-0.07051289
78	0x3c057bd4	0.008147199
79	0xbd51897e	-0.051156513
80	0xbdb59f31	-0.08868254
81	0x3dc5706a	0.09640582
82	0x3d8bee3e	0.068325505
83	0xbdc999a9	-0.098437615
84	0x3c8978da	0.01678126
85	0xbcaa4ad6	-0.020787638
86	0xbc821567	-0.015879346
87	0xbd43c79b	-0.04779778
88	0x3d110efb	0.035414677
89	0xbd6ab75b	-0.057303768
90	0x3ce8031f	0.0283218
91	0x3d37b205	0.044847507
92	0x3d89c106	0.067262694
93	0x3d0dfb03	0.03466321
94	0xbdba2c3f	-0.090904705
95	0xbd7aa9b7	-0.06119701
96	0x3d1de3de	0.03854739
97	0x3c606237	0.013695291
98	0xbd9c0702	-0.07618524
99	0xbd8d2d03	-0.06893351
100	0x3dbb8dd0	0.09157908
101	0x3d8ae526	0.06781988
102	0xbcfde569	-0.03099318
103	0xbce9222f	-0.028458683
104	0xbdb825c5	-0.08991579
105	0xbb4080ca	-0.002937364
106	0xbda09d3e	-0.078424916
107	0xbd8d8b38	-0.069113195
108	0xbc335b3c	-0.010947045
109	0x3c2a8e4d	0.010409904
110	0xbd918253	-0.071049355
111	0x3c58e0d3	0.013237196
112	0xbd338ec6	-0.04383733
113	0x3d9dbfcc	0.07702598
114	0x3d96150e	0.073282346
115	0xbd882ceb	-0.066491924
116	0xbd21656c	-0.039403364
117	0xbc17373b	-0.009229477
118	0x3af7a214	0.0018892908
119	0x3d271f82	0.040801533
120	0x3b6ce5b7	0.0036147663
121	0x3ce5d256	0.028054398
122	0xbd05aaa5	-0.032633442
123	0x3d9f8eea	0.077909306
124	0xbd647977	-0.0557799
125	0xbd41e0bc	-0.047333464
126	0xbb80aad8	-0.003926616
127	0xbc4c2e2f	-0.012462183
128	0xbd55f2f2	-0.052233644
129	0xbd80e9f0	-0.0629462
130	0xbcbccbeb	-0.023046454
131	0x3ce72df8	0.028220162
132	0xbce3981d	-0.027782494
133	0x3bb9fdcb	0.0056760064
134	0x3d4c26ef	0.049841817
135	0x3cadb8bf	0.021206258
136	0x3c80d32e	0.015725698
137	0xbb585c44	-0.003301398
138	0x3ceb4e13	0.028723752
139	0x3d85fed0	0.06542742
140	0x3dca4314	0.098760754
141	0x3dab243a	0.08356519
142	0x3e042180	0.12903404
143	0xbc9500db	-0.018188884
144	0xbdc1e2fe	-0.094671234
145	0xbd6b6487	-0.057468917
146	0x3d8fe922	0.070268884
147	0x3cde4583	0.027132755
148	0xbd4dad0d	-0.050213862
149	0xbd6fc8ec	-0.058541223
150	0xbdeaf5da	-0.11472674
151	0xbd653fe5	-0.055969138
152	0xbc62abd7	-0.013834915
153	0x3d8c2544	0.06843045
154	0x3ce70b0a	0.028203506
155	0xbdc588ee	-0.09645258
156	0x3cfbfe58	0.030760929
157	0xbd99d88f	-0.075120084
158	0xbcab9593	-0.020945346
159	0xbd3f5e42	-0.04672075
160	0xbcf26352	-0.029588375
161	0xbc038cd9	-0.008029186
162	0xbdc4b010	-0.09603894
163	0xbd94a05d	-0.07257149
164	0xba50271b	-0.00079403975
165	0x3bd6cdc4	0.006555291
166	0xbcfdcc8f	-0.03098133
167	0x3d34ca28	0.044138104
168	0xbd9e2235	-0.07721368
169	0xbad23ae6	-0.0016039282
170	0x3db811d4	0.089877754
171	0xbd67b45a	-0.05656848
172	0x3daef6ca	0.08543165
173	0x3c975e1c	0.018477492
174	0xbdd837e6	-0.10557537
175	0x3d816746	0.06318526
176	0xbbbdeef7	-0.005796309
177	0xbcc338d0	-0.023830801
178	0x3da96866	0.082718655
179	0xbd8f7d45	-0.07006315
180	0x3c897be0	0.016782701
181	0xbcb114d7	-0.021616383
182	0x3da054f4	0.078287035
183	0x3d0e0eb9	0.03468201
184	0x3d5b515b	0.053544383
185	0x3c91b772	0.017787669
186	0xbadea898	-0.0016987501
187	0xbd0377bb	-0.032096606
188	0xbd81958f	-0.06327354
189	0x3d57fef6	0.052733384
190	0x3da3566d	0.07975469
191	0x3d885078	0.06655973
192	0xbd81f2e3	-0.06345155
193	0x3c433197	0.011913679
194	0xbd691a10	-0.05690962
195	0xbd8bbb6a	-0.06822856
196	0xbd20505f	-0.039139148
197	0x3d14bcaf	0.036312755
198	0xbd4b12be	-0.04957842
199	0xbc4a7460	-0.0123568475
200	0x3bdc677d	0.006726204
201	0x3d82a167	0.06378441
202	0xbd848b9c	-0.06471941
203	0xbd746097	-0.059662428
204	0xbd4e5544	-0.050374284
205	0x3d88a54c	0.06672153
206	0xbceaca4a	-0.028660912
207	0x3d9a8bf4	0.07546225
208	0x3d51d209	0.051225696
209	0xbbabac3a	-0.005239037
210	0x3b85480f	0.004067428
211	0xbc9511e6	-0.018197011
212	0x3c6e206f	0.0145341
213	0xbcc8c733	-0.024509048
214	0xba1e6bfe	-0.0006043314
215	0x3b50fd88	0.0031889398
216	0xbdb6980f	-0.089157216
217	0xbd285985	-0.041100997
218	0x3da594d0	0.08085024
219	0xbd8562da	-0.06512995
220	0xbceb41bd	-0.02871787
221	0x3dcc00ee	0.09961115
222	0x3d08e7b0	0.03342408
223	0xb8d701de	-0.00010252347
224	0xbd9a9991	-0.07548822
225	0x3d34b150	0.04411441
226	0xbd6ee2b5	-0.058321673
227	0xbd74a76d	-0.059729982
228	0xbd5d072e	-0.053961925
229	0xbba697a0	-0.005083993
230	0xba815ed9	-0.0009870186
231	0x3d9127a3	0.07087638
232	0x3c94e482	0.018175367
233	0x3d88e74c	0.066847414
234	0x3d50fec9	0.051024232
235	0xbd3c6ac1	-0.046000246
236	0x3d515815	0.051109392
237	0xbd9b2ed2	-0.0757729
238	0xbcd24026	-0.025665354
239	0x3d33e8e9	0.043923292
240	0x3d1811aa	0.03712622
241	0x3d7e7c32	0.06213016
242	0xbd2a39d3	-0.04155905
243	0x3a26309b	0.000633964
244	0x3d301577	0.04298922
245	0xbdded048	-0.1087957
246	0x3d296e15	0.041364748
247	0xbddb36b0	-0.1070379
248	0x3b2010a8	0.002442399
249	0xbb2ce226	-0.0026379912
250	0xbd4910a9	-0.049088154
251	0x3c68c124	0.014206205
252	0x3dcb1e10	0.09917843
253	0xbc4dadcc	-0.012553643
254	0xbd89285f	-0.06697153
255	0xbc38f998	-0.011289977

bias f4 [128]
0	0x3d74a107	0.05972388
1	0x3ce1edff	0.027579306
2	0xbd9d820a	-0.076908186
3	0x3d8651a7	0.06558543
4	0xbcbf4e77	-0.023352845
5	0xbdaee91d	-0.085405566
6	0xbd1af82f	-0.037834343
7	0xbcb4c143	-0.02206481
8	0x3d8971d8	0.06711167
9	0xbdc1da0d	-0.09465418
10	0x3cd394f2	0.025827859
11	0xbd89ce94	-0.06728855
12	0x3d90cb50	0.07070029
13	0xbd83d692	-0.064374104
14	0xbd765abd	-0.06014513
15	0xbcf3c798	-0.02975826
16	0xbd0408fd	-0.032235134
17	0xbcf8faf7	-0.030393107
18	0xbda84817	-0.08216875
19	0xbd44c0a5	-0.048035283
20	0xbc8f2240	-0.017472386
21	0x3d31ff33	0.043456268
22	0x3ce5c4fd	0.028048033
23	0x3d8e6a60	0.06953883
24	0xbd2047a5	-0.039130826
25	0xbcdf795c	-0.027279548
26	0x3d450356	0.048098885
27	0xbd00dadf	-0.03145873
28	0xbdb0fce6	-0.086419865
29	0xbdbc5242	-0.09195377
30	0xbd7c3f4d	-0.061583806
31	0x3c1bcf28	0.009509839
32	0xbda4e42d	-0.080513336
33	0xbc830388	-0.015992895
34	0xbdbb3bde	-0.09142278
35	0xbcd77535	-0.026301006
36	0xbd0ebea1	-0.034849767
37	0xbdb2567c	-0.08707902
38	0x3d95d64a	0.07316263
39	0x3cf50c92	0.02991322
40	0xbd432677	-0.047644105
41	0x3da7558b	0.08170613
42	0x3d9835aa	0.074321106
43	0x3c2b8c2e	0.010470433
44	0xbbd7ec17	-0.0065894234
45	0x3d835396	0.06412427
46	0x3bde874e	0.006791032
47	0x3c25ab28	0.010111608
48	0xbc1aad6d	-0.009440762
49	0x3d1b15f2	0.037862726
50	0x3d6fe215	0.058565218
51	0x3d9d9948	0.07695252
52	0xbd7b060b	-0.06128506
53	0x3befc017	0.0073166
54	0x3ca2090b	0.019779703
55	0x3d03b3f6	0.032154046
56	0x3d618adf	0.05506408
57	0x3d835971	0.06413544
58	0xbdab26b7	-0.08356994
59	0x3d1dcbef	0.038524564
60	0xbb94f4cb	-0.004545783
61	0xbb43c014	-0.0029869126
62	0xbda0bcaa	-0.07848485
63	0x3d8a34bb	0.06748339
64	0x3d15aab2	0.03653974
65	0xbda6730e	-0.08127414
66	0x3d9945ac	0.07483992
67	0x3dad18d9	0.08452005
68	0xbdacd7c1	-0.08439589
69	0xbcd34f6d	-0.02579471
70	0xbdbb4ca9	-0.09145481
71	0x3bc34779	0.005959448
72	0xbb887cfb	-0.0041652895
73	0xbd9dcfbf	-0.0770564
74	0xbd4b8f7c	-0.049697384
75	0xbb302b14	-0.0026881145
76	0x3dc6cda2	0.0970719
77	0x3d47e871	0.048805658
78	0x3da24e9a	0.07925148
79	0x3be661ff	0.007030725
80	0xbd8e31e4	-0.0694311
81	0x3d5e3a1b	0.054254632
82	0xbcad9adb	-0.021192005
83	0x3c2e24e9	0.010628917
84	0x3dbfae98	0.09359473
85	0xbd52d79f	-0.051475164
86	0x3be53112	0.006994375
87	0xbdb1b24e	-0.08676587
88	0xbcd21dd4	-0.025648989
89	0xbc3b6a66	-0.011438942
90	0x3c497b77	0.012297503
91	0x3d948606	0.072521254
92	0x3db5419d	0.08850405
93	0x3d9d8026	0.07690458
94	0x3c503425	0.012707745
95	0x3d9bd27f	0.07608508
96	0xbcd4a246	-0.025956284
97	0xbd0b218f	-0.03396755
98	0xbd20fe08	-0.039304763
99	0xbd4513c4	-0.048114553
100	0xbc75eb52	-0.015009718
101	0xbc928e56	-0.017890137
102	0xbd1eafb7	-0.038741793
103	0x3cac838c	0.02105882
104	0x3d096875	0.033546884
105	0xbd38d21c	-0.04512225
106	0xbdaac2cc	-0.08337936
107	0xbc28c66c	-0.010301214
108	0xba578132	-0.0008220851
109	0x3c99d9f6	0.01878069
110	0x3d4d9265	0.05018844
111	0xbd4211f8	-0.047380418
112	0xbc731cb7	-0.014838389
113	0xbd5415a6	-0.051778458
114	0xbcabe484	-0.020982988
115	0xbd9aa720	-0.07551408
116	0x3da95c12	0.08269514
117	0xbdad9a67	-0.084767155
118	0x3cff2dd8	0.03114979
119	0x3a931446	0.0011221252
120	0x3ae20d36	0.0017246369
121	0xbd2b4a05	-0.041818637
122	0x3d563f38	0.052306384
123	0x3c9ad450	0.018900067
124	0xbc7ac9e1	-0.015306921
125	0x3dbb57bf	0.091475956
126	0xbda6684f	-0.08125364
127	0xbba0c1bb	-0.004905907

weight f4 [128, 128]
0	0xbdac67db	-0.08418246
1	0x3d6ec9d8	0.058297962
2	0xbd5fa330	-0.054598987
3	0x3c4392e9	0.011936882
4	0xbdaa6a55	-0.083210625
5	0x3d35f146	0.04441955
6	0xbcab24a9	-0.020891504
7	0x3ca35ec9	0.019942658
8	0x3dbe0329	0.092779465
9	0x3cde50dc	0.027138166
10	0x3d893a4e	0.06700574
11	0x3d1ff7d3	0.039054703
12	0xbab89d2c	-0.0014084927
13	0xbbf30895	-0.0074167945
14	0xbd950791	-0.07276834
15	0xbd56e6cb	-0.052466195
16	0x3d32af5e	0.043624274
17	0x3ca71cc3	0.020399457
18	0x3c1187dc	0.008882489
19	0x3d8a25f1	0.06745518
20	0xbdbcd8b5	-0.09221021
21	0x3d83590e	0.0641347
22	0x3d1f0ecf	0.038832482
23	0xbd83e9ee	-0.06441103
24	0x3c5de845	0.013544147
25	0x3d129409	0.03578571
26	0xbd9b2891	-0.07576097
27	0x3d44279f	0.047889348
28	0xbcea18ca	-0.028576273
29	0xbd258300	-0.040408134
30	0xbbd1eb5f	-0.0064062322
31	0x3d00ad12	0.031415053
32	0x3d377157	0.044785824
33	0xbd9d3c58	-0.07677525
34	0x3c44a952	0.01200326
35	0xbd9664c3	-0.073434375
36	0x3d0ca2e0	0.034335017
37	0xbc87f76c	-0.016597472
38	0xbbd30a9f	-0.006440475
39	0xbd8edf0b	-0.06976136
40	0x3d39d8c2	0.045372732
41	0xbd6279fc	-0.055292115
42	0xbc0f020b	-0.008728514
43	0xbd99b5ff	-0.07505416
44	0x3d866a41	0.06563235
45	0x3c92285d	0.017841512
46	0x3bdffa3b	0.0068352497
47	0x3d7e488d	0.06208091
48	0x3b883201	0.0041563516
49	0x3d7135b5	0.05888911
50	0xbd89edce	-0.06734811
51	0xbb03b2f6	-0.0020095683
52	0xbd53103b	-0.05152915
53	0x3c33161e	0.010930566
54	0xbdb0359d	-0.08603976
55	0xbc8caead	-0.017173136
56	0x3b8b4acf	0.0042508612
57	0x3db16b95	0.08663098
58	0xbd21f71d	-0.039542306
59	0xbccbe238	-0.024888143
60	0xbd6d826b	-0.057985704
61	0xbceeba46	-0.029141556
62	0xbc861837	-0.016368968
63	0x3d85d8f3	0.065355204
64	0x3b875df6	0.004131074
65	0xbd225537	-0.03963205
66	0xb9f5381f	-0.00046771855
67	0xbd8cea8e	-0.06880675
68	0xbb39530b	-0.0028278257
69	0xbd7ac0f4	-0.06121917
70	0x3d9a76a7	0.075421624
71	0x3da06427	0.078316025
72	0xbd06e496	-0.03293284
73	0x3ac312da	0.0014882938
74	0xbc972b4d	-0.018453265
75	0xbc424aa7	-0.011858619
76	0x3d98f736	0.07469027
77	0x3d8e64c8	0.06952816
78	0x3d854f08	0.06509215
79	0xbdbb98dd	-0.09160016
80	0x3cac3939	0.02102338
81	0x3d5f1716	0.054465376
82	0x3d3c00fe	0.045899384
83	0xbd75feb5	-0.06005736
84	0x3d35f4bc	0.04442285
85	0xbd065c43	-0.03280283
86	0x3ba7cc0b	0.0051207594
87	0xbcaed594	-0.021342076
88	0x3bcdd2c1	0.0062812273
89	0xbd345bbe	-0.044032805
90	0x3d1adee7	0.037810232
91	0xbcf83a20	-0.030301154
92	0xbca82c7b	-0.020529022
93	0x3c597e5a	0.0132747535
94	0x3c3d170f	0.011541142
95	0x3d3f8571	0.04675812
96	0x3cb40f5b	0.021979978
97	0xbd502079	-0.05081222
98	0xbc51a0a0	-0.012794644
99	0x3d5bb9e8	0.05364409
100	0xbdb84f17	-0.0899946
101	0x3d3e12c0	0.0464046
102	0x3d4dcc9f	0.05024397
103	0x3c5178b6	0.012785127
104	0x3d5040f2	0.050843187
105	0x3d939f44	0.07208112
106	0xbc265ef6	-0.010154476
107	0xbd5464a8	-0.051853806
108	0xbd066430	-0.03281039
109	0x3d24161a	0.04006014
110	0xbd5b4c0d	-0.053539325
111	0x3c553c0f	0.013014807
112	0xbc149b5e	-0.009070246
113	0xbd896a58	-0.067097366
114	0x3ce2327a	0.02761196
115	0xbd2ac741	-0.04169393
116	0x3c8df4d2	0.017328653
117	0x3d40d13a	0.047074534
118	0xbcb10b83	-0.021611935
119	0xbcb79a6f	-0.022412507
120	0xbc90e382	-0.01768661
121	0x3bea2b12	0.0071462477
122	0x3cb9d931	0.022686573
123	0x3d61787d	0.055046547
124	0xbdb17e58	-0.08666676
125	0x3d233273	0.039843034
126	0x3db97f63	0.090575
127	0xbd3d79a1	-0.046258572
128	0x3d52e0be	0.051483862
129	0x3c734edd	0.014850345
130	0xbd80ead4	-0.0629479
131	0x3bc42f84	0.0059871096
132	0xbca5e337	-0.020249946
133	0x3d5bae50	0.053633034
134	0xbca44065	-0.020050237
135	0xbc032cc0	-0.008006275
136	0x3da98d6e	0.08278929
137	0xbd398fb8	-0.045303077
138	0xbdc53ad1	-0.09630359
139	0x3d5ad222	0.053423055
140	0xbc4e1630	-0.012578532
141	0x3d23fe3d	0.040037382
142	0x3c4f6162	0.012657495
143	0xbd056151	-0.03256351
144	0x3d04ba62	0.03240431
145	0x3d116d2e	0.035504512
146	0x3ca0b86f	0.019619195
147	0x3d08a361	0.033358935
148	0xbd8d545e	-0.069008574
149	0x3ce9311a	0.028465796
150	0x3d7e35aa	0.062062897
151	0xbc8d5e18	-0.017256781
152	0x3db8fdb7	0.09032767
153	0xbbaad7ed	-0.0052137286
154	0xbd2a3221	-0.041551713
155	0x39a6668f	0.000317384
156	0x3d403871	0.046928827
157	0xbacf0951	-0.0015795623
158	0xbd862f16	-0.0655195
159	0x3d68a16f	0.05679458
160	0x3d09baa6	0.033625267
161	0xbd3f4783	-0.04669906
162	0x3c564263	0.013077351
163	0x3b73ed4a	0.0037220293
164	0x3c64fbdf	0.013976066
165	0xbba35d15	-0.0049854615
166	0x3d98d8b0	0.07463205
167	0xbd8577ee	-0.065170154
168	0x3bcd040d	0.0062565864
169	0x3cb91a5e	0.02259558
170	0xbd1e7317	-0.038683977
171	0x3b5f9afd	0.003411948
172	0xbdad2bc9	-0.08455617
173	0x3c4728ed	0.012155754
174	0x3c11de74	0.008903135
175	0xbc81e11f	-0.015854416
176	0xbdabc8bf	-0.08387899
177	0x3d811cc5	0.063043155
178	0xbca34ff0	-0.019935578
179	0x3d9c410a	0.07629593
180	0x3dbbc350	0.09168112
181	0x3d84780c	0.064682096
182	0x3db451ea	0.08804686
183	0x3d4dd615	0.050252993
184	0xbbd2efd7	-0.0064372825
185	0x3d12fc92	0.0358854
186	0xbd0567c7	-0.032569673
187	0x3cf6b66f	0.030116288
188	0xbd760a2c	-0.060068294
189	0xbc6bc19e	-0.014389424
190	0x3c2d16e3	0.010564539
191	0xbc9019c9	-0.01759042
192	0xbd384ed2	-0.044997044
193	0x3c549254	0.0129743405
194	0xbcbb8a5a	-0.02289312
195	0xbd26f02f	-0.0407564
196	0xbd3607fa	-0.0444412
197	0xbd1099cf	-0.035302933
198	0x3d791758	0.060813278
199	0xbbd4e30c	-0.0064967927
200	0xbc8e814f	-0.017395644
201	0xbca670bb	-0.020317426
202	0x3cab521c	0.020913176
203	0xbd8cd699	-0.06876869
204	0x3dacd5ab	0.084391914
205	0xbd5b2663	-0.053503405
206	0x3d2b1dc1	0.041776422
207	0xbd5fa59a	-0.05460129
208	0xbd3c84a4	-0.046024933
209	0xbded8d16	-0.11599176
210	0xbd23cc78	-0.03998992
211	0xbd9a28bf	-0.07527303
212	0xbd54dba0	-0.051967263
213	0xbc589568	-0.013219215
214	0x3cc646e6	0.024203729
215	0xbd4da305	-0.050204296
216	0x3d5b087b	0.053474884
217	0xbd952aef	-0.072835796
218	0xbda31bb7	-0.079642706
219	0xbd870ce9	-0.06594259
220	0xbd9420e7	-0.07232838
221	0x3d237112	0.039902754
222	0x3dcc6505	0.099802054
223	0x3d1f6c7d	0.03892182
224	0xbbf0c8a9	-0.0073481393
225	0x3d8dd9a4	0.06926277
226	0xbc9cf539	-0.0191599
227	0x3d63a3cf	0.055576142
228	0xbd1ca9d1	-0.038247887
229	0x3ca5f47e	0.020258185
230	0xbcb06952	-0.021534596
231	0x3da4cba5	0.080466546
232	0xbd0ca4db	-0.034336906
233	0x3d1dedbe	0.038556807
234	0x3b0bb03a	0.0021314756
235	0xbd25980b	-0.040428203
236	0xbcf50cd8	-0.029913351
237	0xbdb4cbeb	-0.08827957
238	0x3d923601	0.07139207
239	0x3cd8b5c0	0.026453853
240	0xbd9b0bdb	-0.075706206
241	0xbd55d52f	-0.05220526
242	0x3d70df42	0.058806665
243	0x3da93ab1	0.082631476
244	0x3d69fa85	0.05712368
245	0x3cfe1579	0.031016098
246	0xbc4a2090	-0.012336865
247	0x3dae89a8	0.085223496
248	0xbd5f8267	-0.05456772
249	0xbc860de9	-0.016364055
250	0x3d0b8f41	0.034072164
251	0x3d3b72f1	0.045763914
252	0xbd228443	-0.039676916
253	0xbcc0eed3	-0.02355138
254	0x3ca0d3b6	0.019632202
255	0x3d3eb633	0.046560477

bias f4 [128]
0	0xbd89d521	-0.06730104
1	0xba62ca6b	-0.00086513784
2	0x3d733e08	0.05938533
3	0xbd2320cd	-0.039826203
4	0xbd783f64	-0.06060733
5	0x3b0b6e2a	0.002127538
6	0x3d8e8d6c	0.06960568
7	0x3c9b20a6	0.018936466
8	0x3ccf9118	0.02533774
9	0xbd71ad04	-0.05900289
10	0xbce1b0e5	-0.02755017
11	0x3b8a7305	0.004225137
12	0x3dabbdaa	0.08385785
13	0x3d224e06	0.03962519
14	0x3d218d76	0.03944155
15	0xbb603dbe	-0.0034216489
16	0x3d919f2b	0.07110437
17	0x3d71ed51	0.059064213
18	0x3da2aaa2	0.07942702
19	0x3c175372	0.0092362035
20	0xbc83c0c6	-0.016083132
21	0xbd54cfc7	-0.051955964
22	0xbd979368	-0.074011624
23	0xbce02420	-0.027360976
24	0x3cc564e2	0.024095956
25	0xbbb1d8e1	-0.0054274653
26	0xbd074287	-0.03302243
27	0x3d81af8d	0.06332312
28	0x3da4a09d	0.08038447
29	0xbda110c8	-0.07864529
30	0xbb9ac414	-0.0047230814
31	0x3d6247b3	0.05524416
32	0xbbc333ca	-0.0059571015
33	0xbd91afc2	-0.07113601
34	0x3d1371ef	0.035997327
35	0x3d34d22b	0.044145744
36	0xbd5818dc	-0.052758083
37	0xbd8083fe	-0.062751755
38	0x3d443c91	0.047909323
39	0xbdb3c6fd	-0.087781884
40	0x3ce6e62a	0.028185923
41	0x3db28a62	0.08717801
42	0x3d821150	0.06350958
43	0x3b65fcd3	0.0035093322
44	0xbcb6589d	-0.022259051
45	0x3ce619cc	0.028088473
46	0xbcdd0a60	-0.026982486
47	0xbd61db4c	-0.05514078
48	0xbd4fd793	-0.050742697
49	0xbcf67294	-0.030083932
50	0x3cd841a4	0.026398487
51	0x3d96be32	0.073604956
52	0x3bd80bb3	0.0065931915
53	0xbd82b9a5	-0.06383065
54	0x3ca33312	0.019921813
55	0x3d82a17f	0.06378459
56	0x3d4f25b9	0.050573085
57	0xbc2b354b	-0.010449718
58	0xbbb9478e	-0.005654282
59	0xbd94337c	-0.07236382
60	0x3c622f9d	0.013805297
61	0x3d2bfa9a	0.04198704
62	0x3ce339bc	0.02773749
63	0x3d0e88ba	0.03479836
64	0x3c2b5223	0.010456595
65	0x3b8a19ba	0.0042144926
66	0xbcd61df4	-0.02613733
67	0xbd0996a3	-0.033590924
68	0xbc680207	-0.01416064
69	0x3d6429b2	0.055703826
70	0xbd5a68d1	-0.053322617
71	0xbdbde6fc	-0.092725724
72	0xbc8e7d05	-0.017393598
73	0xbcef02c6	-0.029176127
74	0xbd95b891	-0.07310594
75	0xbd6790c6	-0.05653455
76	0xbc677c1a	-0.014128709
77	0xbd448ad0	-0.047983944
78	0x3d8bf670	0.068341136
79	0xbbf93704	-0.0076054353
80	0xbc9fa674	-0.01948855
81	0x3d809603	0.062786125
82	0xbd923846	-0.071396396
83	0x3cfdd8fb	0.030987253
84	0xbc4ed955	-0.012625058
85	0x3da99b2d	0.082815506
86	0x3ade6638	0.001696772
87	0xbd1159ac	-0.03548591
88	0xbd73e718	-0.05954656
89	0xbd6b5614	-0.057455137
90	0xbcfd1fe1	-0.03089899
91	0x3d975b5b	0.073904715
92	0x3d8574bb	0.06516405
93	0x3dacce27	0.08437758
94	0xbcd48b41	-0.025945308
95	0x3d04c065	0.032410044
96	0xbd8a224b	-0.06744822
97	0xbc5e442b	-0.013566057
98	0x3da4aab1	0.08040369
99	0xbd8a4c3f	-0.06752824
100	0xbdae84de	-0.08521436
101	0x3a0277a2	0.0004976933
102	0x3cc5eb30	0.024159998
103	0x3da08eb6	0.0783972
104	0x3d0209ab	0.0317475
105	0x3c8b3efc	0.016997807
106	0x3db0e2a6	0.0863698
107	0x3d98c073	0.07458582
108	0xbd47f8c0	-0.04882121
109	0xbdae31ec	-0.085056156
110	0xbd79e903	-0.061013233
111	0x3c2a7da9	0.010405936
112	0x3d094538	0.033513278
113	0xbcbdf177	-0.023186428
114	0x3d9873e2	0.07443978
115	0x3cb1a894	0.02168683
116	0xba42f1c5	-0.0007436539
117	0xbc81efc8	-0.015861407
118	0x3d3d5321	0.046221856
119	0x3cf4ebee	0.029897656
120	0xbd5c573e	-0.053794138
121	0xbcd4f8d0	-0.02599755
122	0x3d244a18	0.040109724
123	0x3d012d1f	0.03153717
124	0xbc345cec	-0.011008482
125	0x3db24b4b	0.08705767
126	0x3d8031b7	0.06259482
127	0xbd374452	-0.04474289

weight f4 [128, 128]
0	0x3daf61bf	0.085635655
1	0x3d9b4bfe	0.07582854
2	0x3d620e64	0.055189505
3	0xbd105817	-0.03524026
4	0x3d15960b	0.036520045
5	0xbd4e419e	-0.050355546
6	0x3d169569	0.036763582
7	0x3af54752	0.0018713272
8	0x3d804d6a	0.062647656
9	0x3d5e4db0	0.054273307
10	0x3cf4773e	0.029842015
11	0x3ccf3cad	0.025297487
12	0xbd393e2b	-0.045225304
13	0xbd6f290c	-0.058388755
14	0xbd9bff19	-0.076170154
15	0xbcc6409b	-0.024200728
16	0xbd92af9c	-0.07162401
17	0xbcb12a03	-0.021626478
18	0x3bd686a2	0.006546811
19	0xbd9cec53	-0.07662263
20	0x3dbb86cc	0.0915657
21	0x3c50acd1	0.012736515
22	0x3c530a38	0.012880854
23	0xbd9eb58b	-0.0774947
24	0x3d662421	0.0561868
25	0xbd54ced9	-0.051955078
26	0x3cd97582	0.02654529
27	0x3d8fb4a5	0.07016877
28	0x3d8cf9c1	0.06883574
29	0xbda2c0c9	-0.07946927
30	0xbd329246	-0.04359653
31	0xbd0729e5	-0.032998938
32	0x3d2c9c19	0.042141054
33	0xbd2cf584	-0.04222633
34	0x3d79709b	0.060898405
35	0xbd53d066	-0.051712416
36	0x3ada33d3	0.0016647525
37	0x3c5f366e	0.013623817
38	0xbd825d4b	-0.063654505
39	0xbae44869	-0.00174166
40	0xbd8ac3d7	-0.06775635
41	0xbd1e4d1c	-0.038647756
42	0xbdb41ba4	-0.087943345
43	0x3cea3e8f	0.028594283
44	0xbd3b92f9	-0.04579446
45	0xbcb018f1	-0.021496268
46	0x3d238ed2	0.039931126
47	0x3d5987bb	0.05310796
48	0x3d2c5c86	0.042080425
49	0x3c79fee0	0.015258521
50	0x3da09172	0.078402415
51	0xbbc739c0	-0.0060798824
52	0x3da5697a	0.08076759
53	0xbd3dfb10	-0.04638201
54	0xbda2a43b	-0.07941481
55	0x3b6b2580	0.0035880506
56	0xbd19fdeb	-0.03759567
57	0xbd8b7233	-0.06808891
58	0xbd51fcfe	-0.051266663
59	0xbc1bb07f	-0.009502529
60	0xbb3d06df	-0.0028843207
61	0xbb371c38	-0.0027940404
62	0xbca69b35	-0.02033768
63	0x3da7ce34	0.08193627
64	0x3d3f53eb	0.04671089
65	0xbd467a4f	-0.048456486
66	0xbd7214ed	-0.059101988
67	0x3c208275	0.009796728
68	0x3d1d08d3	0.038338494
69	0x3d87b49a	0.06626244
70	0x3d59ceb5	0.053175647
71	0x3d9031ce	0.070407495
72	0x3c208e5a	0.009799564
73	0xbd5be75f	-0.05368745
74	0x3d439260	0.047747016
75	0x3d065db0	0.03280419
76	0x3d820e6f	0.06350409
77	0xbd22caf6	-0.03974434
78	0xbd95c036	-0.07312052
79	0x3d25958f	0.040425833
80	0xbcb51389	-0.022104042
81	0xbd2607d5	-0.040534813
82	0x3dc9a215	0.09845368
83	0x3d269485	0.040668983
84	0x3d884770	0.066542506
85	0x3dafc2cd	0.08582077
86	0xbd854c7d	-0.065087296
87	0x3daf8b08	0.0857144
88	0x3d9fc220	0.07800698
89	0xbd9c1c1e	-0.076225504
90	0x3ae6026c	0.0017548329
91	0x3d6c13be	0.057636015
92	0x3ce1e731	0.027576061
93	0xbd7132c1	-0.058886293
94	0xbd7c446f	-0.0615887
95	0xbd54a38c	-0.051913783
96	0x3d515837	0.05110952
97	0xbd92a976	-0.07161228
98	0x3ca37b79	0.019956337
99	0xbcdaf11f	-0.026726304
100	0xbd19d9ee	-0.03756135
101	0x3da288a2	0.07936217
102	0xbdac60b3	-0.084168814
103	0x3c7891d1	0.015171484
104	0x3d972bbf	0.07381391
105	0xbd527ca3	-0.051388394
106	0xbce85815	-0.028362313
107	0xbd0c3d41	-0.034238104
108	0x3d9da009	0.0769654
109	0x3d077fc4	0.03308083
110	0x3d3b6289	0.045748267
111	0xbd2d6424	-0.04233183
112	0xbd8f3805	-0.06993107
113	0x3d687549	0.056752477
114	0x3d5c1028	0.053726345
115	0x3d8b60fc	0.06805608
116	0x3d0dd258	0.034624428
117	0x3d1165ba	0.035497405
118	0x3cda8f01	0.026679518
119	0xbca64512	-0.020296607
120	0xbce98512	-0.028505836
121	0x3dc50669	0.09620363
122	0x3b347b46	0.0027539297
123	0x3b86adc7	0.0041100713
124	0xbd5b8e69	-0.05360261
125	0x3dbf4225	0.09338788
126	0x3c36b176	0.011150708
127	0x3be7f5dc	0.0070788693
128	0x3c072e75	0.008250822
129	0x3d7f7947	0.06237152
130	0x3d9edc82	0.07756902
131	0x3da5081e	0.08058189
132	0xbd71a0ea	-0.05899135
133	0xbd19069a	-0.03735981
134	0xbd3a69c3	-0.04551102
135	0x3d17d13b	0.037064772
136	0x3d0c55e8	0.034261614
137	0xbdb816cb	-0.089887224
138	0xbd940631	-0.072277434
139	0xbcf739db	-0.030178955
140	0xbc82c048	-0.015960827
141	0x3d74fad9	0.05980954
142	0x3caa7932	0.020809744
143	0x3c2ccbc2	0.0105466265
144	0xbd939d92	-0.072077885
145	0x3da583be	0.080817685
146	0x3d958325	0.073004045
147	0x3d4784d7	0.04871067
148	0x3c00a46a	0.007851699
149	0x3db1a97a	0.08674903
150	0xbb1039a8	-0.0022007022
151	0xbc7b97b1	-0.01535599
152	0xbc8ab5f9	-0.016932474
153	0x3ccb8fd1	0.02484885
154	0x3d1ff0dc	0.03904806
155	0x3d9b4ef0	0.075834155
156	0x3d708e3f	0.058729406
157	0x3d2a2169	0.04153577
158	0x3c9a60ba	0.018844951
159	0x3cd5b64d	0.026087904
160	0x3d928a3b	0.071552716
161	0xbd0be1ad	-0.034150768
162	0x3d58b2cb	0.052904885
163	0xbd2bb9af	-0.04192513
164	0xbd048925	-0.032357354
165	0x3d149ad7	0.03628048
166	0xbd622b0a	-0.055216826
167	0xbd154861	-0.03644598
168	0x3c8ec7e5	0.017429302
169	0xbc2d9fe7	-0.010597206
170	0x3d4de356	0.050265633
171	0xbd748190	-0.059693873
172	0xbd92d97f	-0.0717039
173	0x3bbcfead	0.0057676644
174	0x3cf089fe	0.029362675
175	0x3b1dad94	0.002405976
176	0xbd857ff5	-0.065185465
177	0xbd579103	-0.05262853
178	0x3cfcba3e	0.030850526
179	0x3c5e86ce	0.013581945
180	0x3d508426	0.050907277
181	0xbd3a2534	-0.045445636
182	0x3d806320	0.062689066
183	0xbbf257e0	-0.0073957294
184	0x3c9e93bd	0.019357556
185	0xbd8ba9f5	-0.06819526
186	0xbc5506e5	-0.013002132
187	0xbcf63c7f	-0.030058144
188	0xbd8fdb0c	-0.07024202
189	0x3d4ac86f	0.049507555
190	0x3d02f9ba	0.03197644
191	0xbd6a109c	-0.057144746
192	0x3cb84ad7	0.022496624
193	0xbc668a54	-0.014071066
194	0xbdb41d90	-0.08794701
195	0x3ca0cbfa	0.019628514
196	0xbc9c0c24	-0.019048758
197	0x3d410a7d	0.047129143
198	0xbb27e317	-0.0025617534
199	0xbd53c784	-0.051703945
200	0xbd117b76	-0.035518132
201	0x3d068935	0.032845695
202	0xbd8aa6b2	-0.06770076
203	0xbbeb9ab8	-0.007190075
204	0xbd8b1bd6	-0.06792419
205	0xbd8b4fcd	-0.0680233
206	0xbc5ea19b	-0.013588334
207	0x3d81c9c7	0.06337314
208	0xbd3003b6	-0.04297229
209	0xbd587a57	-0.052851047
210	0xbd1a8fd6	-0.03773483
211	0xbd7940fd	-0.060852993
212	0xbc0248d5	-0.007951935
213	0xbd99b694	-0.07505527
214	0x3d1111b1	0.035417262
215	0xbda4be34	-0.08044091
216	0xbdad373a	-0.08457799
217	0xbdb08bf8	-0.08620447
218	0xbd57341c	-0.05253993
219	0x3ca79b80	0.02045989
220	0x3d8344d4	0.06409612
221	0xbd672239	-0.05642912
222	0x3d388cff	0.04505634
223	0xbd9d98af	-0.07695138
224	0xbd81fe20	-0.063472986
225	0x3cc85929	0.024456577
226	0xbc577efb	-0.013152833
227	0xbd093091	-0.033493582
228	0x3c01dadd	0.007925716
229	0xba4e6a9d	-0.0007874163
230	0x3d828958	0.063738525
231	0x3cdba2e2	0.026811067
232	0xbbe8d74a	-0.0071057426
233	0xbd826d1c	-0.06368467
234	0xbce69508	-0.028147236
235	0xbd8cd8ed	-0.06877313
236	0xbcac1c59	-0.021009611
237	0xbcad1798	-0.021129414
238	0xbc0f37e4	-0.008741353
239	0xbd8ab5dc	-0.06772968
240	0x3cf385dd	0.029726917
241	0x3d1a107d	0.03761338
242	0xbbfca404	-0.007709982
243	0xbd1693f3	-0.03676219
244	0x3c6d2bad	0.014475745
245	0x3d453045	0.048141737
246	0x3cefca11	0.029271157
247	0x3c9a594f	0.018841414
248	0x3c1d5c60	0.009604543
249	0x3c902e4c	0.017600201
250	0x3adf6a9b	0.0017045321
251	0xbcdbda3e	-0.026837464
252	0xbd747f92	-0.059691973
253	0x3d58bb2a	0.05291287
254	0x3d2cc28c	0.04217772
255	0xbdaffc56	-0.08593051

bias f4 [128]
0	0xbd38ea55	-0.04514535
1	0x3d1fe11a	0.039033033
2	0xbc7f06f5	-0.0155656235
3	0x3caa1989	0.02076413
4	0x3c2b8773	0.010469305
5	0x3d7aea23	0.061258446
6	0x3d506604	0.05087854
7	0xbd56c42f	-0.05243319
8	0x3c9a6c44	0.018850453
9	0x3d252819	0.040321443
10	0x3d5ed714	0.054404333
11	0xbd683afa	-0.05669687
12	0xbcafbab0	-0.021451324
13	0x3b95ca9d	0.0045712725
14	0x3c3cccc5	0.01152343
15	0xbd3b1361	-0.045672778
16	0x3ce58678	0.028018221
17	0xbd015f4d	-0.031585027
18	0x3d9cbb84	0.07652953
19	0xbdbe8026	-0.09301786
20	0xbd891fa7	-0.0669549
21	0x3db9f234	0.090794
22	0xba69d2f9	-0.0008919682
23	0x3d4bb1af	0.04973
24	0xbd1578d5	-0.036492188
25	0x3d6d0293	0.057863783
26	0x3db07443	0.08615925
27	0x3875ab7c	5.857226e-05
28	0xbc2167f6	-0.009851446
29	0x3ce98c12	0.028509174
30	0xbc9885ee	-0.01861855
31	0xbd1c908e	-0.038223796
32	0x3c604c65	0.013690089
33	0x3c57a458	0.013161741
34	0xbb4c59ed	-0.003118153
35	0x3d29b0ee	0.0414285
36	0xbd6036e8	-0.054739863
37	0x3d83ba4e	0.06432019
38	0x3d168972	0.03675217
39	0x3dc32f44	0.095304996
40	0xbdb318f0	-0.08744991
41	0x3da106a0	0.07862592
42	0x3d8785b6	0.066173
43	0x3cb4e7fa	0.022083271
44	0x3c09062b	0.008363287
45	0x3ceca6b7	0.02888809
46	0xbda40619	-0.080089755
47	0x3d143813	0.03618629
48	0x3db02bd8	0.086021125
49	0xbd69d215	-0.057085115
50	0x3d79ef22	0.06101907
51	0x3c0ee625	0.008721863
52	0x3d9c52cf	0.07632982
53	0x3dac9180	0.084261894
54	0xbd8b501f	-0.06802391
55	0x3d3f6588	0.046727687
56	0xbd14ef6f	-0.036361154
57	0xbda74fcb	-0.08169516
58	0xbca5bb6c	-0.020230971
59	0xb8e9f370	-0.000111556496
60	0xbce6a2d7	-0.02815382
61	0xbd96329e	-0.07333873
62	0xbd08c84d	-0.033394147
63	0x3d6ccbe7	0.057811644
64	0x3db0a9e7	0.08626156
65	0x3cf9f588	0.030512586
66	0xbd5a1ff4	-0.05325313
67	0xbdc113df	-0.09427618
68	0x3d3e731d	0.0464965
69	0x3c02ede4	0.007991288
70	0xbd3fcab1	-0.04682416
71	0xbb8b39ff	-0.004248857
72	0x3d9d16d1	0.076703675
73	0x3d861a1f	0.06547951
74	0x3ce22c40	0.02760899
75	0xbd47f8f6	-0.048821412
76	0xbd6b2b68	-0.057414442
77	0x3d26660b	0.04062466
78	0x3c2f85df	0.01071307
79	0xbc280a48	-0.0102563575
80	0xbd7f57c2	-0.06233955
81	0xbd6f089c	-0.05835782
82	0xbd9569da	-0.0729558
83	0x3c8f94ad	0.017526949
84	0x3c36ed67	0.011165
85	0x3d576616	0.05258759
86	0xbc628b8c	-0.013827216
87	0xbd66b3d4	-0.05632384
88	0xbae0b93e	-0.001714505
89	0xbc51edd9	-0.012813055
90	0x3dbb2d11	0.09139455
91	0x3da799c3	0.081836246
92	0xbd09dd93	-0.033658575
93	0xbd21d8b9	-0.039513323
94	0xbc6fbc68	-0.014632322
95	0xbd244264	-0.040102378
96	0xbd1282ec	-0.035769388
97	0xbda0558e	-0.07828818
98	0x3db0aae3	0.08626344
99	0x3da9be0b	0.08288201
100	0xbd1e2688	-0.038610965
101	0x3cda3828	0.026638106
102	0xbcb4f45c	-0.022089176
103	0xbbd8866b	-0.0066078207
104	0x3c58a5f5	0.013223161
105	0x3d17cdf1	0.037061635
106	0xbd1ac77a	-0.037787892
107	0x3d677fe0	0.056518435
108	0x3cac69bb	0.02104651
109	0x3cf8c7d1	0.030368717
110	0xbd9b22df	-0.075750105
111	0x3bb85f41	0.0056265895
112	0x3daed3a3	0.0853646
113	0xbd997ee9	-0.07494909
114	0x3ca43c7a	0.020048369
115	0x3c8c9286	0.017159712
116	0x3da12efe	0.07870291
117	0xbc1a173c	-0.009404954
118	0x3c168677	0.009187332
119	0xbc43bc12	-0.011946695
120	0xbd5c1aaa	-0.053736366
121	0xbd8da157	-0.06915539
122	0x3d6900a2	0.05688537
123	0x3be3b74e	0.006949342
124	0x3ca5466e	0.020175185
125	0x3ca148fe	0.019688126
126	0xbd013f58	-0.03155455
127	0xbd214d3c	-0.039380297

weight f4 [128, 128]
0	0xbcac7b03	-0.02105475
1	0xbd9d2858	-0.076737106
2	0xbda4c26a	-0.08044894
3	0xbc64acf1	-0.013957248
4	0x3d3032ec	0.043017313
5	0x3d1755c6	0.036947034
6	0x3d899d51	0.06719459
7	0xbd6903fb	-0.05688856
8	0xbcd9680f	-0.026538877
9	0x39a592e9	0.0003158071
10	0xbcd77ae6	-0.02630372
11	0xbd2574d7	-0.04039463
12	0x3d8e3204	0.069431335
13	0x3d842d8e	0.06454001
14	0x3d5f5857	0.054527607
15	0xbdc2e064	-0.09515455
16	0x3ccf1779	0.025279747
17	0x3c4b506d	0.012409312
18	0xbd296d5b	-0.041364055
19	0x3d758814	0.059944227
20	0xbd9f2ab2	-0.07771815
21	0xbab34c90	-0.0013679434
22	0x3dc2e931	0.09517134
23	0xbc765d45	-0.015036886
24	0xba717bc8	-0.0009211865
25	0x3dbedcd8	0.09319466
26	0x3d8686b2	0.0656866
27	0xbb15a09f	-0.0022831333
28	0x3d86de87	0.065854125
29	0x3cd6a5b5	0.026202062
30	0xbdaa2679	-0.08308119
31	0x3d9e604d	0.07733212
32	0x3ba42f2f	0.0050105075
33	0x3d982f6c	0.0743092
34	0xbcb5082c	-0.022098623
35	0xbd390b0f	-0.045176562
36	0x3d8ca512	0.06867422
37	0xbd3fd849	-0.046837125
38	0x3d7620a3	0.06008972
39	0x3da3aa2f	0.07991444
40	0x3dab7c11	0.08373273
41	0xbd62d167	-0.055375483
42	0x3d11ebbf	0.035625216
43	0xbd64b99c	-0.055841073
44	0x3ca0f9fb	0.01965045
45	0x3d1e93c6	0.038715146
46	0xbd89088e	-0.06691085
47	0xbd8ed655	-0.06974474
48	0x3bf6ccab	0.0075317225
49	0xbce32c4e	-0.027731087
50	0x3db48098	0.0881359
51	0xbc9045e8	-0.017611459
52	0xbd809dc4	-0.062800914
53	0x3de40468	0.11133653
54	0xbd832e90	-0.064053655
55	0x3d8a3663	0.06748655
56	0x3cd30140	0.025757432
57	0x3d117586	0.03551247
58	0xbbf5d9d7	-0.007502775
59	0x3c3f53c9	0.011677691
60	0x3d0a69ca	0.033792295
61	0xbdb36d81	-0.087611206
62	0x3cef646e	0.029222693
63	0xbd4f4ae5	-0.050608534
64	0x3dacc562	0.08436085
65	0xbd5ed6ac	-0.054403946
66	0x3d18e12a	0.03732411
67	0x3cd1b766	0.025600147
68	0xbd1943c5	-0.037418146
69	0xbc9de36b	-0.01927348
70	0x3c2e1093	0.010624069
71	0x3c23e2d0	0.010002807
72	0x3c8a91f9	0.016915308
73	0x3d1935e6	0.037404917
74	0xbd3e26e1	-0.046423797
75	0xbcc97f47	-0.024596823
76	0x3d8f1ee5	0.069883145
77	0xbd9fadbc	-0.07796809
78	0xbc198697	-0.009370468
79	0x3c1bf6d9	0.009519302
80	0xbc4f8389	-0.012665638
81	0xbd9906ef	-0.074720256
82	0xbcf7b85c	-0.030239277
83	0x3d9ea0d7	0.077455215
84	0xbcaf2132	-0.021378133
85	0xbbdbc6f7	-0.006707068
86	0x3d8c7812	0.06858839
87	0xbd6ded08	-0.05808738
88	0x3daa23d2	0.083076134
89	0xbd5d9dcf	-0.054105576
90	0xbcb72dff	-0.0223608
91	0x3cb1634c	0.021653794
92	0x3d521161	0.051286105
93	0x3d718888	0.058968097
94	0x3d505eaa	0.05087153
95	0x3d1c2587	0.038121726
96	0xbcf5a87c	-0.029987566
97	0x3cbb42f4	0.022859074
98	0x3da927ce	0.08259545
99	0xbcc76aa5	-0.024342844
100	0x3d6181a2	0.055055268
101	0x3da2ee4e	0.07955609
102	0xbd8b6c9e	-0.068078265
103	0x3d44826b	0.04797594
104	0x3db6f055	0.089325584
105	0xbad81e9a	-0.0016488612
106	0x3d0c8727	0.03430858
107	0xbd874c0f	-0.06606304
108	0x3db57c90	0.08861649
109	0x3d53589a	0.05159817
110	0x3ccdc179	0.025116669
111	0x3dd1d44c	0.102455705
112	0x3cb65d10	0.022261173
113	0x3d023c7c	0.031795964
114	0xbdccce5f	-0.100003
115	0xbcdcf9ae	-0.026974525
116	0x3d984893	0.074357174
117	0xbdbd501d	-0.09243796
118	0xbc94bb7a	-0.018155802
119	0xbd9c87ec	-0.076431125
120	0xbcdadd5e	-0.026716884
121	0x3da873ed	0.08225236
122	0x3cae213f	0.021256087
123	0x3d2c8aef	0.042124685
124	0x3d3e9e54	0.046537712
125	0x3d989460	0.07450175
126	0xbd041c38	-0.032253474
127	0x3d90519e	0.07046817
128	0xbc459417	-0.012059233
129	0x3d145032	0.036209293
130	0xbc565812	-0.013082521
131	0xb73d4940	-1.1282333e-05
132	0xbc998259	-0.018738912
133	0xbd9c7607	-0.076396994
134	0xbc71a84a	-0.014749596
135	0xbd9673aa	-0.0734628
136	0x3d9240ee	0.071412906
137	0x3d728015	0.05920418
138	0xbd78b522	-0.060719617
139	0xbd39a551	-0.045323674
140	0x3ccc1243	0.024911052
141	0x3d8df1ba	0.06930871
142	0x3daafbb1	0.083487876
143	0x3d9824c4	0.074288875
144	0x3d5290a6	0.05140748
145	0x3d2b709e	0.041855447
146	0x3d83cf54	0.06436029
147	0x3d5f4c22	0.054515965
148	0xbc2fbd97	-0.010726354
149	0x3daeb386	0.08530335
150	0xbd2ce663	-0.0422119
151	0x3d798982	0.060922153
152	0x3b7516bf	0.003739759
153	0xbcde8416	-0.027162593
154	0xbd373258	-0.044725746
155	0x3cf8efd3	0.030387795
156	0xbdb403c8	-0.08789784
157	0x3d0026c8	0.031286985
158	0x3d452ed0	0.048140347
159	0xbdaf6b06	-0.08565335
160	0xbd544685	-0.051825065
161	0xbd48aa55	-0.048990566
162	0xbda4122a	-0.08011277
163	0xbcdb51d4	-0.026772417
164	0xbbc29ab5	-0.0059388527
165	0x3d8afbcd	0.067863084
166	0x3c3554ca	0.011067579
167	0xbcf53bbe	-0.029935714
168	0xbd8821cc	-0.06647071
169	0x3d93b49c	0.07212183
170	0x3b83d516	0.0040232046
171	0xbd2924d7	-0.0412949
172	0x3bb65636	0.0055644764
173	0xbc655b20	-0.013998777
174	0x3b756944	0.0037446776
175	0x3b1b21ff	0.0023671386
176	0xbcdbbb65	-0.026822755
177	0xbd22370b	-0.039603274
178	0x3d2d9486	0.04237797
179	0x3d1237c4	0.035697713
180	0x3a464bc6	0.00075643917
181	0x3d36784d	0.04454832
182	0x3d6f5b75	0.05843683
183	0x3d8942d0	0.067021966
184	0xbd77067f	-0.06030893
185	0x3c3f3d7b	0.011672373
186	0x3d64908d	0.055801917
187	0x3d7cfe53	0.06176598
188	0x3d142a09	0.0361729
189	0xbd14b5ca	-0.03630618
190	0xbd05d910	-0.03267771
191	0x3dc7f9cb	0.09764441
192	0xbd47ac21	-0.04874814
193	0x3d9fe1ab	0.078067146
194	0xbc26a93e	-0.010172186
195	0xbd52f451	-0.05150253
196	0xbdae07d5	-0.084975876
197	0xbcaa994f	-0.020825056
198	0x3c6b70f9	0.0143701965
199	0x3d719ee2	0.058989413
200	0xbd70b3a6	-0.058765076
201	0x3d109b53	0.03530438
202	0xbd11d41b	-0.03560267
203	0x3d19af1c	0.037520513
204	0xbd34be4f	-0.044126805
205	0x3c738a27	0.014864481
206	0x3db57639	0.0886044
207	0xbd336849	-0.043800626
208	0x3d5ed5b2	0.054403014
209	0xbda4b767	-0.08042794
210	0x3ca5a89d	0.020222003
211	0x3c9c602c	0.019088827
212	0xbd8f0bfb	-0.06984707
213	0x3d9172d0	0.07101977
214	0x3d4a2857	0.049354877
215	0xbd9a6d8a	-0.07540424
216	0x3c20e6db	0.009820665
217	0x3d65f693	0.056143355
218	0x3bd14c19	0.0063872454
219	0x3d852ae4	0.06502321
220	0xbd936cb2	-0.07198466
221	0x3d92d163	0.071688436
222	0xbd4d1314	-0.050067022
223	0xbd960a4a	-0.07326181
224	0xbda5d8c0	-0.080979824
225	0x3d1cdeb9	0.038298342
226	0xbdb6bf0f	-0.0892316
227	0xbd83b9b9	-0.06431908
228	0xbd39833c	-0.04529117
229	0xbdaa4f29	-0.0831588
230	0x3da165d6	0.07880752
231	0xbcfbb67d	-0.030726666
232	0xbb9ca706	-0.004780653
233	0x3d6b80cf	0.05749589
234	0x3d9a7f50	0.07543814
235	0xbd2da99d	-0.042398084
236	0xbd85bf2f	-0.06530606
237	0xbd0afcc0	-0.033932447
238	0x3bed43ee	0.007240764
239	0x3d842e5e	0.06454156
240	0xbcc5b793	-0.024135387
241	0xbc98b4b9	-0.018640863
242	0x3cea8efa	0.02863263
243	0x3caf9f55	0.02143828
244	0x3d966b2c	0.0734466
245	0x3ca6c130	0.02035579
246	0xbc71286f	-0.014719113
247	0xbd123d10	-0.035702765
248	0x3cbaa625	0.022784302
249	0xbd0eb6ab	-0.034842175
250	0xbd12917d	-0.03578328
251	0x3b94e42d	0.0045438022
252	0x3d8b1dbc	0.06792781
253	0x3db25642	0.087078586
254	0xbc6a226f	-0.014290436
255	0x3c321d9d	0.010871318

bias f4 [128]
0	0x3d9c0237	0.0761761
1	0x3d19e570	0.037572324
2	0x3cf95690	0.030436784
3	0xbdbff365	-0.09372596
4	0x3be3b043	0.0069485023
5	0x3dac63ec	0.08417496
6	0x3da907b5	0.08253423
7	0xbda66675	-0.08125011
8	0xbd758e25	-0.059950013
9	0xbcd414dc	-0.025888853
10	0x3cbc30d5	0.022972504
11	0x3d6db53a	0.05803416
12	0xbd865ba8	-0.06560451
13	0x3d114722	0.03546823
14	0xbd61be23	-0.05511297
15	0xbc47af81	-0.0121878395
16	0x3db2728d	0.08713255
17	0x3b75ef5c	0.0037526703
18	0xbd0dc993	-0.034616064
19	0xbc335402	-0.010945322
20	0x3cf0fe47	0.029418124
21	0x3d3746e0	0.044745326
22	0xbc84f2c0	-0.016229033
23	0x3d4a9412	0.049457617
24	0x3ca8d839	0.020610915
25	0x3cba395d	0.022732431
26	0xbda13159	-0.078707404
27	0x3d88c15a	0.06677504
28	0x3da98750	0.08277762
29	0xbd77b51c	-0.060475454
30	0xbd2da370	-0.042392194
31	0xbd8b84fa	-0.06812473
32	0xbc55fd2d	-0.01306085
33	0xbd8ea2ef	-0.06964671
34	0x3cf49a18	0.029858634
35	0x3cf92d9e	0.03041726
36	0x3d9d59b6	0.07683127
37	0x3bc57c01	0.0060267453
38	0x3d44d81b	0.048057657
39	0xbd8b4565	-0.06800345
40	0xbcc7366d	-0.024317944
41	0x3a25a08c	0.0006318174
42	0x3bcdddfd	0.0062825666
43	0xbd613035	-0.054977614
44	0x3d248c10	0.040172637
45	0x3d05e8cf	0.032692727
46	0x3d83e163	0.064394735
47	0x3d59bc04	0.05315782
48	0xba7f8665	-0.00097475044
49	0x3d9f94d5	0.07792059
50	0xbb25cd54	-0.0025299387
51	0xbbf0a165	-0.0073434585
52	0x3c5e2c5d	0.013560382
53	0x3da4110c	0.08011064
54	0xbbb8c4fd	-0.005638717
55	0x3d9d6197	0.076846294
56	0x3d8508c7	0.06495815
57	0x3d5129ef	0.05106538
58	0xbd41634f	-0.04721385
59	0xbc0e64a5	-0.008690988
60	0xbd1d386d	-0.03838389
61	0xbd8805ec	-0.066417545
62	0x3d9262a1	0.07147718
63	0x3cae7e59	0.021300482
64	0xbc3e2a8b	-0.011606823
65	0x3d627ab7	0.05529281
66	0xbd898a74	-0.06715861
67	0x3cd8f77c	0.026485197
68	0xbd6c96ce	-0.057761006
69	0xbc198679	-0.00937044
70	0xbc89ff04	-0.016845234
71	0xbc2e6cfd	-0.010646102
72	0x3d142735	0.036170203
73	0xbd19e904	-0.037575737
74	0x3d8a8298	0.0676319
75	0x3dcf539f	0.10123371
76	0x3c376755	0.01119407
77	0x3d493a77	0.049128022
78	0x3d09340b	0.033496898
79	0xbdab6c9a	-0.083703235
80	0x3d601ce5	0.054715056
81	0xbdbb202d	-0.091369964
82	0xbac90f0a	-0.0015339565
83	0xbc4b94d7	-0.012425623
84	0x3d7e73e4	0.06212224
85	0xbd4ad8ef	-0.04952329
86	0x3c99a984	0.01875759
87	0x3b857667	0.0040729525
88	0xbd476f4a	-0.048690118
89	0xbbef120e	-0.0072958535
90	0xbd2e15cd	-0.04250126
91	0xbd55659a	-0.052098848
92	0xbaa40085	-0.0012512362
93	0x3bc46c4e	0.0059943562
94	0xbcbf70e4	-0.02336926
95	0x3c444663	0.011979672
96	0x3d096b63	0.033549678
97	0xbd2ea73f	-0.042639967
98	0x3b5157ab	0.0031943123
99	0x3d963099	0.07333488
100	0xbdb10f09	-0.08645446
101	0xbcc7be2e	-0.024382677
102	0xbd06c0a6	-0.032898568
103	0xbd81eaad	-0.06343589
104	0x3d781bb4	0.060573295
105	0x3d34a5c8	0.044103414
106	0xbcfb6822	-0.030689303
107	0xbda765d6	-0.081737205
108	0xbca52b8b	-0.020162364
109	0xbdaeebd1	-0.08541072
110	0xbc1c176f	-0.009527071
111	0xbd966770	-0.07343948
112	0xbc5bc675	-0.013414015
113	0xbd864989	-0.065569945
114	0x3d9deb9c	0.077109545
115	0x3d91e8c0	0.07124472
116	0xbd1f5bf4	-0.038906053
117	0xbd87ce5f	-0.06631159
118	0xbda40486	-0.08008675
119	0xbdae5274	-0.085118204
120	0xbba597b6	-0.0050534857
121	0xbc43af3f	-0.011943637
122	0xbcd400cb	-0.025879284
123	0xbda0ba90	-0.07848084
124	0x3d7473a0	0.05968058
125	0x3d43aa6d	0.047769953
126	0x3d6136f4	0.054984048
127	0x3d547bd3	0.0518759

weight f4 [2, 128]
0	0xbd8a487e	-0.06752108
1	0x3dcb5293	0.09927859
2	0xbd475655	-0.048666317
3	0x3d384cc6	0.04499509
4	0x3be4d03d	0.0069828318
5	0x3aeb1b5e	0.0017937233
6	0xbd990f54	-0.07473627
7	0x3d092fb3	0.033492755
8	0x3da92896	0.08259694
9	0x3d18a2fe	0.037264816
10	0xbdcf9ae8	-0.10136968
11	0x3d374e0f	0.044752177
12	0x3d421f51	0.047393147
13	0x3db7e503	0.089792274
14	0x3d6b94c2	0.057514913
15	0x3d8c4317	0.06848734
16	0x3db23d06	0.087030455
17	0xbd10fe9d	-0.03539907
18	0xbd67a7b6	-0.056556426
19	0x3d80613b	0.06268545
20	0x3dc885cd	0.097911455
21	0x3d7e5384	0.062091365
22	0x3b56b3f3	0.0032761067
23	0xbcc32766	-0.023822498
24	0xbcd1e8d4	-0.025623716
25	0x3db63df2	0.08898534
26	0x3c9c99c8	0.019116297
27	0xbcf946a4	-0.030429192
28	0xbd817c03	-0.063224815
29	0xbce820b5	-0.028335908
30	0xbcfdbefd	-0.03097486
31	0xbdd71355	-0.10501734
32	0x3d45a38f	0.048251685
33	0x3c9c1eeb	0.019057712
34	0xbda86dd2	-0.082240716
35	0xbdc136bc	-0.09434268
36	0x3c383f11	0.011245505
37	0x3bd78df0	0.0065781996
38	0xbd9700ed	-0.073732235
39	0xbd4938ed	-0.049126554
40	0x3c22d054	0.009937365
41	0xbc49a450	-0.012307242
42	0xbcbda66e	-0.023150649
43	0x3d7bcf33	0.061476897
44	0xbdc0b175	-0.09408847
45	0xbd3afa85	-0.04564907
46	0xbc28812b	-0.010284702
47	0xbdd31a9c	-0.1030781
48	0x3d1537d1	0.036430184
49	0xbc07f6b8	-0.008298568
50	0xbc479664	-0.012181852
51	0xbcc1b677	-0.023646576
52	0x3dd2ea3b	0.10298582
53	0xbd432d6d	-0.047650743
54	0xbd45a72c	-0.04825513
55	0x3d451c82	0.04812289
56	0x3d18ff2e	0.037352733
57	0xbd0adf23	-0.033904206
58	0xbd01725d	-0.031603206
59	0xbc8ea480	-0.017412424
60	0xbd245f00	-0.04012966
61	0xbaa883a7	-0.0012856618
62	0xbda2f801	-0.07957459
63	0xbdbb8794	-0.09156719
64	0x3d811bed	0.063041545
65	0x3c025456	0.007954678
66	0xbb75493e	-0.003742769
67	0xbcf22d51	-0.029562624
68	0xbd93e490	-0.07221329
69	0xbd5c38df	-0.053765174
70	0xbdbd379e	-0.09239124
71	0x3d0384d2	0.03210909
72	0xbd34e6f1	-0.044165555
73	0x3d41e247	0.047334936
74	0x3c3bc83f	0.011461317
75	0xbd9e145a	-0.077187255
76	0xbc663a86	-0.014052039
77	0x3cc1b6aa	0.023646671
78	0x3dad15d5	0.0845143
79	0xbbc0d8ba	-0.005885211
80	0x3d4d5afb	0.050135594
81	0xbbf76874	-0.0075502936
82	0xbc48553d	-0.012227354
83	0xbb0ae70b	-0.0021194841
84	0x3c8960ad	0.016769731
85	0xbd1825b0	-0.037145317
86	0xbb7cdba2	-0.003858306
87	0x3d50a23b	0.050935965
88	0xbd2b1818	-0.041771024
89	0xbd201556	-0.039082848
90	0x3cdff6fb	0.02733945
91	0xbdbf6f3c	-0.09347388
92	0x3ad11b52	0.0015953577
93	0x3d9c28e9	0.076249905
94	0x3b8176ec	0.003950944
95	0x3d3c6b5d	0.046000827
96	0xbb9d9448	-0.0048089363
97	0x3da20d63	0.079127096
98	0xbdcfa9c3	-0.10139801
99	0x3d4f177d	0.05055951
100	0x3d1c437d	0.0381503
101	0xbd23a14c	-0.039948747
102	0x3c1fa23f	0.009743272
103	0xbcbfa7e6	-0.02339549
104	0x3d783efd	0.060606945
105	0xbd8f9ea5	-0.07012681
106	0x3dc3673a	0.09541173
107	0xbda79ebf	-0.08184575
108	0xbd917206	-0.07101826
109	0x3d2a5d3a	0.041592814
110	0xbd8ab83c	-0.06773421
111	0xbd018bc1	-0.03162742
112	0xbd867004	-0.06564334
113	0xbcc9547a	-0.024576414
114	0xbbcc36e4	-0.0062321294
115	0xbdb05489	-0.08609874
116	0x3db2ae86	0.08724694
117	0xbc930d11	-0.017950566
118	0xbc9c8fd4	-0.019111551
119	0xbd09db22	-0.033656247
120	0xbcce3e76	-0.025176268
121	0xbc71ca4e	-0.014757706
122	0x3db71943	0.08940365
123	0xbd61ea4f	-0.055155095
124	0x3c6717be	0.014104782
125	0xbb702ccc	-0.0036647795
126	0xbd8b3870	-0.06797874
127	0xbd580b16	-0.052744947
128	0xbcf1a071	-0.02949545
129	0xbca75331	-0.020425411
130	0xbd15c0c8	-0.036560804
131	0x3d3c573c	0.04598163
132	0xbd6a7da3	-0.057248723
133	0x3d376995	0.044778425
134	0x3da67470	0.081276774
135	0xbc478515	-0.012177725
136	0x3c83d785	0.016093979
137	0xbdc414be	-0.09574269
138	0x3dcb1698	0.09916419
139	0xbdcab823	-0.098984025
140	0x3da6a5d4	0.08137098
141	0xbd8c37cb	-0.06846579
142	0xbdb2de71	-0.087338336
143	0xbd003257	-0.031298008
144	0xbc0ef042	-0.008724274
145	0xbd9a4e74	-0.07534495
146	0xbbc54285	-0.0060198926
147	0xbd456d22	-0.04819978
148	0xbd73d5a5	-0.05952992
149	0xbd5be2c4	-0.053683057
150	0xbcceaef4	-0.025229909
151	0x3cbafce6	0.02282567
152	0x3d9c281d	0.076248385
153	0xbc87f4d0	-0.016596228
154	0xbb4bba7f	-0.0031086502
155	0xb9241f45	-0.00015651908
156	0x3d8e6722	0.06953265
157	0x3c13cee0	0.009021491
158	0x3da9c842	0.08290149
159	0xbcc21cc0	-0.02369535
160	0x3dd656ca	0.104657724
161	0x3d6baadd	0.057535995
162	0x3d85a96e	0.06526457
163	0x3dabf5b3	0.08396473
164	0x3d9180b3	0.071046256
165	0xbd94d9e6	-0.07268123
166	0x3c3dccbc	0.011584457
167	0x3dc35ff9	0.0953979
168	0xbdd783d6	-0.105231926
169	0x3d8cfa76	0.06883709
170	0xbdd14cf6	-0.10219757
171	0x3da2aff6	0.07943718
172	0x3b790613	0.0037998005
173	0xbda77509	-0.081766196
174	0xbd755e46	-0.05990436
175	0xbcc85e2a	-0.024458963
176	0x3d064944	0.032784715
177	0xbda52025	-0.08062772
178	0xbdd578d5	-0.104234375
179	0xbcd2dfad	-0.025741423
180	0x3a65c2be	0.00087646756
181	0x3d08266c	0.033239767
182	0x3c878f36	0.01654778
183	0xbdbaaef4	-0.09115401
184	0xbd894ae3	-0.06703737
185	0x3dbe6a8c	0.09297666
186	0xbd6a4862	-0.057197936
187	0xbdafc271	-0.08582009
188	0xbd1990e5	-0.037491698
189	0xbbfa2598	-0.007633876
190	0x3c73d5bd	0.014882502
191	0x3db8bb29	0.09020073
192	0xbdbd1a35	-0.09233514
193	0xbd8f1585	-0.069865264
194	0xbda64ee4	-0.08120516
195	0x3d25b413	0.040454935
196	0xbd2d09c7	-0.042245653
197	0xbd899750	-0.06718314
198	0x3cf0ac63	0.029379075
199	0xbd22dd56	-0.039761864
200	0xbdcc6adb	-0.099813186
201	0xbd00d59b	-0.03145371
202	0xbd9c5a3a	-0.07634397
203	0x3db3ed34	0.08785477
204	0xbd8dce9b	-0.069241725
205	0x3c7532f0	0.014965758
206	0x3cbf19ca	0.023327727
207	0x3da6fd9b	0.0815384
208	0xbcacef8f	-0.021110324
209	0x3d9a917a	0.07547279
210	0x3d1b5a5f	0.03792798
211	0x3daa80ae	0.08325325
212	0xbd88e102	-0.06683542
213	0x3d05ac6d	0.03263514
214	0xbd7d2845	-0.061805982
215	0xbda97e93	-0.08276095
216	0x3d18a4ae	0.037266426
217	0xbbbf2625	-0.0058334046
218	0x3bf8a226	0.007587689
219	0x3d94eb50	0.07271445
220	0xbd9b5251	-0.0758406
221	0xbd171b23	-0.036891114
222	0xbda5507b	-0.08071991
223	0xbd810323	-0.062994264
224	0x3d66e691	0.05637223
225	0xbdab9e7b	-0.08379837
226	0x3d354b7e	0.044261448
227	0x3d5df23f	0.054186102
228	0x3cfd4784	0.03091789
229	0x3d81cd57	0.063379936
230	0x3c44c77a	0.01201045
231	0xbd8eba30	-0.06969106
232	0x3d08d9d8	0.033410877
233	0xbd51bb7e	-0.051204197
234	0xbc650aa0	-0.013979584
235	0xba7ac836	-0.0009566577
236	0x3c929420	0.017892897
237	0x3d5daca1	0.05411971
238	0x3cb0ed3f	0.021597503
239	0xbd09e9a4	-0.033670083
240	0xbd01b88c	-0.03167014
241	0xbd968b56	-0.07350795
242	0xbd86ce61	-0.065823324
243	0xbbf8e737	-0.0075959223
244	0x3d5e6302	0.05429364
245	0x3dbfe9f6	0.093707964
246	0xbda021e1	-0.07818962
247	0x3ce335b3	0.027735567
248	0xbd106032	-0.03524799
249	0x3d6a4e29	0.057203446
250	0x3d3cb0a4	0.046066895
251	0xbd3e7087	-0.046494033
252	0x3d997668	0.07493287
253	0xbd90f009	-0.07077033
254	0xbd653463	-0.055958163
255	0xbd1405c6	-0.03613832

bias f4 [2]
0	0x3ce7e64d	0.028308058
1	0x3d33aeba	0.043867804
