save_model/postag/models/NeuralNetTorch/net.params (torch, 225927 bytes, 10 tensors)

weight f4 [128, 41]
00000000: a4c5 c4bc 0390 eb3d b096 02be a8ff 00be
00000010: 4f8f 80bd d8fa 59ba b51a 03bb 2290 213e
00000020: ec18 9639 0447 133d 44c3 d1bd 12db c0bc
00000030: bdd2 eebd 1701 e2bd 94f1 9dbd 0af8 0a3d
00000040: b76b a13c aa02 b93d 624c e4bd 9e49 eabc
00000050: e331 933d 91df 1e3e ea96 c1bc 6feb 0d3e
00000060: 0ade 57bd 12d7 b93c b5cf 1e3e 8706 41be
00000070: 5c2d b8bd 4d2e b3bd 4318 40bd 4187 ec3d
00000080: 88c8 b0bd e8b1 b8bd 06f1 cfbd c4de 1cbe
00000090: 2ea3 aabd f8db e63d 7a23 8b3d cad1 af3d
000000a0: 222c 31bc 665b 6dbd 9c6d a83c d905 22be
000000b0: ed64 d6bd 080d c5bd a46d ca3d b768 b23d
000000c0: f42b c1bd 75c0 66bc 201e a63d 5595 163e
000000d0: d507 5e3d 59c3 283c b92c c13d 34ac b1bd
000000e0: 5386 bdbb e2ad ffbd a254 05be 5cf6 a7bd
000000f0: 4ad4 c23d 8608 7a3d eb8b dcbd 299a 533d
00000100: 691b a13d 7f36 e1bc ac87 56bc a5fc f93c
00000110: 0832 bc3d 2136 063e 4f3c c7bd 96a0 54bd
00000120: d5c1 473d dbff e33d c7ea 153e e80b 013e
00000130: dc34 fd3c fe0b 14be 28fe 19bb afcf dcbd
00000140: 042e 20be 5624 113e d7a8 a03d cd1c 14be
00000150: 60d1 fd3c 8d8b 0fbd 31bb 10bd 35c8 eebd
00000160: b48e 563d 60a5 35bd fd2d 973d 01a7 b93d
00000170: ecf0 ea3d 887d 853d a16b 0abe 71d6 dbbd
00000180: b789 b43d c339 563d b093 d2bd fe72 c1bd
00000190: 45b4 113e cb80 083e 45cd 85bd c48b bdbc
000001a0: 52f2 ffbd 556e b53c 0a9e fcbd fccd ddbd
000001b0: 5eeb 33bb 5d20 3f3c 43fe 1abd fb25 803d
000001c0: 0ada d0bd 74c8 063e 833f d93d fd8e 22be
000001d0: 97cc 1ebd 2c3a 303c 8eb3 8b3d a79f 283d
000001e0: b9e4 5c3d 1736 513c 2324 8cbd 80e8 9b3d
000001f0: 11b8 0bbe 4412 b2bd 3e28 ca3b 801f 8dbd
00000200: 6820 1fbc f8af debd e6f8 3dbd 36ad 353d
00000210: 9aec 95bd 4a00 9c3c d2d9 f53d 3008 ec3b
00000220: 574f df3c 04af 46bc 2df5 463c d64b c93d
00000230: c348 1b3e d86e bc3d c289 1f3e 86d6 41bc
00000240: 0eb9 07be 2cbc 6abd d516 dc3d 2fdd 143d
00000250: 23de 67bd 61ae e6bd 28d7 06be 574f 01be
00000260: d122 ec3c cb08 d83d 768a e03d abcc 0fbe
00000270: b9ab f23d e117 dcbd 82a0 c7bb 8f61 94bd
00000280: fded b7bc 63e6 8fbc cabf 06be 5416 eebd
00000290: cf48 5ebd 7970 8d3c 1ee4 58bd 3448 3a3d
000002a0: 6cd8 08be ba1a 2bbd e856 163e fdfe 6abc
000002b0: 31ad 173e 89a0 383d 4256 16be c8fa 073e
000002c0: 74d4 1e3a e1a2 6fbd c42c 193e a9af c3bd
000002d0: 6de7 933c b2e8 f7bb ba7d f43d d8b4 953d
000002e0: d789 c33d b4d1 973d 1471 fbbc 4c60 5dbc
000002f0: 14fa 03be 0ce0 be3d bf88 133e 63da df3d
00000300: 5b07 d8bd 5067 eabc 036a e7bd bd86 a5bd
00000310: a21c b2bd e72b 013d 77bc a7bd 9bcd 4dbc
00000320: 9aed 1f3d 92d7 f33d 4d6c cfbd aef9 bbbd
00000330: 0b10 b5bd 1ee4 b73d 7016 78bd ddb5 113e
00000340: 5287 1e3d 31f4 d43a 326f 953c ffb9 05bd
00000350: 83a5 2a3d 8009 6bbd 49ff e5bc bdf4 e03c
00000360: a971 09be 77a3 9dbd d2e8 c43d 9e92 11be
00000370: 6480 563c c471 343e 3244 1c3d ac32 5dbc
00000380: 1858 0ebe 70a5 883d d044 17be 6a5d 51bd
00000390: a1df 35bd 9562 94bc cdc5 1bbc ca5b 923d
000003a0: 2240 81bc a1ef cb3d 94dc 6f3d 4a1a c6bd
000003b0: 0ecc 643d 418e 04be 9070 ebbd a409 4c3d
000003c0: 0041 813d 32ff 463e 9cea 64bd e163 57bc
000003d0: 4545 5b3d 2eb1 47be 1239 973d c997 f6bd
000003e0: 4f10 b2ba 7271 64ba 8930 aebd 2cde 293d
000003f0: 210c 1c3e c93f c0bd 9e56 8bbd cad4 1fbd
-0.024020024 0.115020774 -0.12752795 -0.12597525 -0.06277334 -0.00083152717 -0.0020004932 0.15777639
0.00028628798 0.035956398 -0.10242322 -0.02354196 -0.11661289 -0.11035364 -0.07712093 0.033927955
0.019704683 0.09033711 -0.11147381 -0.028599557 0.071872495 0.15514971 -0.023631532 0.13859342
-0.052701987 0.022685561 0.15508921 -0.18850146 -0.089930266 -0.087490655 -0.046898138 0.11549235
-0.08631998 -0.09018308 -0.101533934 -0.15319353 -0.08331905 0.112724245 0.06793876 0.08584936
-0.010813745 -0.057948492 0.020560078 -0.15822543 -0.10468469 -0.09621626 0.098841935 0.08711379
-0.094322115 -0.014083971 0.08111215 0.14705403 0.054206688 0.010300481 0.09432358 -0.08675423
-0.005783835 -0.124843374 -0.13020566 -0.08201286 0.09513147 0.061043285 -0.10768875 0.05166069
0.07866556 -0.027491806 -0.01309387 0.030515978 0.0918923 0.13106586 -0.097283 -0.05191096
0.048768837 0.11132785 0.14640342 0.12602198 0.030908994 -0.144577 -0.0023497436 -0.107818
-0.15642554 0.14174017 0.07844704 -0.14464112 0.030983627 -0.035045195 -0.03533477 -0.1165928
0.052382186 -0.044347167 0.073818184 0.090650566 0.114717335 0.06518084 -0.1351762 -0.10734261
0.088153295 0.05230118 -0.102820754 -0.09445761 0.14228924 0.1333038 -0.06533293 -0.023137935
-0.12497391 0.022147337 -0.12334831 -0.10830304 -0.0027453522 0.011665431 -0.03784014 0.06257244
-0.10197838 0.13162404 0.10607817 -0.15874858 -0.03876933 0.010756057 0.06821357 0.04116788
0.053929064 0.012769244 -0.0684283 0.07612705 -0.13644435 -0.0869489 0.006169348 -0.06890774
-0.009712316 -0.10873407 -0.046379946 0.04435464 -0.07320519 0.019043107 0.120044366 0.0072031245
0.027259512 -0.012126688 0.012143415 0.09828918 0.15164475 0.09200829 0.15579894 -0.0118309315
-0.13254187 -0.05730836 0.10746542 0.03634375 -0.05660833 -0.11263729 -0.13168013 -0.12627922
0.028825196 0.10548552 0.10963909 -0.14042918 0.1184916 -0.10746742 -0.006092132 -0.0724517
-0.022452349 -0.017565912 -0.13159099 -0.116253525 -0.054268654 0.017265545 -0.052951925 0.045479015
-0.13363808 -0.041773535 0.1468159 -0.0143430205 0.14812161 0.045074973 -0.14681342 0.13279259
0.00060588797 -0.058504943 0.14958483 -0.09554989 0.018054688 -0.0075655812 0.11938043 0.07309884
0.09547775 0.074130446 -0.030693568 -0.0135117285 -0.12888366 0.09320077 0.14407633 0.10930326
-0.10548278 -0.028613716 -0.11299517 -0.0808234 -0.086968675 0.03153601 -0.08190244 -0.012561227
0.039044954 0.11906351 -0.101280786 -0.09178482 -0.088409506 0.08979057 -0.060568273 0.14229532
0.03870327 0.0016247091 0.018241499 -0.032648083 0.04166175 -0.057382107 -0.028075831 0.02746045
-0.13422264 -0.07697194 0.096147195 -0.14216086 0.013092134 0.17621523 0.038150974 -0.013500851
-0.13900793 0.0667218 -0.14772344 -0.051114477 -0.044402722 -0.018113414 -0.009507609 0.071464136
-0.015777651 0.09957815 0.05855997 -0.09672983 0.055858664 -0.1294489 -0.11496079 0.04981388
0.06311226 0.19433287 -0.055887803 -0.013146372 0.053532857 -0.19501182 0.07383932 -0.120406695
-0.0013585183 -0.00087144144 -0.08505351 0.041471645 0.15239002 -0.09387166 -0.0680363 -0.03902129

bias f4 [128]
00000000: 5fce 1cbe 160c 383d 34e2 fdbd 5e79 65bd
00000010: f619 acbd 9b1b 863c b5e8 2e3d 2065 b3bd
00000020: 6f93 16bd 2dbb 00bc 098d d4bd 091c 333d
00000030: 8e3f 8d3d f4e7 d8bd 0c67 f53d 961f d43d
00000040: f001 4fbd acab 033d 2ed8 883c 3b98 f5bc
00000050: 5834 c9bd 4d0c 013e 4472 a33d 52e6 14be
00000060: 49a7 00be 05d3 1d3e 1c6c 093d 88b3 34bd
00000070: 25a5 c73d 7c17 2c3d 4787 9d3d 0f6d ea3d
00000080: 31af a9bc f932 333e 47e1 ebbd cf59 d4bd
00000090: d3e4 bf3c 54cf 9f3b 7828 a83d eefe e9bc
000000a0: dcc2 063c 4b27 31bd c257 ea3d ceea 02bb
000000b0: 8d73 1ab9 9c66 ed3d 2daa 163e 27ca 0d3e
000000c0: 41eb 21be 4926 b1bd 09f9 24bd ea5d 18bd
000000d0: 65da ad3d e4d6 853d 2f22 8b3b 0b5b a63c
000000e0: 4c44 353d 224d 163e 05a9 853d e97c 84bd
000000f0: b11f a8bd 05d3 343d edaf babc 2e59 c9bd
00000100: f976 fabd 06c2 723c 04f2 68bd d94f 9dbd
00000110: f7b1 db3c cbb5 1e3e 24da 0e3e ff77 d43d
00000120: f1ea fdbd a7d2 bf3d 5169 053e 342c 5b3d
00000130: 2dc3 48bd d097 0bbc 7cd7 b8bd f150 38bd
00000140: 8349 33bc 5ec3 5ebc c162 1cbe 5fbd aa3d
00000150: 9c80 12be c6ee 0cbe 6018 633d d90a 10be
00000160: 3009 173e 4965 163e 298f 37bd c459 a5bc
00000170: 8131 e9bd e7df 923c d47a 3e3d a666 a8bd
00000180: bb73 253d 69bd 97b9 45dc 45bd 10d9 383c
00000190: 9a98 14be 589b d7bd f78e 653c 782d 143e
000001a0: 9e25 cfbd 007c c93d f0e9 013d 21db a4bd
000001b0: 3ef8 c43b bb7f a53d cd1c 8e3b 4d16 013e
000001c0: 438d c13c 5cce d1bd 225b 0c3e bc90 4bbd
000001d0: 1336 523d aad9 d63d 7c84 153d f219 14be
000001e0: e956 16be 56bf 863d b94b f03c 3c5c d23d
000001f0: 97e7 0bbe 7b15 3abc 214a 1b3e b889 8c3d
-0.153131 0.0449334 -0.123966604 -0.056023948 -0.08403389 0.016370585 0.042702395 -0.087595224
-0.036761697 -0.007857126 -0.10378463 0.04372791 0.06896888 -0.105911165 0.11982545 0.10357587
-0.050538957 0.03214614 0.016704645 -0.029979816 -0.09824437 0.12602349 0.07980779 -0.14540985
-0.12563814 0.15412529 0.033550367 -0.044116527 0.09748296 0.042014584 0.07691818 0.114465825
-0.02071342 0.17499913 -0.115175776 -0.10368692 0.023424542 0.0048770104 0.08210844 -0.028563943
0.008225169 -0.043250363 0.1144252 -0.001997638 -0.0001472963 0.11591837 0.14713354 0.13846646
-0.15812398 -0.086498804 -0.04027656 -0.03719894 0.08488921 0.06535128 0.0042460184 0.020307085
0.044254586 0.14677861 0.065263785 -0.06469137 -0.0820917 0.044146556 -0.022788966 -0.09831463
-0.122297235 0.014816767 -0.05687143 -0.07681245 0.026818259 0.15499036 0.13950402 0.1037445
-0.12398327 0.093663506 0.13028456 0.053508952 -0.04901426 -0.008520082 -0.090254754 -0.044999067
-0.0109428195 -0.013596384 -0.15272047 0.08336901 -0.14306873 -0.1376296 0.055443168 -0.14066638
0.14749599 0.14687075 -0.044814263 -0.020184405 -0.11386395 0.01792903 0.046503857 -0.08222704
0.040393572 -0.00028942086 -0.04830577 0.0112822205 -0.14511338 -0.10527676 0.014011136 0.1447047
-0.10114597 0.09838104 0.03171724 -0.08049608 0.006011038 0.08081003 0.0043369294 0.12606163
0.02362693 -0.10244438 0.1370664 -0.049698576 0.0513211 0.10490735 0.0365033 -0.14463022
-0.14681591 0.06579463 0.029332982 0.102714986 -0.13662563 -0.01135766 0.15164997 0.06862205

weight f4 [128, 128]
00000000: 3a79 c13d e17e 3b3d 4ec3 8abc 207a 40bd
00000010: b54b 11bd 4f5d 9f3d bd1e e7bc 2683 4f3d
00000020: bc94 f93b 5aa8 ae3c cc34 6d3d da87 4d3d
00000030: 8ab5 3e3d edc8 8a3d 3d0f 39bd 7000 c5bc
00000040: 2000 83bd 91e7 0dbd a6d7 ec3d 6df0 013c
00000050: 4031 f33c 7a1d d3bc ebdc b43c 8a7e 27bd
00000060: bcbb fd3b 111b 7abd 6d73 b6bc 251d a13d
00000070: 48a7 86bd e978 193c fd4a 7e3d efd7 a2bd
00000080: e1b0 9c3d 28cf 823d c487 983d d55f 99bb
00000090: 0a7c 7a3d 19af 5bbc 71d7 543d 83b6 a13d
000000a0: d554 5ebd 33ad edbc 7a3f a5bd 27d2 c13d
000000b0: a85a 2f3d ab8f d7bc 6c40 26bc 8647 053d
000000c0: 1540 96bd f27e f83c 3511 363d 509a 643d
000000d0: 2d29 c3b9 a6d6 8d3d cf1c 733c 5e9c 56bd
000000e0: 5f24 803d 9632 85bd 8d2b 6a3d eae0 b33d
000000f0: 9556 cc3b 4f41 fdbc 526c 9cbc a95e 6ebd
00000100: d2fe e0bc 8edc 40bd 9ca1 bf3d 5a71 1b3c
00000110: 7121 5c3d cd0a 9bbd 0f5b 8c3d 4064 703c
00000120: a196 bfbc 58d1 cabc c172 e63d 6b3b a2bd
00000130: ef53 62bd 05a4 453d 222a 8a3d b5dd abbc
00000140: d0cd 18bd 8198 b2bd ec6a 85bd 0461 0b3e
00000150: c727 9c3d f7dd 8fbc 5fe2 b4bc c7e7 473c
00000160: e751 663d ab3d abbd 0f41 37bd 9118 9ebc
00000170: 5530 41bd c76d d43c ce2d 813d 82dd 093c
00000180: fe77 8cbd 998a 263d 1a30 ad3d d321 2fb9
00000190: 3f4d 0e3c 6c0b 443d ee4c a83d 54ed 7dbd
000001a0: 19ab 45bd 7db0 3ebd da49 0e3b 3d02 29bd
000001b0: 96a9 f6bd 191a a7bd 0498 9cbc 6032 af3d
000001c0: 8540 f33d bbb7 2c3d 4b33 90bd 1b10 cdbc
000001d0: 35fe 113d 77ed eebd 6fd6 e5bc da28 da3c
000001e0: 2386 913d 0b06 1abc d052 c23d 22a6 2fbb
000001f0: 621f 08bd ad44 aa3d 9cee c73d bec3 92bd
00000200: a3bc a1bd 18e7 5a3d 70f2 44bd 4442 893d
00000210: bd28 23bd 721e 88bd 8f0a c7bb 1d33 203d
00000220: 7896 4fbc 2ef0 c23c 0aa8 7e3d 94f7 87bd
00000230: 1371 58bc f989 87bd adff 86bd 3501 08bb
00000240: 67f8 843d 27a7 8a3d 78f8 e5bd a655 cabc
00000250: 8015 fd3c 2859 603d 78cf 453d 9ee7 23bd
00000260: a00a 1fbc cee8 853c 721b 8cbd 8ac4 3e3d
00000270: 4a55 b8bd d6e5 5b3d 14ff d53b 7970 aebc
00000280: 8e8e 13bd 3c1f 603d dbae 973d 3d83 b53d
00000290: 4751 49bd 947a 783d 16c9 7f3d 181a 41bb
000002a0: a73e 7d3d a58e 21bd eb0a bd3d 6e55 bcbc
000002b0: ca54 9abd a874 c8bc ff24 8e3d a920 debc
000002c0: bdb9 86bc d5ad 9abd 4721 06bd 57d1 fabc
000002d0: ba6a 383d 84ca 5c3b 01cf 123d 562b a73b
000002e0: 6701 8fbd daa4 55bd e0d7 ad3c ff25 85bd
000002f0: bc0d 5b3d 044c 8f3c 02fd f13b 3393 db3b
00000300: be10 d43d d70d a53d 9010 343d 52a4 bdbc
00000310: 2f6d 37bd 0e22 133d 0f29 88bd 7f0c 753d
00000320: 3472 adbd f3ca 003d c23f 86bc f6b2 903d
00000330: 8d63 b13d 7c80 323d de3d 8f3d c6a7 e53c
00000340: 43c1 a73d 50de 433d 5d50 b83c 96ff bfbd
00000350: 5513 56bd ea9f 8bbc 9d38 6b3d 3324 30bd
00000360: b590 fa3c 5d3d c73d 5c7c c83d 16e8 90bd
00000370: fcfb 593d 9760 313d 5ed8 b3bd a19b 913d
00000380: eb28 3cbd d74f 74bd 452d 16bd 6407 40bc
00000390: 087b 0cbd d790 213b 47cf 483d 834a 783c
000003a0: 3926 8b3d d303 b2bc 97de bdbd f392 a0bd
000003b0: b6bf 143b 110b ceba 5896 4a3d 0cbc 33bd
000003c0: 09d8 e5bd 4127 423d 27c0 97bd a360 953c
000003d0: 965b 16bd 6b88 9d3d 5efa a53d 4f35 8dbd
000003e0: 5bf3 3b3d aa53 00bd 4e9d 833d 5602 963d
000003f0: 3ad7 8ebd 9556 003c e0ff 9f3d 876c a63d
0.0944695 0.045775298 -0.016938832 -0.046991467 -0.03547259 0.07781469 -0.0282129 0.050662182
0.0076166075 0.02132051 0.05791168 0.050178386 0.046559848 0.06776605 -0.045180548 -0.02404806
-0.06396508 -0.034644667 0.11564569 0.007930857 0.02968657 -0.025770891 0.022077998 -0.04089216
0.007743327 -0.06106097 -0.022271836 0.07866887 -0.06574875 0.009367206 0.062083233 -0.07951342
0.076509245 0.06387168 0.0744777 -0.0046806135 0.06115345 -0.013408446 0.051963273 0.078961395
-0.05428012 -0.029013252 -0.08068748 0.094639115 0.042811066 -0.026313623 -0.010147195 0.032538913
-0.073364414 0.03033397 0.044450004 0.055811226 -0.00037223977 0.069257066 0.0148384115 -0.052395217
0.06256937 -0.06503789 0.05717044 0.08783133 0.0062359073 -0.03091493 -0.01909462 -0.058195744
-0.027465258 -0.047085337 0.093569964 0.009487474 0.05374283 -0.075704195 0.068533055 0.014672339
-0.023387255 -0.024758026 0.11252356 -0.07921489 -0.055255827 0.048252124 0.067463174 -0.020979742
-0.037305653 -0.08720494 -0.06514534 0.13611227 0.076247744 -0.017561896 -0.022080598 0.012201256
0.056230452 -0.083613716 -0.04473978 -0.019298824 -0.047165234 0.025931252 0.06307565 0.008414628
-0.06858824 0.04065952 0.0845644 -0.00016701901 0.008685409 0.047862455 0.08217798 -0.06199391
-0.048258875 -0.04655503 0.00217115 -0.0412619 -0.12044065 -0.081592746 -0.019115455 0.0855453
0.118775405 0.042167407 -0.07041033 -0.025032094 0.03564282 -0.116663866 -0.028056351 0.026630808
0.07105663 -0.009400855 0.094884515 -0.0026801904 -0.033233054 0.0831388 0.09762308 -0.07166241
-0.07897308 0.053443044 -0.04808277 0.06702092 -0.039833773 -0.06646432 -0.0060742567 0.039111245
-0.012670152 0.023796167 0.062171973 -0.06639019 -0.013210553 -0.06618113 -0.06591735 -0.0020752673
0.064926915 0.06770163 -0.11229032 -0.024699043 0.030894041 0.054772526 0.04829356 -0.04001581
-0.009707123 0.016346361 -0.06841172 0.046574153 -0.090006426 0.053685986 0.006530652 -0.021293866
-0.036024623 0.054717287 0.07406398 0.08862922 -0.049149778 0.060663775 0.06244763 -0.0029465016
0.061827328 -0.039442677 0.09230598 -0.022989955 -0.075357035 -0.024469689 0.0694065 -0.027115183
-0.016445989 -0.07552687 -0.03274658 -0.0306174 0.045023657 0.0033690045 0.035841946 0.0051016016
-0.06982689 -0.052159168 0.021221101 -0.06501388 0.053479895 0.017492302 0.007384897 0.006700897
0.10354756 0.0805928 0.043961108 -0.023149643 -0.04478186 0.03592115 -0.06648456 0.05982637
-0.08469048 0.031443547 -0.016387824 0.07065384 0.08661566 0.043579563 0.06994222 0.028034102
0.081911586 0.047819436 0.022499258 -0.09374921 -0.05226453 -0.017044026 0.057427038 -0.043003272
0.03058658 0.09728501 0.09789345 -0.07075517 0.053218827 0.043305006 -0.08781503 0.07109762
-0.04593746 -0.059646454 -0.036664266 -0.011720512 -0.03429702 0.0024652982 0.0490258 0.015154484
0.067944 -0.02173034 -0.09270971 -0.07840528 0.0022697276 -0.0015719851 0.049459785 -0.043880507
-0.11222846 0.047400717 -0.07409697 0.018234557 -0.036708437 0.07692035 0.081043944 -0.068949334
0.04588638 -0.03132979 0.06426488 0.07324664 -0.06974645 0.007833143 0.07812476 0.08126169

bias f4 [128]
00000000: dd64 2c3d b2cf c03c e185 ab3d 3e16 433d
00000010: 0b68 6bbc 52a0 ad3c 8630 a03d f3f8 013d
00000020: 5f54 b53d 6c81 bd3d 0594 70bd f52b 4fbd
00000030: ba51 a83d e59e aabd c6e2 7c3d 8efc 9abd
00000040: 62fb f2bb 8366 b23c 553b 69bd f9c3 2d3d
00000050: 48db c13c 5f04 96bd 9c6b 8fbd 5082 433c
00000060: e628 9fbd c3b7 07bd e1fc e9bc ef23 0b3d
00000070: 4597 48bd 2f4b 4abd c7d6 fd3c b82b 8ebd
00000080: e23f 683d c88a 9dbb df81 be3c c783 d33c
00000090: 7ea5 2cbd 1260 8e3c 58b4 173d 98b4 833d
000000a0: ddaa d53b da92 273d 0c8f 9dbd 8948 c83c
000000b0: b953 533d adb0 2abd 2d66 7f3d 37e2 d43d
000000c0: 7d77 a3bd 3107 4a3d 8e25 8c3d bdcc a1bd
000000d0: f73e 2bbc bff4 60bd 1b9b a4bd d921 3fbd
000000e0: d8e1 11bd cc13 e6bc 6484 663d 6915 4b3d
000000f0: 75d8 03bd 6335 6ebd 1b04 313c 4031 09bd
00000100: fd10 93bc b450 8e3c d85c 5cbd 6206 003d
00000110: 236c 003d 0a85 80bd 9849 c4bc 4115 3f3d
00000120: 5ea7 8a3d 6439 b43d 71b6 963c 6f91 373c
00000130: 8958 c53d e2ac 6abd e9b4 a3bd 1d7d 8d3d
00000140: 4ffa 51bd 9c5f 893b 56c1 7f3d 7265 36bd
00000150: 4212 653c dd77 bcbc b5c9 e83c 9bb0 3b3d
00000160: 0707 92bb 576f 19bd 8ba4 723d edee 2ebc
00000170: de4e a0bc 6607 a43d a24c 3b3d ade2 7d3d
00000180: eea5 213b d6f0 96bd d143 25bd 70f6 963c
00000190: 486b c23d 3ca5 8dbd b4db 84bd 4fbf 5ebc
000001a0: 09e3 12bd 83f2 b8bd c7f0 e13c 1396 2c3d
000001b0: 7f4b c3bc a7bb 54bd 7290 fb3c 9a11 03bd
000001c0: 0607 893d d30a b93d ea05 63bd d3e5 ebbc
000001d0: 1eb2 80bd d876 27bd 503f cf3a beae a5bd
000001e0: 4cba 643d 4d31 b2bd 3dbd 2b3c 6ada 303d
000001f0: c72f 833c 0b20 6ebd 87d0 c43c 8088 68bd
0.04208838 0.023536537 0.08375145 0.047628634 -0.0143680675 0.02119461 0.07821755 0.031731557
0.08853983 0.09253201 -0.058734912 -0.05057903 0.08218713 -0.08331088 0.061739706 -0.07567702
-0.007415221 0.021777397 -0.05694135 0.042423222 0.023664132 -0.073250525 -0.07002947 0.011932924
-0.07771473 -0.033134233 -0.028562965 0.033969816 -0.048972387 -0.049388107 0.030986203 -0.069419324
0.05670155 -0.004807804 0.023255287 0.025819672 -0.042150013 0.017379794 0.037037224 0.0643093
0.0065206126 0.040911533 -0.076933 0.02444865 0.051593516 -0.041672397 0.0623533 0.103947096
-0.07981775 0.049323265 0.068431005 -0.07900379 -0.010452024 -0.054920908 -0.080373965 -0.04666314
-0.035615772 -0.028085612 0.0562786 0.049580965 -0.03218885 -0.058156382 0.0108042015 -0.033494234
-0.017952437 0.017372467 -0.05379948 0.031256087 0.031353127 -0.06275375 -0.023960873 0.04665113
0.06770204 0.08800009 0.018397542 0.011204108 0.09636027 -0.05729378 -0.0799349 0.06908629
-0.051264104 0.0041923057 0.06244024 -0.04453034 0.013981404 -0.023006374 0.028416494 0.04582272
-0.004456404 -0.037459698 0.05923895 -0.0106770815 -0.019568857 0.08009224 0.04572738 0.061983753
0.0024665552 -0.073701546 -0.040347878 0.018428057 0.094931185 -0.069162816 -0.064872175 -0.013595416
-0.03586105 -0.090306304 0.027580632 0.04213531 -0.02383971 -0.05193677 0.030708525 -0.031999208
0.06690793 0.09035268 -0.055425562 -0.028796112 -0.06283973 -0.040884823 0.0015811715 -0.0808997
0.05584173 -0.0870081 0.01048213 0.043177046 0.016013993 -0.058136027 0.024025215 -0.0567708

weight f4 [128, 128]
00000000: 3f75 4cbd 66fa 5b3d 9096 33bc e5b5 8bbc
00000010: 5ca1 603d f06c 293d c4f3 0c3d 6e68 63bd
00000020: 560c 913d 715a 9a3d 9b88 e1bc 50a0 993d
00000030: 8d2e 6b3c 9343 babd 357d 943b a922 9cbd
00000040: 8583 173d 5173 963d b51d 40bd 9111 3e3d
00000050: ac85 9d3d 0aba a0bd b744 d5bc 3c75 8f3d
00000060: 0e29 fb3c 3513 f83c 400d d4bc f294 6a3d
00000070: ca9a 273c b987 65bd 4f30 abbc 8e92 acbd
00000080: 3684 7fbd 9cc4 ca3b a2b3 803b c9bf debc
00000090: 559c adbd 1e41 d4bc 8424 8b3d 1b52 70ba
000000a0: 0a51 46bd 68bb 8b3d 82ad 813a f1d3 1e3d
000000b0: df89 5dbd bf2e 7cbc b5ec 2d3d 8f56 b93d
000000c0: 9653 613d defe 90bd 7115 babd 29fe 873c
000000d0: adb9 fbbc 686c 8bbc 6424 b63d dd85 7b3c
000000e0: 593d a1bd 53a2 8dbb 5448 36bd 3545 733c
000000f0: 8b0a 88bc c0c9 0d3d 9314 a2bd cd54 6dbb
00000100: 5b1b 3a3d 7bda ad3d a9ba a2bd c5d1 39bd
00000110: 65b1 a8bc 2001 abbd b379 9fbd 3109 8ebd
00000120: dece 903c c112 17bc 849b 19bd 5eb6 6bbd
00000130: d9e2 afbd d420 ecbc c78b 97bd 694e 923d
00000140: c717 98bd 34bf 60bd 2e2a 34bd bca4 9abd
00000150: f1e1 b03d 3997 b53c 1cfa fb3c c587 033c
00000160: ed62 afbc 9e41 173d d4dc a8bd dd73 3ebd
00000170: 4c50 09bd 7c7b 29bd 76b6 b13c dc68 edbc
00000180: 7097 6f3d 78a1 1a3b 7d15 aabd efb0 cebc
00000190: 2384 b53c 309a 983c f0bd 4abd 6747 8b3c
000001a0: a5b5 1b3d 9a12 9c3c 444a 7cbd 9b71 7cbd
000001b0: 51e9 8abd e3ba 38bd dee1 8c3d eb0e 503d
000001c0: 4c6e a4bc 5749 48bd 9e9b 9a3c c83b 9bbd
000001d0: 68cd fe39 2577 8c3d c0b7 31bd 83a0 9ebd
000001e0: 833f 8abd df12 11bd 48db 3f3d 7464 a3bd
000001f0: 89c2 f93b 6f18 8a3d ddf1 a3bd cd30 79bd
00000200: 2ead ad3d 419a 89bd 2c11 e1bc 2e10 753d
00000210: 6e9d dbbc 0507 273d 001b ae3b 087d 9f3d
00000220: 85d8 6c3d ccef c63c ef19 ab3d 6dba ddbb
00000230: 9fed b5bd 41ec 79bd 72b2 be3c 9a31 6f3c
00000240: cfcc c53d 29d3 793d 3d89 2a3d ef4a 343d
00000250: fe50 6fbd fee7 73bd 5dbe b93c 74f4 b5bd
00000260: 1d63 883d e45c 543c 37dc 5c3d 5259 2ebd
00000270: 1dd6 ffbc 8e95 763d dfad b8bd 9074 303d
00000280: 84af 513d 0427 0f3d 11c9 723d 3ff1 8f3d
00000290: e7f1 c13b 5a78 9d3d ae44 253d bc30 a43c
000002a0: 8e9e 023d 9a96 11bc 36d3 903d 50d5 f33c
000002b0: f588 1ebd 156c 97bd 7c37 82bd 13ba cfbd
000002c0: 121c 2e3d 359a 1bbd d938 7b3d bbfc d7bb
000002d0: 2bc7 86bd e002 6dbc 8c74 8b3d 6d92 acbb
000002e0: f155 a33d beb7 6c3d db2c bd3d 41bb a3bd
000002f0: d474 863d 1ee5 33bd 6517 d63d 5384 0dbb
00000300: 9616 9d3d 12e8 0dbd 4510 e1bc 0cb3 74bd
00000310: fb7d 5abd 1b61 4d3d 690d 7e3d f704 8e3d
00000320: 367b 823c 71ac 1d3d 6cc9 9cbc 27e2 dc3b
00000330: 4fa8 8a3d f28c 8cbd 301f afbc 535f ffbc
00000340: 6fe6 1f3c bf48 8ebd 9731 143c ae38 84ba
00000350: 4a9b 0b3d 7621 553d 2159 9b3d bcb5 b8bc
00000360: 9c68 5b3d c7b9 a5bd 0b52 fbbc 92d9 c4bd
00000370: 5d5b 72bc ae8e a63d 449e 8bbc e000 9b3d
00000380: 7628 c9bc 1d20 77bd 4551 b2bd 575a 9e3d
00000390: bdb9 933d 5424 6fbd 5c78 f03c d817 b83c
000003a0: 1ba2 7cbd f639 d0bc e883 3f3d 4c59 8e3d
000003b0: 29b3 ecbc ede4 2dbc dd27 aabd 7543 17bd
000003c0: c0de debc ecd5 553d d662 6f3d f55f acbc
000003d0: 6f39 923d 5dd3 893d 9f08 cdbb 459e a0bd
000003e0: 5cd3 ab3d 2be1 5cbc c1c4 77bd 490d aa3d
000003f0: cc5d b1bd 6c7e bf3b ee08 953c ebca 1fbc
-0.049916502 0.053705595 -0.01096119 -0.017054508 0.054841384 0.041363657 0.03441216 -0.055519514
0.07082431 0.075367816 -0.027530959 0.0750128 0.01435436 -0.0909492 0.0045315274 -0.076237984
0.03699066 0.073462136 -0.04690333 0.04640347 0.076915115 -0.07847984 -0.026033742 0.070047826
0.030659225 0.030282596 -0.025885224 0.05727095 0.010229776 -0.05603764 -0.020897059 -0.084263906
-0.062381946 0.0061879884 0.003927664 -0.02719106 -0.084770836 -0.025909957 0.06794074 -0.0009167508
-0.04841713 0.06822854 0.0009893628 0.03877634 -0.054086562 -0.0153920045 0.04246207 0.09049713
0.055011354 -0.07079862 -0.09086121 0.016600685 -0.030728186 -0.017019466 0.0889366 0.01535174
-0.07873029 -0.004322329 -0.04450257 0.014848043 -0.01660659 0.034616232 -0.079140805 -0.0036213875
0.045436244 0.084889375 -0.07945759 -0.045366067 -0.0205924 -0.08349824 -0.07786884 -0.06935347
0.017676767 -0.00922078 -0.037501827 -0.057546966 -0.0858819 -0.028824247 -0.07399707 0.07143862
-0.0742641 -0.054869846 -0.04398554 -0.07550952 0.08636845 0.022166835 0.03075891 0.008027975
-0.021409476 0.03692781 -0.082452446 -0.046497215 -0.033523843 -0.04137753 0.02169345 -0.028980665
0.05849403 0.0023594778 -0.0830488 -0.025230853 0.022157734 0.01862821 -0.049497545 0.01700182
0.038015027 0.019051839 -0.061594263 -0.06163178 -0.06782783 -0.045100104 0.06879018 0.050795477
-0.020072125 -0.048898067 0.018873032 -0.07579762 0.00048599695 0.068586625 -0.04338813 -0.07745459
-0.06750395 -0.035418388 0.046839982 -0.07978144 0.0076220674 0.067429416 -0.08005116 -0.060837556
0.08480297 -0.06718875 -0.027474009 0.059829883 -0.026808467 0.04077818 0.0053132772 0.0778752
0.057823677 0.024284266 0.08354556 -0.0067666085 -0.08883213 -0.061016325 0.023278449 0.014599228
0.09658205 0.060992394 0.041634787 0.044016775 -0.05842685 -0.059547417 0.02267378 -0.08884516
0.06659529 0.0129616 0.05392095 -0.04256565 -0.031230027 0.06020122 -0.09017538 0.043079913
0.051192775 0.034949318 0.059273783 0.07028436 0.0059187296 0.07688971 0.0403487 0.02004277
0.03188949 -0.008886004 0.07071535 0.029764801 -0.03870483 -0.07393662 -0.06358239 -0.10142913
0.04250724 -0.03798886 0.06133351 -0.006591407 -0.06580957 -0.0144660175 0.06809339 -0.0052664788
0.079753764 0.057792418 0.09237071 -0.079947 0.06565252 -0.043919675 0.10453681 -0.0021593764
0.076703236 -0.034645148 -0.027473578 -0.059741065 -0.0533428 0.050141435 0.062024508 0.06934541
0.015927892 0.03849453 -0.019139014 0.0067408266 0.067703836 -0.06862821 -0.021377176 -0.031173384
0.0097595295 -0.06947469 0.009045026 -0.0010087693 0.034083642 0.052033864 0.07585359 -0.022547595
0.05356656 -0.08092075 -0.03067877 -0.09611811 -0.0147922905 0.08132683 -0.01704324 0.07568526
-0.024555426 -0.06033336 -0.08706907 0.07732075 0.07213161 -0.058384255 0.029354267 0.022472307
-0.061678033 -0.025418263 0.046756655 0.06950626 -0.028894024 -0.010613662 -0.083083846 -0.036929566
-0.027205825 0.052205965 0.058443867 -0.02104185 0.07139861 0.067297675 -0.006257131 -0.078426875
0.08389923 -0.013481419 -0.060490374 0.08303315 -0.086604685 0.005843928 0.018192735 -0.009752969

bias f4 [128]
00000000: 0c19 1a3d cac5 0fbd cc53 15bd c43f 43bc
00000010: 7e6b b7bc 54a7 83bc 796e adbb e733 953d
00000020: e2a8 c33d 2042 b53c 4142 963d 2536 95bd
00000030: ed11 9a3d 2e67 f83c 2aba b53d 8abf 9a3c
00000040: ca7c b93c 2f66 6f3c 1904 9f3d 6910 9c3d
00000050: d7cc 553d d71f 04bd 158e 8dbd a1f9 af3c
00000060: 77fd 24bc f562 9dbb c136 3ebd 7338 e13c
00000070: 38c8 96bd 94e1 bcbc 8471 4a3d d5d9 073d
00000080: f888 853d dcfa 6a3d 985c 5cbd ec9f edbc
00000090: 43f6 05bd f46e 98bd cc0e 833b 708f 89bd
000000a0: 5300 4ebd 46bc bf3c 9e4b a03d 60f8 65bd
000000b0: c9f8 eebc d119 03bd bb0b 813c ba8d 9bbd
000000c0: 66b9 a83d 5b2c 43bd cf20 bebb c6d6 5a3d
000000d0: 60b3 b8bb c621 943d 6f2d e9bc 79c9 8d3d
000000e0: 85fd 503d dec4 873d de9c e6bc bd7d 09bb
000000f0: 3443 353d 637c 873c 9e06 8cbd 2702 66bd
00000100: f274 743d 6ddb 8cbd 9dcd 85bc 343a cc3c
00000110: 429f 683d 224e a83d 50a2 853d cd55 443c
00000120: 34f8 abbd 69c5 bd3d 4571 8d3d c7ea 4cbd
00000130: ea6b 53bc 02b8 d53a 7c15 47bd aaf2 233d
00000140: f012 2038 e299 08bd a679 85bd 2df2 36ba
00000150: 3b4b 5cbd 864a 5b3a 4671 57bd 53cc 32bd
00000160: f099 fa3c 7bec 573d 2bfc 333d 1b60 85bd
00000170: 29b1 8abc c45e 9c3d 72ce 9cbd 2f30 983d
00000180: 8749 8cbd 0f35 943d 4199 42bb dce5 c83d
00000190: 1c5e 393d 4395 c53c e86d 0a3c f1d7 91bd
000001a0: e5a7 813d da11 233c 74e6 68bd 9ff9 aa3c
000001b0: d5fd 233d 24c9 5bbc b648 b63d d532 8fbd
000001c0: 6248 5d3d 3cbf 14bd fb42 8abd b931 a43c
000001d0: dbd4 2cbc 127c 00bd e303 0bbc 47cd dcbc
000001e0: 6b5f 6fbc aa81 7cbd 5574 aa3c 6110 33bc
000001f0: 3b5b 97bd b0cf 8fbd 67a4 90bd 28db b63c
0.037621543 -0.035100736 -0.036456868 -0.011917058 -0.022390123 -0.016071 -0.0052927104 0.0728529
0.09553696 0.022126257 0.07336856 -0.07285718 0.0752295 0.030322637 0.088733986 0.018890161
0.022642512 0.014611765 0.077644534 0.076203175 0.052197304 -0.032256927 -0.069118656 0.021481337
-0.010070196 -0.0048030564 -0.046438936 0.027492737 -0.073624074 -0.023056783 0.049424663 0.033166725
0.06520265 0.057368144 -0.05379924 -0.02900692 -0.032705557 -0.07443038 0.0039995667 -0.06716812
-0.050293278 0.023405205 0.07826923 -0.056145072 -0.029171364 -0.032007042 0.015752664 -0.075953916
0.08238487 -0.047649723 -0.005802251 0.05342748 -0.0056366175 0.07233004 -0.028464047 0.069231935
0.051023025 0.06629346 -0.028150972 -0.0020979487 0.044253543 0.016538804 -0.068372 -0.056154396
0.05968184 -0.0687779 -0.016333396 0.024930097 0.056792505 0.08218028 0.06525099 0.011983347
-0.0839695 0.092661686 0.0690637 -0.05002859 -0.012904147 0.0016305449 -0.048604473 0.040026344
3.816461e-05 -0.03334988 -0.06517343 -0.0006978836 -0.053782683 0.0008365292 -0.05259826 -0.04365189
0.030590981 0.05271576 0.043941658 -0.06512471 -0.01693018 0.076352626 -0.07656564 0.07431065
-0.06849962 0.072366826 -0.0029693397 0.09809467 0.045255765 0.024119025 0.008449055 -0.07121266
0.063308515 0.009952987 -0.056860402 0.020870982 0.040036995 -0.013414655 0.08900587 -0.06992117
0.054024108 -0.036315188 -0.06751057 0.02004324 -0.010548796 -0.031368323 -0.008484813 -0.026953353
-0.014610152 -0.061647095 0.020807425 -0.010929198 -0.07390448 -0.07022035 -0.07062607 0.022321299

weight f4 [128, 128]
00000000: d00d 883d 7e0f 003d 3a1d 223d 40e0 613b
00000010: ac58 1abc 6b45 1d3d a8b8 5ebd f15f 943d
00000020: 81fb ddbc 574d 4bbd fec1 693d 50ea e5bc
00000030: 7f33 af3d 2176 8b3d dc23 973d c13a 693d
00000040: 0a0e bfbb 9fdf aabc 94f5 cb3c a6df 72bb
00000050: a4e0 bdbc 215e 963d 5470 2b3d c422 d63d
00000060: 7032 e5bc fdb2 643d 9cce 913d 564d aebd
00000070: ad51 8ebd 7784 06bd 5737 a1bd c850 cd3c
00000080: 96cb b9bd d02c a63d 2c03 153d c5e3 b8bc
00000090: 11dc b53c ec12 05bd 4c95 26bd b081 7b3d
000000a0: 13ae 653c d372 6ebc 1d2a dc3d 59b9 61bd
000000b0: 8046 013d b299 87bc f5f4 8d3d dfec 8dbd
000000c0: 7bef ab3c 51a0 1d3d 5d3e 603d 9d63 693d
000000d0: 5ac1 d7bc 97e6 8fbd 3084 0fbd 9db8 b5bc
000000e0: 08ee 973d 2ead 223d e08f 693c c4f8 d0bc
000000f0: 35da c1bc cc6d 1a3d 08de cb3d a664 babc
00000100: 0203 c23c 577e 9dbd 3f16 a03d 1722 183c
00000110: f8c4 b63d dd25 75bd 940d 7e3d 9393 a6bd
00000120: 4005 5bbd 2e16 9f3d f4e1 963b a8cc fabc
00000130: e558 3fbd 5b2a 18bd 7db1 9b3b 3f64 9c3d
00000140: 1460 3ebd e1a1 4f3c 0679 713d 1ee6 1bbd
00000150: 6b1b 9f3d 6457 74bd 74c6 12bb 8ad3 863d
00000160: 777f 8cbc d737 bebc 416d eb3c f9a2 a0bd
00000170: 6878 99bd 1d3d d23d ddcf ad3d 367d 82bd
00000180: 6801 8bbd 490e 0a3c 1322 663d 6eb3 c03d
00000190: 33e5 34bd 77d4 43bd dbf5 2c3c 85ba d3bc
000001a0: 8e19 a4bd 57bc 813d 195e 013e 38c3 063d
000001b0: dc25 c03c 3328 6e3d f2e2 a6bd 9e60 a03c
000001c0: eca6 a13d 92e6 823d baab 8cbd a836 873d
000001d0: fc08 3d3d b82c 7a3d 4919 6ebb 93be 473c
000001e0: 627d 923d a842 593d d5bf bcbc 9e66 e53c
000001f0: 9103 14bd 6a94 25bd 84ed e03c 0d05 3abc
00000200: 810c afbc 9b01 753d add1 ad3c 7751 aa3d
00000210: 1e88 1a3c 1747 cabd 731d 8b3b b023 f2bb
00000220: d21c a5bc 54fa 93bc bc38 6ebd 4531 1e3d
00000230: bf50 50bd ee13 d1bc e9b4 9dbd d5d3 b4bd
00000240: 7d71 b73d 7002 80bd 17af 1f3c ee0a a93d
00000250: e69d e13c 1ba2 4d3d 2ee7 11bd af79 353c
00000260: b397 923c 3c8c adbd 521a 633c fc49 17bd
00000270: 2056 9f3c 94fc 513d ea30 5f3d 1fde a6bc
00000280: e0b2 ad3c c13f cc3c b70a 153d 4a40 fcbc
00000290: 700f 1e3d a70a 79bd 7a2d 1ebd 9a81 873c
000002a0: a363 723c 3b59 8f3d d568 95bd e71f 63bd
000002b0: bc4c 073d e507 7b3d 0a62 8cbd 7935 b7bd
000002c0: 7501 cb3c 9b10 52bc 73bc 53bc 4b4e 9fbd
000002d0: 209a 9bbc 2b0b a0bd 850a 5cbd 8efd 7cbc
000002e0: f30a fdbc 5cb7 153d 37cd 633d e1d9 6c3c
000002f0: d4b7 a73d 7cc5 a0bd 66b6 a43d 6f52 82bd
00000300: 6fe8 8abc 1953 903c 6c93 1c3d 55c0 1d3d
00000310: 0de6 373c f511 cc3c 8aa2 9ebd a655 88bd
00000320: b9de 6c3a 5f40 b63c 68a1 e9ba b9d2 fc3a
00000330: 71d4 963d 3289 3fbd 868f 6b3d 1580 a5bd
00000340: e19d 8e3d d1f7 3fbd 9b8f 173a f4c8 153d
00000350: 37da 203d 4ad4 10bd 587b a8bd e3ab ac3d
00000360: e833 59bd 78c3 49bd 1d9e af3d 2377 7bbd
00000370: 81d1 f33c fc97 7fbd c67b b0bd b65e f3bc
00000380: b7aa 2f3c e9b9 3c3c 5490 263d 9c0f 453d
00000390: f101 6ebd 0713 663c 41e0 843d 57b7 8e3d
000003a0: 4c99 0abd 9742 20bd aa06 72bd 51ee 4a3d
000003b0: 484c 173d 318c efbc f037 91bc bf44 083d
000003c0: a3d7 0f3d 9aa8 adbd 41c4 383c 3162 a8bd
000003d0: a9d3 5fbc 81d6 72bd c4ca 523d 3707 a53d
000003e0: 8346 763d 8451 263d a59f 51bd 5b7e c13c
000003f0: d095 913d d34b 92bd bfaf 8bbc 3682 1cbc
0.066432595 0.031264775 0.039578654 0.0034465939 -0.009420555 0.03839628 -0.05437532 0.07244862
-0.027097465 -0.049634304 0.05706977 -0.02806583 0.08554744 0.06809641 0.073798865 0.056940798
-0.005830531 -0.020858584 0.024897374 -0.0037059574 -0.023178406 0.073421724 0.04185517 0.1045585
-0.027978152 0.05583476 0.07119486 -0.085108444 -0.06949172 -0.032841172 -0.07871883 0.025062934
-0.09072034 0.08114016 0.036379978 -0.022569546 0.022199662 -0.03248875 -0.040669724 0.061402977
0.014018553 -0.014553743 0.1075022 -0.055108402 0.031561375 -0.01655278 0.069314875 -0.06929945
0.020988217 0.038482968 0.054746974 0.056979764 -0.026337314 -0.070264034 -0.035038173 -0.022182757
0.07418448 0.03971594 0.014255494 -0.025509246 -0.02366362 0.037702367 0.099544585 -0.022753071
0.023683075 -0.07690113 0.07816743 0.009285471 0.089242876 -0.059850562 0.062024668 -0.08133616
-0.053471804 0.07767902 0.0046045724 -0.030615166 -0.046715636 -0.03714977 0.004751383 0.07636308
-0.046478346 0.012672872 0.058953308 -0.038061254 0.077689014 -0.059653655 -0.002239612 0.065833166
-0.017150624 -0.023219986 0.02873862 -0.078435846 -0.07493669 0.10265563 0.084869124 -0.06371538
-0.067873776 0.008426257 0.05618484 0.094092235 -0.044163894 -0.047810044 0.010556663 -0.025845775
-0.08012687 0.06334751 0.12633552 0.03290102 0.023455553 0.058143806 -0.08148755 0.01957732
0.07893166 0.06391634 -0.06868692 0.06602222 0.046151146 0.061077803 -0.003633099 0.0121914325
0.07152821 0.053042084 -0.023040691 0.028003033 -0.036136214 -0.04042474 0.027457006 -0.011353743
-0.021368267 0.059815984 0.021218145 0.083163194 0.009431867 -0.098768406 0.004245454 -0.007389508
-0.020155344 -0.018063702 -0.058159575 0.038621206 -0.050858255 -0.025522199 -0.077005215 -0.08829466
0.08957193 -0.06250465 0.0097463345 0.08254038 0.027541112 0.050203424 -0.03562086 0.011076375
0.017894601 -0.08474013 0.013861256 -0.03693579 0.019450247 0.051266268 0.054490007 -0.020369587
0.021203458 0.024932744 0.03638717 -0.030792374 0.03858894 -0.060801174 -0.03861759 0.016541291
0.014794263 0.06999441 -0.07295386 -0.055450346 0.033032164 0.061286826 -0.06854637 -0.08945746
0.024780968 -0.012821342 -0.012923348 -0.07778605 -0.018994391 -0.0781463 -0.05372097 -0.0154413115
-0.03088901 0.03655182 0.05561563 0.014456243 0.08189359 -0.07850167 0.08042602 -0.06363379
-0.016956536 0.017617749 0.03822653 0.0385135 0.011224282 0.024910906 -0.077458456 -0.06656961
0.0009035874 0.022247491 -0.0017824592 0.0019288874 0.07364739 -0.0467617 0.05750992 -0.0808107
0.06963707 -0.046867196 0.0005781592 0.036568597 0.039270606 -0.035358705 -0.08226651 0.08431222
-0.053028017 -0.04925868 0.085750796 -0.061392915 0.029762985 -0.062400803 -0.08617358 -0.029708248
0.010721854 0.011518934 0.040664986 0.04811059 -0.05810732 0.014042622 0.064880855 0.06968563
-0.0338376 -0.039126005 -0.059088387 0.049543682 0.03693798 -0.029241653 -0.017726868 0.033268686
0.035117757 -0.08479424 0.011277259 -0.082218535 -0.013661304 -0.059286598 0.051462904 0.08058017
0.06012584 0.040605083 -0.05117764 0.023619821 0.071086526 -0.071433686 -0.017051576 -0.009552529

bias f4 [128]
00000000: 6a7e b73d 2df5 8cbd 2a51 81bd ac9f 903c
00000010: fc76 c73d 52a9 44bb 6baf 88bd f94f 13bd
00000020: 585d 7abd 6ad2 4d3d 4683 ec39 9df8 913c
00000030: 1875 9bbd 3779 7d3d 006b 683d 2120 883c
00000040: 6cb2 633d a5e9 26bd 0896 9fbd 650f 80bb
00000050: d9f9 5fbd 5f19 993d d938 28bd 591a 6f3d
00000060: 32ea f1bc 50d3 2abd 945f 863c 055a 943d
00000070: bf1e 88bc d976 153d 3153 a83d 61d3 91bd
00000080: e8ba bdbc 4c90 9abd 9467 13bd 6d39 8a3c
00000090: 47d4 08bd 8fba 23bc d019 a73c e00c 87bd
000000a0: 2a36 a0bc ae19 263d fe96 043c 1cb8 12bd
000000b0: 40ad cd3c 2f4a 9bbd 2a3a 853c f47a 31bd
000000c0: 2469 c63c 63c4 373d c382 4bbd 2d96 24bd
000000d0: 5e52 943d 10b6 cabc 76ae c43d 84da bfbb
000000e0: e592 8e3d 34d2 533d f9e4 59bd ee34 c03d
000000f0: f21d a23d 1ed2 43bd 9d89 13bd 1f95 93bb
00000100: e2fb 9abd 93c0 9f3c f156 74bc 1f55 943d
00000110: 307d f4bc 4d33 be3d 17d0 c7ba 2aa2 5fbd
00000120: a0ef b0bd 5bbf 393c 4df6 b13d 2692 1c3d
00000130: 9ca6 663d 1a6e 373d e48e b6bd 039a 3c3d
00000140: ad3a b43c 242d 9a3b ab6f 5bbd 5ba9 46bc
00000150: 7cd3 863d 7cf3 17bd f8db f83c 898e 153d
00000160: 25d9 ebbc 0c6d 51bd f582 81bd 1370 8b3d
00000170: 3ded 6ebd d594 f63c 8803 533d 7e31 41bd
00000180: 1444 b73d 5ee1 8e3d c759 a8bd 8959 833d
00000190: 3aa5 a3bd f720 a43d 5ede 9dbd 0b2f 90bd
000001a0: 32cc 8e3d 9f81 98bc 21c8 923d 6520 82bc
000001b0: d998 8cbc ee06 19bd 660b 873d 7f96 b1bd
000001c0: 6233 593d ef60 3f3d 751b a6bb ef01 1a3d
000001d0: d9dd 4b3d b198 a9bd b73d 023c 6d52 433d
000001e0: 8b2b 823d 4ad5 353c baab 8bbd 9a66 b7bd
000001f0: 9f5b 75bb 4ea1 5ebd b5d6 f7b9 0e57 32bd
0.089596584 -0.06882701 -0.06314309 0.017654262 0.09739491 -0.003000815 -0.06674083 -0.03596494
-0.061124176 0.050249495 0.00045111234 0.017818743 -0.07590693 0.061883178 0.05674267 0.016616883
0.05559008 -0.040750165 -0.07792288 -0.003908085 -0.054681633 0.07475542 -0.04106984 0.058374736
-0.029530618 -0.04170543 0.016402997 0.07243732 -0.016616223 0.036490295 0.082189925 -0.071203955
-0.023160413 -0.07547054 -0.03598745 0.016873086 -0.03340557 -0.0099932095 0.02039805 -0.065942526
-0.019557077 0.040551834 0.00809264 -0.03582011 0.025107026 -0.07582509 0.016263086 -0.043330148
0.024220057 0.044865023 -0.04968525 -0.04018228 0.07242273 -0.024745017 0.09603588 -0.0058549065
0.06961612 0.051714137 -0.05319688 0.093850955 0.07915868 -0.047807805 -0.03601991 -0.0045038606
-0.07567574 0.019501006 -0.014913307 0.07242798 -0.02984485 0.092871286 -0.0015244511 -0.05459801
-0.08639455 0.011337127 0.08689556 0.038225316 0.056311235 0.044782735 -0.08913973 0.046045315
0.022000635 0.004705088 -0.05357329 -0.012125338 0.06583306 -0.03709744 0.030378327 0.036512885
-0.028790066 -0.051129386 -0.06323806 0.06808486 -0.058331717 0.030100266 0.05151704 -0.04716634
0.08948532 0.06976579 -0.08220249 0.06413562 -0.07990499 0.080141 -0.07708429 -0.07040223
0.06972541 -0.018616496 0.07167078 -0.015884588 -0.017162727 -0.037360124 0.06593971 -0.08671283
0.053027518 0.046723302 -0.005069191 0.0375995 0.049772117 -0.08281077 0.007949284 0.04768603
0.063559614 0.011098215 -0.068198636 -0.089551166 -0.0037438644 -0.05435305 -0.0004727148 -0.043540053

weight f4 [2, 128]
00000000: 6575 bcbd 9552 593d 33f9 cfbd f2ea c53c
00000010: 2568 6cbd 8e9a 33bd cc16 a7bd d501 38bd
00000020: 8323 aabd 17bc 17bd 13c7 013d 1682 293b
00000030: ef3f c93c 420a e13d 0cdd a83d f5d1 29bd
00000040: 15c2 ad3c dc9d 1e3d 956a 98bd b5a1 963d
00000050: e989 47bb 3991 1dbd beea b7bd 36de e03b
00000060: 8b91 6dbd f8eb aa3c c1ef 98bd da4d 833d
00000070: e8ef cdbd 713e cfba 82d0 60bc b318 d33d
00000080: c493 68bd f041 ce3c 08ad 853d ee44 b8bd
00000090: 126c 063c 437f 4a3d de9f f0bc b83b 7d3d
000000a0: e954 de3c 1a17 ab3d a068 d7bd 841e f43a
000000b0: b595 27bd 51aa 67bd 83be bbbc 6348 0c3a
000000c0: 9a51 a63d 9f41 adbc 0f66 f23d f32c f53c
000000d0: 8d61 ecbc 2aff 883d 4a1d 03bd c5a1 0ebd
000000e0: c77b bc3d 3e33 d03d 1b51 b83d 81e7 db3b
000000f0: e9cb 853c e3ec e83c def5 383d 1c63 9abd
00000100: 50bd 213d 80ca 4bbd 42e6 24bd e662 a1bd
00000110: 52d6 493c 419b 453d 7662 c2bd 4ffc 923d
00000120: cc6f e93b 58bf 0ebd c30f 9d3c 140a 2f3d
00000130: 52dd 6c3d f240 6a3d 17a5 9a3d 2c9d c3bc
00000140: 3906 643c dc42 94bd cbff 02bd 2000 a53d
00000150: 7aaa 3dbd d2d2 123d 3d3f 4ebd 2c69 adbd
00000160: 8073 91bd 7e90 7c3d 2289 a13d 7e2d 5bbd
00000170: d197 d83c 7e11 0abd b209 6b3d 8b79 fbbc
00000180: 4e15 f1bd 47d5 f7bc 559c 4a3c 1c67 cfbc
00000190: dc4c 89bc 842b df3c 6c10 abbd 002a fe3c
000001a0: 9747 b3bd 5a54 1c3c b737 bebd c970 dcbd
000001b0: 19a8 b73c 7b5d 9fbc bdca 3ebc 6717 5fbd
000001c0: b54c 37bd 8935 cfbd 270b 823d b41e b7bd
000001d0: 5003 433d fa56 bcbc b202 833d 20a2 4dbd
000001e0: 641e 53bd 6490 3b3d cd55 613d 2766 9e3d
000001f0: 1df4 60bd e59b 0c3d 94b9 e03c ad50 bfbc
00000200: ebee e5bc 73a6 e83c d996 fb3c a9f0 6abd
00000210: d837 713d 2490 ba3d 1cf8 adbb 9e05 d03b
00000220: 49d8 573d 6c14 a7bd a919 9a3d df29 79bd
00000230: ebd8 cc3d 6caf d7bd 1100 32bd 064a 963c
00000240: c672 4f3d 5e19 be3d 0965 fdbc 66c5 cd3c
00000250: 7639 b2bb 09af 013d ba70 82bd c8d8 a33d
00000260: ae0d aebd 0f56 d7bc 93f3 e73d 7b33 d0bc
00000270: beac deba 0d07 59bd 81b4 cd3d 73be 36bd
00000280: 55f3 03bc 0621 873d de16 86bd b2ca 1ebd
00000290: 1c0a 84bb 8fb7 d0bc b161 abbd 1353 0cbc
000002a0: 0e07 da3c 48e1 4e3c f26e 2ebd 1045 1b3d
000002b0: 1d3a ca3d 981c ef3d 129d 44bd 6ffd fdbc
000002c0: e5fa dbbc a351 8abd 0613 e33b fdf0 f63c
000002d0: d743 96bd 3345 69bc a343 ca3d b310 fd3c
000002e0: d1ad 8ebb ec8d 8ebd a2b5 20bd a280 bbbd
000002f0: 40f0 883d 8370 d6bb 2e9a 953d 4f38 7c3d
00000300: 3f6c b13d 7335 a83c f7ac b73d ce9c d03d
00000310: 4fa3 3ebd 78c1 f33d c48d 0e3c a730 0a3c
00000320: 6fe0 8abd 154d 9fbd a670 a63d 7585 91bc
00000330: d1a6 e33d 525b 223c 83a9 323d 5bb7 8f3d
00000340: 99b3 56bb ec8e a6bd 61e0 513a 3b36 643a
00000350: 1e9c a13d f70f df3b 975c d5bd 6256 1d3d
00000360: bb5d 1d3d 0d81 123c 601a 9c3c 9ae7 ce3d
00000370: 28c1 2ebd 45b2 6bbd a992 4abc 4030 8cbd
00000380: 8d53 1c3c d954 4bbd b020 123d b74c 023d
00000390: f56d 973d b76f 04bd 4bce e03c 8b4c 7fbd
000003a0: b2e6 393d d06c 983d 0257 ac3d 8d4d 9f3c
000003b0: 6aac 783d ea8a 473d 5927 a1bc d671 29bd
000003c0: bff7 a9bd 9fba b7bc abf2 90bd 9988 be3b
000003d0: 57a8 24bd 25a7 7e3d 4c39 c03d bf29 273d
000003e0: 5c18 2cbc dc4b 503c 1faf d43d 5398 8d3d
000003f0: 74d5 83bd 8f40 adbd 614e ce3c 4b1e a03d
-0.09202079 0.053057272 -0.10154953 0.024159882 -0.057716507 -0.043848567 -0.08158645 -0.044923622
-0.083075546 -0.03704461 0.031683993 0.002586489 0.024566619 0.10988285 0.08245286 -0.041459996
0.02121071 0.038724765 -0.07442204 0.07355062 -0.003044719 -0.038468573 -0.089803204 0.006862427
-0.05800013 0.020864472 -0.074676044 0.064113334 -0.10055524 -0.0015811456 -0.013721587 0.103074454
-0.056781545 0.025177926 0.06527144 -0.08997522 0.008204477 0.049437772 -0.029373106 0.06182453
0.027140098 0.08354016 -0.105180025 0.0018624817 -0.040914256 -0.05655891 -0.022917992 0.00053513626
0.08121033 -0.021149455 0.118358724 0.02992866 -0.02885511 0.06689294 -0.032010354 -0.034822244
0.09203296 0.10166024 0.08999845 0.006710947 0.016332584 0.028433269 0.045156352 -0.07538435
0.039487183 -0.049753666 -0.040258653 -0.078801915 0.012319164 0.048243765 -0.09491436 0.0717703
0.007123923 -0.03485045 0.019172555 0.04273422 0.057828255 0.057190843 0.0755102 -0.023878656
0.013917499 -0.07239315 -0.031982224 0.080566645 -0.046305157 0.035845585 -0.050353277 -0.084673256
-0.07102108 0.061661236 0.07887484 -0.05351018 0.02643958 -0.033708088 0.057382293 -0.030697605
-0.11771642 -0.030253066 0.012366374 -0.025317721 -0.016760282 0.02724243 -0.083527416 0.031025887
-0.08753889 0.009541595 -0.092879705 -0.107636996 0.022419022 -0.019453755 -0.011645016 -0.054465678
-0.044750888 -0.10117633 0.063497834 -0.08941403 0.04761058 -0.022990692 0.063969985 -0.050203443
-0.051542655 0.045792 0.055013467 0.07734328 -0.054920305 0.03432836 0.02743224 -0.023353899
-0.028068027 0.028399682 0.030711578 -0.057358418 0.058891147 0.09109524 -0.005309118 0.006348326
0.0526965 -0.08158192 0.075244255 -0.060830947 0.10002311 -0.10531506 -0.043457095 0.018345844
0.050646566 0.09282182 -0.030931966 0.025118541 -0.005438979 0.031661067 -0.06369157 0.08000332
-0.08498703 -0.026286153 0.11325755 -0.025415173 -0.0016988737 -0.05298524 0.10044194 -0.04461522
-0.00805362 0.065980956 -0.0654733 -0.038767524 -0.0040295254 -0.025478153 -0.083682425 -0.008564728
0.026614692 0.012626953 -0.042586274 0.03790766 0.098743655 0.11675376 -0.048001356 -0.031004636
-0.026853034 -0.06753852 0.006929758 0.030144209 -0.07337158 -0.01423769 0.09876182 0.030891752
-0.0043542166 -0.06960663 -0.03923572 -0.09155394 0.06686449 -0.006544174 0.07304798 0.061577138
0.086632244 0.0205333 0.08968537 0.10186158 -0.046542462 0.119021356 0.008700792 0.008434451
-0.067810886 -0.07778374 0.08126955 -0.017763833 0.11115802 0.009909468 0.04361869 0.07017394
-0.0032760857 -0.08132729 0.00080061523 0.0008705591 0.07891105 0.006807323 -0.10418051 0.03841246
0.038419466 0.008941901 0.019055545 0.10102768 -0.042664677 -0.057543058 -0.012364068 -0.068451405
0.009541404 -0.049641464 0.035675704 0.031811442 0.073940195 -0.032333102 0.027442118 -0.062328856
0.045386024 0.07442629 0.08415033 0.019446159 0.060711302 0.048716463 -0.019672083 -0.041368328
-0.08299207 -0.022427855 -0.07077535 0.0058146236 -0.040199604 0.06217112 0.093859285 0.040811297
-0.010503855 0.012713399 0.10384964 0.06913819 -0.06437197 -0.08459579 0.025183858 0.07818278

bias f4 [2]
00000000: 7207 993d cf5b aa3d
0.07472123 0.08318292
