save_model/liwc/models/NeuralNetFastAI/model-internals.pkl (torch, 222691 bytes, 16 tensors)

weight f4 [117]
1.0008124 1.0067794 1.0093921 1.0051265 1.0172197 0.9975073 0.99896353 1.0026431
1.0025151 1.0007963 0.9880707 1.0119307 1.0162438 1.0072478 0.9909713 0.9921442
1.0047929 1.0101364 0.99893916 1.0003585 1.0237043 0.9851828 0.99240947 0.9922927
1.0229342 0.98957837 0.99809915 0.99232394 1.0070901 0.97270775 0.972396 1.0008717
1.0081611 0.97871435 1.01487 1.0014806 0.99539286 0.9920845 1.0082103 1.0040789
0.9961095 1.0065323 0.99205786 0.9905271 0.9995378 0.99228424 0.9853481 0.9957414
0.9911715 0.99867976 1.0094421 0.98177683 0.9969422 1.0069369 0.97569704 0.991065
0.9889686 1.0126225 0.9846441 1.0040009 0.9883259 1.0274485 1.0020447 0.98159534
0.992107 0.98934925 0.9850278 0.9750646 1.0012476 0.98313177 1.0019002 1.0130385
1.0080748 0.97188693 1.0050212 1.0084898 1.0125971 1.0000331 0.984224 0.9789478
0.9812343 1.0215119 1.0016406 0.98993504 0.9986827 1.022469 1.0042274 1.0002751
0.99521077 0.99474764 1.0057179 1.0122625 1.0088342 0.98040736 0.9774406 1.0019194
0.987201 1.0103463 1.0053581 1.0028231 0.99667585 1.0112215 1.0085185 1.0108454
0.9973899 0.99460536 1.0114157 1.0067961 1.0061184 1.0013882 1.0129732 1.019346
1.0177494 0.99530053 0.99142724 1.0048311 1.0068326
00000000: 9f1a 803f 26de 803f c333 813f fca7 803f
00000010: 4134 823f a35c 7f3f 13bc 7f3f 9c56 803f
00000020: 6a52 803f 181a 803f 34f2 7c3f f286 813f
00000030: 4714 823f 7fed 803f 4cb0 7d3f 2afd 7d3f
00000040: 0e9d 803f 264c 813f 7aba 7f3f bf0b 803f
00000050: be08 833f f134 7c3f 8c0e 7e3f e506 7e3f
00000060: 82ef 823f 0255 7d3f 6d83 7f3f f108 7e3f
00000070: 54e8 803f 6003 793f f2ee 783f 901c 803f
00000080: 6c0b 813f 068d 7a3f 43e7 813f 8430 803f
00000090: 11d2 7e3f 40f9 7d3f 090d 813f a885 803f
000000a0: 0801 7f3f 0dd6 803f 81f7 7d3f 2f93 7d3f
000000b0: b6e1 7f3f 5706 7e3f c63f 7c3f e9e8 7e3f
000000c0: 6abd 7d3f 7aa9 7f3f 6635 813f ba55 7b3f
000000d0: 9b37 7f3f 4fe3 803f 48c7 793f 70b6 7d3f
000000e0: 0c2d 7d3f 9d9d 813f a311 7c3f 1a83 803f
000000f0: ed02 7d3f 6f83 833f 0043 803f d549 7b3f
00000100: b9fa 7d3f fe45 7d3f c82a 7c3f d59d 793f
00000110: e228 803f 86ae 7b3f 443e 803f 3fab 813f
00000120: 9808 813f 95cd 783f 89a4 803f 3216 813f
00000130: c89c 813f 1601 803f 1bf6 7b3f 539c 7a3f
00000140: 2c32 7b3f e7c0 823f c235 803f 626c 7d3f
00000150: aba9 7f3f 44e0 823f 868a 803f 0409 803f
00000160: 22c6 7e3f c8a7 7e3f 5dbb 803f d191 813f
00000170: 7b21 813f fafb 7a3f 8c39 7a3f e53e 803f
00000180: 34b9 7c3f 0753 813f 93af 803f 825c 803f
00000190: 2626 7f3f b56f 813f 2217 813f 6263 813f
000001a0: f254 7f3f 759e 7e3f 1276 813f b2de 803f
000001b0: 7dc8 803f 7d2d 803f 1ba9 813f ee79 823f
000001c0: 9d45 823f 04cc 7e3f 2dce 7d3f 4e9e 803f
000001d0: e4df 803f

bias f4 [117]
0.010468122 -0.007269739 -0.008040767 0.027107302 0.010965331 0.008257417 0.00032772776 -0.0046897107
0.0047898283 -0.00078683224 -0.003455603 -0.0073802695 0.011536366 -0.005910086 0.007807694 0.020620689
0.0037801345 -0.005062176 -0.020689625 -0.01623166 -0.008727864 -0.018289758 0.016129963 -0.00092618796
-0.022801008 0.016308373 -0.0010246244 -0.0044874144 0.0122383535 -0.0026997617 0.011296464 -0.007828492
-0.008049382 -0.0005706375 0.0068570916 -0.011061201 0.015605185 0.023737688 -0.008121083 0.0209353
0.026206205 -0.0099162 -0.009495974 0.0012332014 0.0049324883 0.0028158864 -0.014241584 -0.0019304979
0.016721247 0.00264156 -0.015252463 0.010968248 0.007606296 -0.008243923 0.016839897 0.0038856799
0.011116704 -0.012811938 -0.018809069 -0.0004610538 -0.019110976 0.0049017016 -0.017508566 0.009567112
0.005589864 -0.0060710586 0.0030904051 -0.0019381016 -0.020079099 0.007885162 0.016018854 0.008468479
0.0073674703 0.0064489846 -0.00486659 0.0035084423 0.0031042988 -0.014521763 -0.01118031 -0.017960206
0.007987358 -0.027558602 -0.016848674 0.011626626 -0.011297502 0.0067002047 -0.004891939 0.0012981778
0.010237453 0.00091497623 0.020075893 0.010153883 0.0084630875 -0.0011670445 -0.006125988 0.0006598558
-0.004811576 -0.011191836 -0.0061192103 -0.015298886 0.0042134086 -0.018875977 -0.023981113 0.0077574253
-0.0047452184 -0.013489687 -0.0049568205 0.017950887 0.004870164 -6.737339e-05 -0.012228134 -0.0057425178
-0.014854523 -0.0015594154 -0.0011366815 0.010034577 0.0021435306
00000000: 7c82 2b3c fe36 eebb 6cbd 03bc 2210 de3c
00000010: efa7 333c 1e4a 073c e0d2 ab39 25ac 99bb
00000020: fef3 9c3b 6b43 4eba 6677 62bb 30d6 f1bb
00000030: 0703 3d3c 65a9 c1bb afd7 ff3b b8ec a83c
00000040: 22bc 773b 9ce0 a5bb 4a7d a9bc 42f8 84bc
00000050: 51ff 0ebc 67d4 95bc fc22 843c 6ccb 72ba
00000060: 2ec9 babc 2399 853c b14c 86ba 290b 93bb
00000070: 6083 483c 7cee 30bb ce14 393c 1343 00bc
00000080: 8ee1 03bc d696 15ba 74b1 e03b 0a3a 35bc
00000090: e4ac 7f3c 8a75 c23c 4a0e 05bc 8280 ab3c
000000a0: 65ae d63c 8f77 22bc 0095 1bbc 5fa3 a13a
000000b0: b6a0 a13b bc8a 383b 8855 69bc c308 fdba
000000c0: fffa 883c 061e 2d3b 77e5 79bc 2bb4 333c
000000d0: 3c3e f93b 8511 07bc d3f3 893c e4a6 7e3b
000000e0: d622 363c 2ae9 51bc 7a15 9abc 98b9 f1b9
000000f0: 9f8e 9cbc 749e a03b 206e 8fbc 60bf 1c3c
00000100: 2e2b b73b bbef c6bb 6588 4a3b e607 feba
00000110: ec7c a4bc c430 013c f939 833c 60bf 0a3c
00000120: d26a f13b 0152 d33b ea77 9fbb e5ed 653b
00000130: 7e71 4b3b b0ec 6dbc 9e2d 37bc 4821 93bc
00000140: 68dd 023c 94c2 e1bc 3b06 8abc 9b7d 3e3c
00000150: 2819 39bc 648d db3b 8f4c a0bb 9e27 aa3a
00000160: fdba 273c 04db 6f3a 3376 a43c 795c 263c
00000170: c3a8 0a3c 84f7 98ba 83bc c8bb 2cfa 2c3a
00000180: 6daa 9dbb f65d 37bc a883 c8bb 2ea8 7abc
00000190: a210 8a3b cba1 9abc 0a74 c4bc 0032 fe3b
000001a0: c77d 9bbb d903 5dbc d36c a2bb bd0d 933c
000001b0: e695 9f3b d04a 8db8 8358 48bc bb2b bcbb
000001c0: 6360 73bc 4c65 ccba b4fc 94ba 1168 243c
000001d0: 7a7a 0c3b

running_mean f4 [117]
0.00010698075 0.0068455 -0.00033569505 0.004428432 0.00096877053 -0.00031955374 0.006251356 -0.0038692076
-0.0059998017 -0.005623164 -0.010275368 -0.0028204408 0.0038681088 -0.0015128462 -0.0019053095 -0.003461769
-0.012245366 -0.015887048 -0.0042757895 0.0018250591 -0.0035489101 0.0005859748 -0.0036671178 0.001914193
-0.0066478653 -0.008551007 -0.0012708657 -0.0051734075 0.007454594 -0.0015390136 -0.0007628704 0.0012761123
-0.0046698796 -0.0015882859 -2.5105662e-06 -0.0025638845 0.00070638454 -0.005063305 0.0027639451 -0.008710789
0.0008432096 -0.0016115515 0.0065656477 -0.00475269 0.00012201045 -0.010272456 -0.0036143567 0.0036948707
-0.012873264 -0.004053862 -0.006171689 0.0015071912 -0.0003930328 -0.007402119 -0.006654583 0.006452003
0.0048036296 -0.0055904835 -0.0025438266 0.0018078166 -0.006209776 0.00017334684 -0.0006986665 -0.0007062399
0.0016268585 -0.0059441687 -0.007085265 0.002317245 -0.0043624574 0.0041339095 0.0037796337 -0.0059972154
0.006499608 0.0083731 0.008864952 0.011590057 0.0052760984 0.0013751993 -0.0017034203 -0.0020680374
0.0062914854 0.0035072525 0.0063344315 -0.0043869507 -4.6237634e-05 0.01020033 0.00428633 0.006645191
0.007368065 -0.006171433 0.00911256 -0.0028673578 -0.0069307047 0.0029018307 0.002379561 -0.015938824
-0.0045764972 0.0059657376 -0.0021101036 -0.004336826 0.0012661036 0.0059237196 0.00062532944 -0.009107216
0.00090668426 -0.006429854 -0.0037121156 -0.004469421 -1.3821758e-05 0.006515544 -0.0004400798 -9.73728e-05
-0.0009458199 -0.0020531008 0.008682398 -0.0027481762 -0.0030414462
00000000: da5a e038 3750 e03b 3a00 b0b9 611c 913b
00000010: 17f5 7d3a c789 a7b9 2dd8 cc3b 8892 7dbb
00000020: fc99 c4bb 8542 b8bb 045a 28bc 25d7 38bb
00000030: 1980 7d3b b24a c6ba 94bb f9ba d9de 62bb
00000040: caa0 48bc 8e25 82bc ec1b 8cbb d236 ef3a
00000050: d594 68bb 1a9c 193a 0754 70bb a9e5 fa3a
00000060: 56d6 d9bb 8619 0cbc 2d93 a6ba b085 a9bb
00000070: ab45 f43b bab8 c9ba 5efb 47ba 3943 a73a
00000080: ca05 99bb 082e d0ba 337b 28b6 d806 28bb
00000090: aa2c 393a 15ea a5bb 4e23 353b b2b7 0ebc
000000a0: d70a 5d3a b23a d3ba a524 d73b 74bc 9bbb
000000b0: dddf ff38 ce4d 28bc d8de 6cbb a525 723b
000000c0: 62ea 52bc 42d6 84bb e13b cabb f28c c53a
000000d0: f80f ceb9 7a8d f2bb b00e dabb 536b d33b
000000e0: c467 9d3b 6030 b7bb 54b6 26bb 42f4 ec3a
000000f0: 607b cbbb 70c4 3539 b726 37ba f522 39ba
00000100: 503c d53a 4dc7 c2bb 832b e8bb ebdc 173b
00000110: f2f2 8ebb bf75 873b bbb3 773b 4a84 c4bb
00000120: aafa d43b 542f 093c 4e3e 113c 39e4 3d3c
00000130: 1fe3 ac3b 0840 b43a 4d45 dfba e987 07bb
00000140: ce28 ce3b efd9 653b 1091 cf3b 69c0 8fbb
00000150: 48ef 41b8 491f 273c 5874 8c3b e7bf d93b
00000160: cf6f f13b bb39 cabb d94c 153c 48ea 3bbb
00000170: f71a e3bb a42c 3e3b 69f2 1b3b 2392 82bc
00000180: 71f6 95bb 3c7c c33b aa49 0abb ef1b 8ebb
00000190: 63f3 a53a c31b c23b 26ed 233a 6f36 15bc
000001a0: 8dae 6d3a 86b1 d2bb f746 73bb 3974 92bb
000001b0: 00e4 67b7 5880 d53b 83ba e6b9 a034 ccb8
000001c0: e6f0 77ba 518d 06bb 9e40 0e3c bf1a 34bb
000001d0: 0053 47bb

running_var f4 [117]
0.9851354 0.99282384 1.0040318 0.9863939 1.0017569 0.98875034 0.9904325 0.9858609
0.9826685 0.98649246 0.99020517 0.9912115 1.0073082 0.9972703 0.9769909 0.980288
0.9695098 0.9736353 1.0042329 0.9984585 0.9834405 0.99884313 0.99900025 1.001644
1.0026276 1.0038362 0.9929539 1.018684 1.0007787 1.0116378 1.0098174 1.0060844
0.9949392 0.99145746 1.0060071 0.9839003 0.99289936 1.0034866 0.99679005 0.9832683
1.004018 0.99144465 1.0280595 1.0047415 1.0081075 0.9907167 0.9917321 0.99414104
0.97870344 1.0044972 0.9966239 0.99551827 1.0119638 0.9963404 1.0008504 1.0154151
1.0241741 0.9795105 0.97267073 1.0129669 1.0009257 1.0009516 1.0061289 0.9922205
0.98589087 0.9933794 0.9346468 1.0062029 0.9980375 0.99151665 1.00938 0.9820036
0.9997076 1.0096042 1.0774484 1.0025854 0.98326576 1.0200843 0.9513018 0.9763327
1.0175077 1.0916036 1.008272 0.9728216 1.0085577 1.0210521 1.0028918 1.0180357
1.0041127 0.92780465 1.0414853 1.0212618 0.96882784 0.9883548 1.0005784 0.95618075
0.9990937 0.99839056 0.9809141 0.9692747 1.0115851 1.0046133 0.9973229 0.9788946
1.0019671 0.9932469 0.97066116 0.99556214 1.0100074 1.1199224 1.0013518 1.018355
0.97442424 1.037803 1.0235337 1.0095114 0.98576576
00000000: d531 7c3f b429 7e3f 1d84 803f 5084 7c3f
00000010: 9239 803f be1e 7d3f fc8c 7d3f 6161 7c3f
00000020: 2a90 7b3f c58a 7c3f 167e 7d3f 09c0 7d3f
00000030: 7aef 803f 1b4d 7f3f 131c 7a3f 28f4 7a3f
00000040: cb31 783f 2a40 793f b48a 803f fa9a 7f3f
00000050: c2c2 7b3f 2fb4 7f3f 7bbe 7f3f df35 803f
00000060: 1a56 803f b47d 803f 3a32 7e3f 3d64 823f
00000070: 8419 803f 597d 813f b241 813f 60c7 803f
00000080: 56b4 7e3f 28d0 7d3f d7c4 803f e4e0 7b3f
00000090: a72e 7e3f 4072 803f a22d 7f3f 79b7 7b3f
000000a0: a983 803f 51cf 7d3f 7497 833f 5f9b 803f
000000b0: ab09 813f 9c9f 7d3f 28e2 7d3f 0780 7e3f
000000c0: 4f8c 7a3f 5d93 803f be22 7f3f 49da 7e3f
000000d0: 0888 813f 2a10 7f3f de1b 803f 1ff9 813f
000000e0: 2318 833f 33c1 7a3f f300 793f e6a8 813f
000000f0: 551e 803f 2f1f 803f d5c8 803f 2a02 7e3f
00000100: 5863 7c3f 1d4e 7e3f 0345 6f3f 42cb 803f
00000110: 637f 7f3f 09d4 7d3f 5d33 813f 9764 7b3f
00000120: d6ec 7f3f b63a 813f d4e9 893f b854 803f
00000130: 4eb7 7b3f 1f92 823f 8488 733f f1f0 793f
00000140: b13d 823f abb9 8b3f 0f0f 813f d60a 793f
00000150: 6b18 813f d6b1 823f c25e 803f fe4e 823f
00000160: c486 803f 9b84 6d3f 644f 853f b5b8 823f
00000170: 1a05 783f d204 7d3f f412 803f 43c8 743f
00000180: 9bc4 7f3f 8696 7f3f 301d 7b3f 6322 783f
00000190: 9f7b 813f 2b97 803f 8e50 7f3f d698 7a3f
000001a0: 7540 803f 6e45 7e3f 407d 783f 29dd 7e3f
000001b0: ec47 813f 9e59 8f3f 4c2c 803f 7559 823f
000001c0: de73 793f bbd6 843f 2703 833f ab37 813f
000001d0: 255b 7c3f

weight f4 [200, 117]
-0.019186165 0.030792836 -0.08570636 -0.061768636 -0.018794183 0.025801977 0.021410601 0.06390601
-0.018805938 0.022308245 -0.015331755 -0.00085747277 -0.067630954 -0.077778965 -0.031193007 -0.012195675
0.0117549645 0.046870276 -0.07086126 -0.032604158 0.010743541 0.061401434 -0.016782101 0.05983504
-0.001482611 -0.007841563 0.06960554 -0.07292834 -0.07545144 -0.023763131 -0.041357037 0.09454112
-0.0715152 -0.05148819 -0.07724282 -0.0899348 -0.050868116 0.08139402 0.04629947 0.052463893
0.024861606 -0.06552529 0.011677681 -0.06608355 -0.04779363 -0.05809935 0.07433421 0.07263732
-0.055159595 -0.006883324 0.048577543 0.07695284 0.038279902 0.0071843467 0.06316174 -0.05402839
0.012982897 -0.09160379 -0.06572226 -0.06782558 0.03326801 0.05578012 -0.047699306 0.016542932
0.05296543 0.00062202575 0.0084246425 0.015258386 0.06612249 0.09032285 -0.050496887 -0.041295376
0.045418154 0.062316943 0.08055508 0.10482718 0.03646397 -0.08851606 0.02702864 -0.049003232
-0.09144755 0.0717736 0.08980749 -0.10096377 -0.0011046822 0.007628277 -0.035448395 -0.033534456
0.034704622 -0.03664553 0.03347943 0.03173792 0.08205521 0.032489162 -0.09430374 -0.08396127
0.029576514 0.025495399 -0.064628705 -0.061865404 0.103999555 0.05515744 -0.06472066 -0.021192314
-0.06873731 -0.008328264 -0.085846566 -0.07202503 -0.009814996 0.010774102 -0.052060336 0.03567314
-0.028605577 0.08363814 0.081283405 -0.08674672 -0.04392158 -0.0036495808 0.025721878 3.125111e-05
0.05049589 -0.0027406083 -0.046628773 0.057711016 -0.095836215 -0.051508836 -0.020864587 -0.054847002
-0.039194327 -0.061453037 -0.036768824 0.017288398 -0.06667126 -0.0048050196 0.05408212 -0.00046457944
0.020991487 -0.017766738 0.023927253 0.052348845 0.07586618 0.072680615 0.08752089 -0.007847412
-0.080232546 -0.060806245 0.04616012 -0.016612027 -0.04910676 -0.078535385 -0.09559871 -0.09514517
-0.014890179 0.045728914 0.03350162 -0.093426 0.06696379 -0.06753923 -0.011227212 -0.040821414
-0.016486982 -0.018007107 -0.07980067 -0.09085052 -0.025677074 -0.00074804167 -0.03625298 0.023449987
-0.08307443 -0.0068136463 0.06614954 -0.039166234 0.07271458 0.0117108235 -0.07944727 0.050130054
-0.015505011 -0.060520187 0.08243329 -0.06609173 0.013716364 -0.033936396 0.082909696 0.040262956
0.054835185 0.039512802 -0.023670452 -0.026366923 -0.062190577 0.04674067 0.07705235 0.07171849
-0.05860613 0.01710545 -0.07234265 -0.038401954 -0.037520576 0.03929664 -0.054810695 -0.0051901178
0.0085034575 0.04037174 -0.0610603 -0.06294035 -0.068551265 0.061660707 -0.020199358 0.090529166
0.022191923 0.022932239 -0.01868707 -0.006926731 0.02319207 -0.03309071 0.0042764232 0.02403088
-0.07518341 -0.044559292 0.06750365 -0.0794763 0.00021335701 0.09444598 0.03605483 0.015489438
-0.077738814 0.029987859 -0.061009202 -0.039004494 -0.023157973 -0.021665111 0.00931464 0.062002823
0.021798406 0.071006246 0.07308762 -0.06465949 0.020673994 -0.07615851 -0.020938661 0.04194733
0.026867 0.067536645 -0.026677633 -0.0029415193 0.056895256 -0.08667305 0.08492012 -0.09567025
-0.0021576053 -0.008990698 -0.040624462 0.024088755 0.07264252 -0.035337538 -0.051268753 -0.04048308
00000000: 4e2c 9dbc 4241 fc3c d186 afbd 1c01 7dbd
00000010: 42f6 99bc ab5e d33c 4965 af3c 27e1 823d
00000020: e90e 9abc c8bf b63c 0b32 7bbc 06c8 60ba
00000030: 1982 8abd 944a 9fbd 7a88 ffbc 5ed0 47bc
00000040: e597 403c 0cfb 3f3d b51f 91bd f08b 05bd
00000050: ad05 303c 1280 7b3d 9e7a 89bc 9615 753d
00000060: 2c54 c2ba e679 00bc 598d 8e3d 745b 95bd
00000070: 4986 9abd e6aa c2bc ff65 29bd c69e c13d
00000080: 9076 92bd 48e5 52bd 7c31 9ebd bd2f b8bd
00000090: 165b 50bd e8b1 a63d 83a4 3d3d 61e4 563d
000000a0: 91aa cb3c 2032 86bd be53 3f3c d056 87bd
000000b0: 41c3 43bd 96f9 6dbd 893c 983d e0c2 943d
000000c0: 07ef 61bd 828d e1bb 3ff9 463d 7399 9d3d
000000d0: 63cb 1c3d ab6a eb3b f15a 813d e04c 5dbd
000000e0: 38b6 543c c59a bbbd 6499 86bd 23e8 8abd
000000f0: 0944 083d b279 643d 5960 43bd 0b85 873c
00000100: 47f2 583d 710f 233a 8307 0a3c 4ffe 793c
00000110: 3a6b 873d 30fb b83d d3d5 4ebd 5725 29bd
00000120: 6308 3a3d 0d40 7f3d 10fa a43d a2af d63d
00000130: 3e5b 153d e847 b5bd 2b6b dd3c 9db7 48bd
00000140: da48 bbbd 0afe 923d fdec b73d 18c6 cebd
00000150: fcca 90ba a0f6 f93b 5632 11bd 6d5b 09bd
00000160: 6f26 0e3d a019 16bd ba21 093d 9fff 013d
00000170: 900c a83d 5b13 053d 5222 c1bd e3f3 abbd
00000180: 724a f23c badb d03c 0e5c 84bd 9466 7dbd
00000190: b8fd d43d c5ec 613d 448c 84bd 819b adbc
000001a0: 26c6 8cbd 4573 08bc 53d0 afbd dc81 93bd
000001b0: 14cf 20bc dc85 303c 383d 55bd 001e 123d
000001c0: 3e56 eabc 794a ab3d ea77 a63d 44a8 b1bd
000001d0: 1de7 33bd ce2d 6fbb b0b6 d23c a013 0338
000001e0: c7d4 4e3d c79b 33bb d0fd 3ebd 6362 6c3d
000001f0: c745 c4bd eefa 52bd 36ec aabc 40a7 60bd
00000200: 3b8a 20bd 2eb6 7bbd e89a 16bd 66a0 8d3c
00000210: f18a 88bd 6d73 9dbb 3785 5d3d cc92 f3b9
00000220: 57f6 ab3c 8d8b 91bc 1603 c43c be6b 563d
00000230: ba5f 9b3d 93d9 943d 273e b33d 6e92 00bc
00000240: f650 a4bd f80f 79bd 6512 3d3d f215 88bc
00000250: 2c24 49bd 29d7 a0bd 42c9 c3bd 79db c2bd
00000260: f0f5 73bc 3e4e 3b3d ff38 093d 2156 bfbd
00000270: 5024 893d 0252 8abd 57f2 37bc 5b34 27bd
00000280: b50f 87bc a483 93bc 896e a3bd d60f babd
00000290: ba58 d2bc 3a18 44ba 017e 14bd 301a c03c
000002a0: ed22 aabd 0245 dfbb 6979 873d c66c 20bd
000002b0: 62eb 943d c1de 3f3c 40b5 a2bd 2c55 4d3d
000002c0: bb08 7ebc 04e4 77bd c9d2 a83d 1a5b 87bd
000002d0: 9aba 603c e400 0bbd 8fcc a93d c5ea 243d
000002e0: dc9a 603d 2dd8 213d 89e8 c1bc 72ff d7bc
000002f0: 8cbb 7ebd 2573 3f3d 9fcd 9d3d 25e1 923d
00000300: fb0c 70bd bb20 8c3c 6228 94bd 5e4b 1dbd
00000310: 2daf 19bd 83f5 203d 2e81 60bd dd11 aabb
00000320: 1652 0b3c d65c 253d 5d1a 7abd dfe6 80bd
00000330: 9b64 8cbd f08f 7c3d 2079 a5bc 5b67 b93d
00000340: d6cb b53c 64dc bb3c a015 99bc a2f9 e2bb
00000350: 4cfd bd3c 208a 07bd 3d21 8c3b 68dc c43c
00000360: c2f9 99bd ce83 36bd 5b3f 8a3d 78c4 a2bd
00000370: 96b8 5f39 e56c c13d 3bae 133d 69c7 7d3c
00000380: 8735 9fbd 19a9 f53c c9e4 79bd 2dc3 1fbd
00000390: cab5 bdbc 087b b1bc 6f9c 183c acf6 7d3d
000003a0: 9292 b23c b96b 913d f6ae 953d 326c 84bd
000003b0: 825c a93c fef8 9bbd 8e87 abbc f7d0 2b3d
000003c0: 2f18 dc3c a750 8a3d 0d8b dabc 81c6 40bb
000003d0: 000b 693d a481 b1bd 9aea ad3d c4ee c3bd
000003e0: 9c66 0dbb b84d 13bc d665 26bd c855 c53c
000003f0: 9ac5 943d 18be 10bd 2fff 51bd 96d1 25bd

weight f4 [200]
0.9815128 0.9967109 0.99983525 0.9807566 1.0066063 0.9836357 1.0165337 1.0073591
0.98451704 1.0013943 0.9787284 1.0066806 0.984413 0.9950661 1.030968 0.98943084
1.0098993 0.98215723 1.0128185 1.0200061 1.0029559 0.99539644 0.99119717 1.0087895
0.99087673 0.9932924 0.9833809 1.0217469 0.98622847 0.99628544 1.0065141 1.0061235
1.0021476 1.0184183 1.0089675 1.0208675 0.9921211 0.983671 1.0213885 1.0168103
0.98527724 1.0068089 0.98366857 0.99573773 1.0217307 1.0003874 1.024788 1.0222745
1.0072831 0.9833122 0.98865163 0.98421556 1.0199615 1.0173875 1.0146686 0.9922576
1.0054758 1.0081778 1.0045625 0.9839605 1.0133468 1.0037692 0.9913791 0.98735046
0.99652696 0.9964993 1.0252581 1.0230058 0.995163 1.007034 1.0076804 0.98568946
1.0137613 1.0158266 0.9752838 0.9996877 1.0124352 0.99047 0.9801163 0.9899556
1.0089226 1.0060588 1.0178562 0.99913734 0.98066086 0.9913953 0.997382 1.0009499
1.0021223 1.0162146 0.9946354 0.9924289 1.0073475 1.0189836 0.9931548 1.0094986
0.98932934 1.0074797 1.0224818 1.0149382 1.0118495 1.019498 1.0163324 0.98728424
1.0084757 0.99849373 0.98755705 1.0231384 1.0076511 0.9827368 0.9857744 1.0002416
0.9957685 1.0150108 0.9822573 0.9838725 0.9956333 1.014004 1.0026125 1.0257113
1.0212827 0.9940929 0.981875 1.0075948 1.013074 0.9798836 0.9959627 0.9851767
0.9870585 0.987931 0.9916993 1.0231711 0.9994599 1.0061281 0.99768776 0.9791889
0.9983392 1.0184352 1.0006247 1.018364 1.0142452 0.9813206 0.987718 0.9865603
0.9870045 0.97748214 0.9826397 0.9950596 0.99962825 0.9938301 1.0001339 1.0223086
0.9955448 1.0126481 0.990321 0.9967649 1.0040933 1.0031493 0.9925827 1.0074508
1.0203794 0.9956947 1.0075879 0.98464155 1.0128831 0.9925093 0.9802001 0.985339
0.9982011 0.9958354 0.9952397 0.997134 0.9866204 0.99246824 0.9932362 1.0180818
1.0129268 1.0014067 1.0095198 1.0216153 0.99064744 0.97573143 1.0023292 0.9934029
0.9993122 0.9879549 1.0108446 1.0234066 1.0141954 0.99493647 1.0065043 1.0061188
1.0009165 1.009829 0.9954129 1.0087243 1.0039054 1.0083632 1.0142835 1.0111781
00000000: 6c44 7b3f 7228 7f3f 34f5 7f3f dd12 7b3f
00000010: 7ad8 803f 8dcf 7b3f c71d 823f 25f1 803f
00000020: 4f09 7c3f b02d 803f f28d 7a3f e9da 803f
00000030: 7e02 7c3f a7bc 7e3f c2f6 833f 574b 7d3f
00000040: 6144 813f a86e 7b3f 09a4 813f 8f8f 823f
00000050: dc60 803f 4dd2 7e3f 19bf 7d3f 0420 813f
00000060: 19aa 7d3f 6948 7e3f dabe 7b3f 9ac8 823f
00000070: 7879 7c3f 900c 7f3f 74d5 803f a8c8 803f
00000080: 5f46 803f 885b 823f d925 813f c9ab 823f
00000090: a6fb 7d3f ddd1 7b3f dcbc 823f d726 823f
000000a0: 213b 7c3f 1ddf 803f b4d1 7b3f abe8 7e3f
000000b0: 12c8 823f b20c 803f 412c 833f e4d9 823f
000000c0: a7ee 803f 59ba 7b3f 4618 7d3f 8df5 7b3f
000000d0: 198e 823f c139 823f a9e0 813f 9804 7e3f
000000e0: 6eb3 803f f80b 813f 8195 803f d6e4 7b3f
000000f0: 59b5 813f 827b 803f 05cb 7d3f 00c3 7c3f
00000100: 641c 7f3f 941a 7f3f a83b 833f dbf1 823f
00000110: 01c3 7e3f 7de6 803f acfb 803f 2556 7c3f
00000120: eec2 813f 9b06 823f 33ac 793f 88eb 7f3f
00000130: 7a97 813f 718f 7d3f e7e8 7a3f bb6d 7d3f
00000140: 6024 813f 89c6 803f 1d49 823f 77c7 7f3f
00000150: 970c 7b3f 15cc 7d3f 6d54 7f3f 201f 803f
00000160: 8b45 803f 5213 823f 6da0 7e3f d20f 7e3f
00000170: c3f0 803f 0e6e 823f 653f 7e3f 4037 813f
00000180: b044 7d3f 18f5 803f afe0 823f 7fe9 813f
00000190: 4984 813f e97e 823f 2e17 823f a9be 7c3f
000001a0: bb15 813f 499d 7f3f 8ad0 7c3f 33f6 823f
000001b0: b6fa 803f a494 7b3f b65b 7c3f eb07 803f
000001c0: afea 7e3f e0eb 813f 3775 7b3f 11df 7b3f
000001d0: d3e1 7e3f e2ca 813f 9b55 803f 824a 833f
000001e0: 64b9 823f df7c 7e3f 295c 7b3f def8 803f
000001f0: 69ac 813f a7d9 7a3f 69f7 7e3f 8a34 7c3f
00000200: deaf 7c3f 0ce9 7c3f 01e0 7d3f 45f7 823f
00000210: 9bdc 7f3f cec8 803f 7768 7f3f 20ac 7a3f
00000220: 2893 7f3f 165c 823f 7814 803f c059 823f
00000230: c9d2 813f d437 7b3f 16db 7c3f 378f 7c3f
00000240: 54ac 7c3f 453c 7a3f 468e 7b3f 3abc 7e3f
00000250: a3e7 7f3f a66b 7e3f 6304 803f 02db 823f
00000260: 06dc 7e3f 749e 813f ad85 7d3f fc2b 7f3f
00000270: 2186 803f 3267 803f e619 7e3f 26f4 803f
00000280: cb9b 823f d9e5 7e3f a4f8 803f 7811 7c3f
00000290: 27a6 813f 1715 7e3f 65ee 7a3f 2d3f 7c3f
000002a0: 1b8a 7f3f 12ef 7e3f 07c8 7e3f 2c44 7f3f
000002b0: 2893 7c3f 6612 7e3f ba44 7e3f 8150 823f
000002c0: 96a7 813f 182e 803f f237 813f 4ac4 823f
000002d0: 129b 7d3f 89c9 793f 534c 803f a74f 7e3f
000002e0: edd2 7f3f 9dea 7c3f 5b63 813f fdfe 823f
000002f0: 28d1 813f 28b4 7e3f 22d5 803f 80c8 803f
00000300: 081e 803f 1442 813f 61d3 7e3f e11d 813f
00000310: f97f 803f 0c12 813f 0bd4 813f 496e 813f

bias f4 [200]
0.010479307 0.006565388 -0.018906394 -0.015800899 -0.0034779813 -0.012467356 -0.009213514 0.019276213
-0.0044066887 0.008270007 -0.0128738955 -0.014823443 0.013758672 0.01182982 -0.013759103 -0.015530766
0.014893116 0.00889859 0.006426444 -0.0012680533 0.017683439 -0.0053210924 0.012400483 0.011020438
-0.0025650098 -0.008708466 -0.01767491 -0.006514115 -0.0056695836 -0.0055864095 -0.0086521255 -0.00018566311
-0.0069346544 -0.0054396885 -0.005735019 -0.0116521055 -0.010283984 -0.0059222984 -0.019478451 0.015379683
0.019953217 -0.0115605695 -0.014222158 0.0010968733 -0.0012000703 0.01704954 -0.006183096 0.005742615
-0.011085293 0.013348265 0.014070327 -0.0053709364 0.017788414 -0.015078732 -0.007649682 -0.011666526
-0.015765425 -0.010414298 0.005287663 0.025715908 -0.0044772173 0.017884703 -0.01490715 0.0002814862
-0.0011268355 0.0209534 0.009072024 -0.02162799 0.0039644595 -0.002664329 0.003243655 0.0021018179
-0.008260271 0.013224908 -0.00077995576 0.011336482 -0.0027643128 0.022280276 -0.014982924 -0.025868174
-0.0054109474 0.002405625 0.0020135741 -0.008742554 0.0042423005 0.0075731482 -0.0058161197 0.0118460115
0.0017832204 0.0006147222 0.008947612 0.0075689284 -0.007109988 -0.013347907 0.008115911 -0.0013009771
0.012267065 -0.012741495 -0.013389197 0.009211742 -0.017690286 0.0053127445 0.008760366 -0.011830672
0.017765924 -0.0014834206 0.021105185 -0.02029242 -0.0022478397 0.013593062 -0.007022337 0.01718594
0.0113770235 0.0005554822 0.0004946448 0.008460602 -0.008356385 -0.010263069 0.017653726 0.014184882
0.007880925 -0.009420713 0.014068559 -0.010127859 0.009444476 0.00081510167 0.0053808 -0.017402772
-0.0168923 0.001969816 0.011164617 -0.00039397692 0.012620346 0.009783836 -0.015158076 -0.017044242
-0.0071105245 -0.018224344 0.0072138915 0.0083153695 -0.00598227 -0.0013135679 0.010402905 0.0070598177
-0.0118010845 -0.001260629 0.015460799 -0.01304995 0.0024057562 -0.007449071 0.009039803 -0.01871421
0.012073623 0.012723001 0.022798667 -0.0056556254 0.004348911 -0.00032035753 -0.010215544 -0.012894419
-0.009949805 -0.008616661 -0.0027752926 0.015435148 0.015594589 0.010201605 -0.014252061 0.0007097791
0.019488 0.014447139 -0.009215107 0.019807322 -0.016934838 0.0025410268 0.002537595 -0.0052169
-0.013273132 -0.004784446 0.0045989994 -0.015746888 -0.00023444093 -0.00028854737 -0.0027365105 -0.0033776688
-0.016602432 0.009180544 0.013422478 -0.013062952 0.0074211406 0.020120325 0.02379627 0.007964592
-0.00051772787 0.006292871 0.028122194 0.004886646 -0.018083295 0.019595051 0.0038144134 0.027436076
00000000: 66b1 2b3c 7722 d73b 95e1 9abc e370 81bc
00000010: d8ee 63bb e243 4cbc 47f4 16bc 26e9 9d3c
00000020: fc65 90bb ec7e 073c 08ed 52bc 07de 72bc
00000030: 0e6c 613c ddd1 413c dc6d 61bc c174 7ebc
00000040: 4202 743c 64cb 113c eb94 d23b cf34 a6ba
00000050: dcdc 903c 8f5c aebb 652b 4b3c 118f 343c
00000060: b919 28bb f4ad 0ebc f9ca 90bc 5b74 d5bb
00000070: eac7 b9bb 330e b7bb a5c1 0dbc 90ae 42b9
00000080: 193c e3bb 6a3f b2bb d4ec bbbb 79e8 3ebc
00000090: 287e 28bc d70f c2bb 4691 9fbc 11fb 7b3c
000000a0: ee74 a33c 8b68 3dbc 0e04 69bc f6c4 8f3a
000000b0: ad4b 9dba 7aab 8b3c 929b cabb 8c2c bc3b
000000c0: 179f 35bc aeb2 5a3c 3b87 663c aefe afbb
000000d0: 02b9 913c c90c 77bc 2faa fabb f524 3fbc
000000e0: 7e26 81bc bba0 2abc 2244 ad3b 2baa d23c
000000f0: 9fb5 92bb f182 923c 1e3d 74bc 7094 9339
00000100: 53b2 93ba 77a6 ab3c d4a2 143c 2f2d b1bc
00000110: 4ce8 813b 069c 2ebb 8093 543b a7be 093b
00000120: 1656 07bc 49ad 583c f275 4cba a7bc 393c
00000130: 7929 35bb 2085 b63c f07a 75bc 7ee9 d3bc
00000140: 514e b1bb b1a7 1d3b 2bf6 033b ee3c 0fbc
00000150: ff02 8b3b 2c28 f83b 2695 bebb c615 423c
00000160: f3ba e93a 4f25 213a 0199 123c c604 f83b
00000170: e7fa e8bb 2eb1 5abc 99f8 043c 8c85 aaba
00000180: cdfb 483c b4c1 50bc 5d5e 5bbc d9ec 163c
00000190: 38eb 90bc 8816 ae3b a387 0f3c 6fd5 41bc
000001a0: d889 913c 566f c2ba c8e4 ac3c 4a3c a6bc
000001b0: 7e50 13bb 6fb5 5e3c a21b e6bb 87c9 8c3c
000001c0: b266 3a3c c89d 113a 0dab 013a 569e 0a3c
000001d0: 38e9 08bc 6e26 28bc 8c9e 903c b567 683c
000001e0: ff1e 013c 5659 1abc d07f 663c 52ef 25bc
000001f0: 01bd 1a3c 8cac 553a 6c51 b03b 4290 8ebc
00000200: b961 8abc 0718 013b cceb 363c b08e ceb9
00000210: 91c5 4e3c 624c 203c 9459 78bc 5ea0 8bbc
00000220: 67ff e8bb 384b 95bc 8262 ec3b 303d 083c
00000230: eb06 c4bb 062c acba f270 2a3c 0b56 e73b
00000240: 5659 41bc b13b a5ba 4b4f 7d3c 75cf 55bc
00000250: e4a9 1d3b 5617 f4bb af1b 143c 8b4e 99bc
00000260: 72d0 453c 2274 503c 45c4 ba3c d352 b9bb
00000270: 4f81 8e3b a9f5 a7b9 195f 27bc 1d43 53bc
00000280: 8204 23bc e52c 0dbc afe1 35bb b4e3 7c3c
00000290: 7280 7f3c a224 273c 7a81 69bc 7810 3a3a
000002a0: 4ca5 9f3c b1b3 6c3c f6fa 16bc f742 a23c
000002b0: eeba 8abc 5b87 263b c84d 263b 87f2 aabb
000002c0: 8d77 59bc d8c6 9cbb 34b3 963b 9eff 80bc
000002d0: 42d4 75b9 2c48 97b9 0757 33bb e15b 5dbb
000002e0: d301 88bc fe69 163c f4e9 5b3c fe05 56bc
000002f0: 0a2d f33b 61d3 a43c 65f0 c23c ec7d 023c
00000300: 21b8 07ba 6e34 ce3b 8460 e63c 2820 a03b
00000310: 6b23 94bc cd85 a03c 3dfb 793b 9fc1 e03c

running_mean f4 [200]
0.1782691 0.18436645 0.14492293 0.1729079 0.17251997 0.18020868 0.16464053 0.17195962
0.17501062 0.17873214 0.17176574 0.18379249 0.1633113 0.16367418 0.16606052 0.17200507
0.23024313 0.18554783 0.165818 0.15590018 0.18909794 0.1900076 0.20555301 0.17494972
0.16110063 0.17270586 0.17709069 0.16078855 0.1573025 0.16452634 0.17812496 0.17549767
0.1876089 0.1813094 0.1718939 0.17181855 0.15310858 0.1661782 0.17565168 0.17682883
0.16179484 0.17585623 0.19206625 0.22061554 0.16448066 0.19081073 0.16775444 0.17408878
0.16799305 0.16753599 0.15459235 0.18899989 0.18124498 0.20480248 0.17756133 0.17655106
0.17571563 0.20097217 0.20812407 0.1810967 0.15787992 0.20140035 0.18083462 0.18332653
0.16797289 0.17529745 0.18318266 0.19148578 0.19225901 0.19535947 0.17188331 0.21821484
0.16677506 0.15484247 0.18041092 0.19236809 0.16469021 0.19573629 0.17460345 0.16716655
0.1863691 0.18065543 0.19757295 0.191003 0.17261755 0.14865457 0.19987515 0.17477348
0.17539507 0.19641596 0.18041281 0.155435 0.1814577 0.1871311 0.17103745 0.15142621
0.14746091 0.16237783 0.15269566 0.18585102 0.1687244 0.20361662 0.18171996 0.18391578
0.18340683 0.17369023 0.18583435 0.17135674 0.1920824 0.17807665 0.18269217 0.16933733
0.15935826 0.21594773 0.18675792 0.15253347 0.16951351 0.1921283 0.20348366 0.1784114
0.1757795 0.17748211 0.19307029 0.18268824 0.17095344 0.1843038 0.1915601 0.18715435
0.20961963 0.1651018 0.1578072 0.16697817 0.15381409 0.1763979 0.17632687 0.17518495
0.17943618 0.16334175 0.16602497 0.17246582 0.17281297 0.16491763 0.16347814 0.14314206
0.17266814 0.15119861 0.14766093 0.16546433 0.15515509 0.20931482 0.19457817 0.23337002
0.18025766 0.17087436 0.19643284 0.1927807 0.18751606 0.18851812 0.13988508 0.15260069
0.17695849 0.16138086 0.18729739 0.1653133 0.2226118 0.16786844 0.17492646 0.16682096
0.1838381 0.15948181 0.19402634 0.17768976 0.16178702 0.19707212 0.18703718 0.16236167
0.1934734 0.18414783 0.20320645 0.19129671 0.17623265 0.21527053 0.22004151 0.18346459
0.16561893 0.16305302 0.17968465 0.17273025 0.16881287 0.15454286 0.18661274 0.16175826
0.1762668 0.18759003 0.17953663 0.16853091 0.17759977 0.15875582 0.17889981 0.17069101
00000000: 2d8c 363e 8fca 3c3e ad66 143e c50e 313e
00000010: 13a9 303e a088 383e 8797 283e 2f16 303e
00000020: fc35 333e 8f05 373e 5ce3 2f3e 1934 3c3e
00000030: 143b 273e 349a 273e c50b 2a3e 1922 303e
00000040: dbc4 6b3e 4000 3e3e 32cc 293e 4ca4 1f3e
00000050: e4a2 413e 5a91 423e 7d7c 523e 0526 333e
00000060: 90f7 243e ced9 303e 4357 353e c1a5 243e
00000070: e813 213e 9879 283e 6466 363e a9b5 333e
00000080: 8c1c 403e 2ca9 393e f404 303e 34f1 2f3e
00000090: 7fc8 1c3e 9e2a 2a3e 09de 333e 9e12 353e
000000a0: 8cad 253e a813 343e 04ad 443e 0ae9 613e
000000b0: 9e6d 283e e363 433e d2c7 2b3e 5444 323e
000000c0: 5f06 2c3e 8e8e 2b3e 754d 1e3e 3089 413e
000000d0: 4998 393e beb7 513e a3d2 353e cdc9 343e
000000e0: ccee 333e a6cb 4d3e 7a1e 553e 6a71 393e
000000f0: 46ab 213e e53b 4e3e b62c 393e f3b9 3b3e
00000100: 1601 2c3e 2d81 333e 3c94 3b3e d914 443e
00000110: 8cdf 443e 500c 483e 2e02 303e b673 5f3e
00000120: 15c7 2a3e 068f 1e3e a4bd 383e 24fc 443e
00000130: 8da4 283e 186f 483e 3fcb 323e b52d 2b3e
00000140: 8bd7 3e3e bdfd 383e 9050 4a3e 4a96 433e
00000150: a8c2 303e e738 183e 12ac 4c3e d2f7 323e
00000160: c49a 333e 4421 493e 23be 383e 5a2a 1f3e
00000170: 0cd0 393e 4c9f 3f3e 7124 2f3e 790f 1b3e
00000180: feff 163e 6046 263e 405c 1c3e bb4f 3e3e
00000190: 17c6 2c3e e080 503e cc14 3a3e 6b54 3c3e
000001a0: 00cf 3b3e dadb 313e 5c4b 3e3e 2478 2f3e
000001b0: 40b1 443e ba59 363e a813 3b3e c466 2d3e
000001c0: d02e 233e 6721 5d3e 783d 3f3e bc31 1c3e
000001d0: f394 2d3e 48bd 443e 055e 503e 7ab1 363e
000001e0: 8bff 333e dfbd 353e 38b4 453e a012 3b3e
000001f0: 6b0e 2f3e 23ba 3c3e 5528 443e 64a5 3f3e
00000200: 87a6 563e 7210 293e 3698 213e 53fc 2a3e
00000210: 7181 1d3e a7a1 343e 088f 343e af63 333e
00000220: 1ebe 373e 0f43 273e 7302 2a3e e19a 303e
00000230: e2f5 303e 2be0 283e d066 273e d593 123e
00000240: ebcf 303e cfd3 1a3e 6d34 173e 7b6f 293e
00000250: fae0 1e3e a056 563e 803f 473e 8df8 6e3e
00000260: 7795 383e b0f9 2e3e b125 493e 4e68 453e
00000270: 3604 403e e50a 413e 093e 0f3e 5b43 1c3e
00000280: 9b34 353e 0641 253e e3ca 3f3e e447 293e
00000290: 59f4 633e b4e5 2b3e ec1f 333e 1dd3 2a3e
000002a0: 0e40 3c3e 334f 233e d7ae 463e 4ef4 353e
000002b0: 7fab 253e 46cd 493e ad86 3f3e 2342 263e
000002c0: e41d 463e 4091 3c3e 5a15 503e 49e3 433e
000002d0: 5576 343e e16f 5c3e 9052 613e 24de 3b3e
000002e0: 0298 293e 5ff7 263e 41ff 373e 33e0 303e
000002f0: 48dd 2c3e 7c40 1e3e 6917 3f3e f5a3 253e
00000300: 497f 343e 9a17 403e 73d8 373e 5e93 2c3e
00000310: b7dc 353e e390 223e 8331 373e a0c9 2e3e

running_var f4 [200]
0.29703018 0.2995106 0.27337438 0.285272 0.29530832 0.29883608 0.2883422 0.29786453
0.29106852 0.28830358 0.29233536 0.29883674 0.28180182 0.27721792 0.2892021 0.29909116
0.36188146 0.2966461 0.2814858 0.2723622 0.29753435 0.30658728 0.32381284 0.28425512
0.28403008 0.3034025 0.28808615 0.28439638 0.28348455 0.28009248 0.30460754 0.304448
0.31541532 0.29092044 0.3015485 0.28112686 0.28413436 0.28875142 0.29171965 0.30619693
0.28359032 0.28840455 0.30746382 0.34586993 0.28531703 0.30522484 0.29537702 0.29484698
0.29048735 0.28700456 0.2837703 0.30733836 0.28816298 0.32080474 0.30467248 0.29727232
0.30654344 0.3181681 0.3187198 0.3068769 0.27067307 0.334995 0.29154056 0.31336215
0.28409168 0.28787938 0.30925596 0.30811638 0.32079616 0.3103564 0.27922177 0.35758513
0.29809186 0.2793452 0.2994131 0.34190267 0.2853273 0.3290279 0.29540953 0.28560328
0.30659193 0.3041764 0.31139266 0.30641887 0.2923362 0.27468464 0.32822683 0.29954365
0.29463267 0.31406227 0.2971122 0.2753156 0.30579245 0.31392208 0.29824752 0.27080968
0.27020404 0.2767979 0.2769436 0.2999453 0.28720313 0.32316783 0.29695886 0.31406906
0.31193444 0.29461604 0.3129073 0.29288277 0.3181188 0.2886156 0.2981619 0.30138686
0.28019053 0.3465729 0.29891115 0.2857372 0.2818495 0.32590243 0.32556984 0.29534236
0.30675697 0.302713 0.31542593 0.2986528 0.294458 0.31175038 0.3083778 0.32737717
0.33155522 0.28428093 0.28747696 0.28492507 0.27396137 0.29710183 0.29838628 0.30633596
0.30840424 0.28859138 0.29175004 0.2938838 0.28056616 0.28885025 0.2949166 0.2653399
0.29562575 0.27300203 0.28242135 0.28181493 0.2813911 0.326194 0.31286204 0.35994595
0.30913615 0.29804718 0.3060453 0.30358407 0.30759418 0.30561942 0.26187035 0.27447647
0.30175346 0.27563968 0.31369954 0.29167885 0.3255779 0.31225687 0.29681858 0.27963236
0.2919513 0.2850291 0.31550285 0.29473552 0.28537515 0.29706722 0.29764503 0.27635336
0.33285958 0.3065177 0.33248454 0.31009787 0.30030805 0.34077388 0.3416248 0.3098436
0.28324148 0.2923011 0.2909694 0.2883244 0.29431552 0.28693092 0.30028325 0.28193566
0.30638573 0.3012579 0.31721258 0.2866653 0.2961442 0.2920619 0.30288076 0.28086933
00000000: 5714 983e 7459 993e baf7 8b3e 2c0f 923e
00000010: a732 973e 0b01 993e 97a1 933e b381 983e
00000020: ef06 953e 879c 933e fbac 953e 2101 993e
00000030: 5448 903e 82ef 8d3e 4c12 943e 7a22 993e
00000040: 8748 b93e ffe1 973e e81e 903e 0f73 8b3e
00000050: 6c56 983e 02f9 9c3e ccca a53e e389 913e
00000060: 646c 913e 9357 9b3e 0780 933e 679c 913e
00000070: e324 913e 4868 8f3e 85f5 9b3e 9ce0 9b3e
00000080: 1e7e a13e 86f3 943e 9164 9a3e dcef 8f3e
00000090: 0f7a 913e 3ad7 933e 475c 953e d8c5 9c3e
000000a0: c032 913e c3a9 933e e66b 9d3e dd15 b13e
000000b0: 1315 923e 6e46 9c3e a83b 973e 2ff6 963e
000000c0: c2ba 943e 43f2 923e 574a 913e 745b 9d3e
000000d0: 198a 933e 8540 a43e 08fe 9b3e 1434 983e
000000e0: 43f3 9c3e eee6 a23e 3e2f a33e f81e 9d3e
000000f0: a995 8a3e 7784 ab3e ce44 953e 0171 a03e
00000100: 7774 913e ed64 933e cc56 9e3e 6ec1 9d3e
00000110: 653f a43e 09e7 9e3e 28f6 8e3e 6615 b73e
00000120: 7f9f 983e 5606 8f3e ad4c 993e de0d af3e
00000130: 6b16 923e 5876 a83e eb3f 973e 983a 923e
00000140: 9ef9 9c3e 02bd 9b3e dc6e 9f3e efe2 9c3e
00000150: 17ad 953e 77a3 8c3e 590d a83e c95d 993e
00000160: 18da 963e c5cc a03e 171f 983e 2bf6 8c3e
00000170: d490 9c3e 65ba a03e e6b3 983e 91a7 8a3e
00000180: 2f58 8a3e 74b8 8d3e 8dcb 8d3e 6e92 993e
00000190: 4a0c 933e 4176 a53e fe0a 983e a9cd a03e
000001a0: dfb5 9f3e ead7 963e 6335 a03e bbf4 953e
000001b0: 78e0 a23e 6dc5 933e ada8 983e 614f 9a3e
000001c0: 2275 8f3e 0172 b13e e20a 993e 254c 923e
000001d0: 944e 903e afdc a63e 17b1 a63e 1d37 973e
000001e0: 400f 9d3e 33fd 9a3e 827f a13e 05e9 983e
000001f0: 33c3 963e bf9d 9f3e b2e3 9d3e fb9d a73e
00000200: 9bc1 a93e 458d 913e 2e30 933e b3e1 913e
00000210: aa44 8c3e bb1d 983e 16c6 983e 11d8 9c3e
00000220: 29e7 9d3e 40c2 933e 4360 953e f077 963e
00000230: 5ea6 8f3e 2ee4 933e 4fff 963e a2da 873e
00000240: 425c 973e ecc6 8b3e 8899 903e 0c4a 903e
00000250: 7f12 903e e602 a73e 742f a03e d64a b83e
00000260: 1847 9e3e a499 983e f8b1 9c3e 5f6f 9b3e
00000270: fc7c 9d3e 267a 9c3e df13 863e 2e88 8c3e
00000280: 6e7f 9a3e a520 8d3e 3a9d a03e ee56 953e
00000290: 26b2 a63e 22e0 9f3e 9bf8 973e f92b 8f3e
000002a0: a47a 953e 56ef 913e 9789 a13e 93e7 963e
000002b0: b11c 923e 3219 983e ee64 983e 307e 8d3e
000002c0: 926c aa3e e3ef 9c3e 6a3b aa3e 26c5 9e3e
000002d0: fac1 993e ea79 ae3e 72e9 ae3e d2a3 9e3e
000002e0: 0705 913e 7da8 953e f1f9 943e 419f 933e
000002f0: 86b0 963e 9ce8 923e babe 993e df59 903e
00000300: 97de 9c3e 7a3e 9a3e b069 a23e cbc5 923e
00000310: 36a0 973e 2389 953e 3013 9b3e 1bce 8f3e

weight f4 [100, 200]
0.023563074 0.054699413 0.008869618 0.058240317 -0.0524613 0.0023348173 0.014917173 -0.071352184
-0.039235134 -0.030484032 0.026660897 -0.0254363 0.023708114 -0.048293635 0.06643156 0.05324397
0.047149733 0.029511545 -0.06819839 -0.037557445 0.04299753 -0.04199357 0.06627557 0.042101238
-0.038896225 0.034473643 0.048180025 0.054925885 -0.062129013 -0.014211129 0.0007975835 -0.032727398
0.0017499283 -0.033729184 0.035854056 0.046500497 0.005830715 -0.033546865 -0.0029665886 0.010185502
-0.045517012 0.050535034 -0.05860705 0.042502474 -0.019918488 0.06123135 0.06518761 0.03540137
-0.029147206 0.033352766 0.06153464 -0.039618082 -0.059361726 0.04604972 -0.023568299 -0.051735274
-0.04398786 -0.006186047 -0.04614906 -0.041632988 0.016588861 -0.045443285 0.0076500853 -0.0009816114
0.04924998 -0.045687526 0.028288327 -0.003064258 0.027096424 0.0470756 -0.064488575 0.0804728
-0.049703803 -0.06767577 -0.03335424 -0.037145477 0.01541764 -0.015521434 -0.05767476 -0.000751051
-0.052432973 -0.012232157 0.04290209 -0.008191907 -0.021726878 -0.051623587 0.08517609 -0.056201603
0.022542363 0.060577888 -0.015732704 -0.015532893 0.05732876 -0.056462497 -0.01698465 -0.039590485
-0.04844935 0.053398546 -0.0449582 0.0683958 -0.03180877 0.079194516 -0.055219438 -0.0149655
0.06678753 -0.061983027 -0.008781165 0.03583823 0.043595828 -0.007691017 -0.04177782 -0.0076057883
0.050835647 -0.029233627 -0.0075352807 -0.028429767 0.04577371 0.024632791 -0.024184035 0.08579593
0.04910303 -0.070635796 0.040507335 -0.060067955 0.060592256 -0.032204777 0.06656705 0.018622069
-0.005924663 0.054215614 -0.026865726 -0.020048572 0.013241116 0.047505368 0.03550554 -0.05585833
0.032304544 0.041206043 -0.024849597 0.03569139 5.6124194e-05 -0.012509578 0.008088244 -0.07373519
-0.04475518 0.04876513 0.050606504 -0.01035783 0.07151859 -0.026958669 0.07203537 0.0591986
0.034516986 -0.017852424 -0.017730443 0.038008183 -0.011359236 -0.05135921 0.031000173 -0.06334065
-0.0336887 0.060600173 0.020278348 0.018188419 0.06998687 -0.044567965 0.08819172 -0.048594106
-0.0066521736 -0.06630506 -0.05865797 0.018599842 0.004371298 0.052707043 -0.05413765 0.04023865
-0.026445735 0.03152049 -0.02838738 -0.004268084 0.008773203 -0.04058391 -0.06575607 -0.013771904
-0.057185803 -0.03427917 0.033048935 0.03423795 0.0037785443 0.008496997 0.039158363 -0.00841936
-0.01709591 -0.005931258 0.04811587 0.06465183 -0.008012166 0.065625966 0.045439854 0.041403696
0.005657167 -0.021007571 0.043341003 0.02212704 0.00022442645 0.05514031 -0.016140968 0.010848317
-0.024127025 -0.0124209635 -0.04015187 0.04857249 -0.055434506 0.009943178 0.055711284 -0.07167329
0.055362333 -0.060879305 0.029865053 0.04917664 0.010514438 0.033453688 0.046371534 0.062757224
-0.0009814375 0.017741853 0.016655246 0.039307874 0.011938741 0.041990004 -0.019439885 0.020280838
-0.023996139 0.0734035 -0.07783737 -0.02093869 -0.019487051 0.014601811 0.04669853 -0.03195657
0.043001153 -0.007768979 -0.016000822 -0.0070564947 -0.0016905833 -0.01736661 -0.04624904 0.0586305
0.012955522 0.013476617 -0.0036784788 0.028516527 -0.04502494 -0.067219436 -0.05561615 0.069469415
00000000: 5907 c13c 7e0c 603d e051 113c 668d 6e3d
00000010: a9e1 56bd bc03 193b 2967 743c 1821 92bd
00000020: 05b5 20bd a6b9 f9bc f467 da3c ca5f d0bc
00000030: 8537 c23c 8ccf 45bd 450d 883d 5916 5a3d
00000040: 1420 413d 32c2 f13c 99ab 8bbd d6d5 19bd
00000050: 2e1e 303d 7301 2cbd 7cbb 873d 5972 2c3d
00000060: a651 1fbd 3c34 0d3d 6b58 453d f7f9 603d
00000070: fe7a 7ebd ccd5 68bc ec14 513a 2a0d 06bd
00000080: da5d e53a 9d27 0abd b4db 123d 4e77 3e3d
00000090: 950f bf3b 7068 09bd 196b 42bb 17e1 263c
000000a0: 0c70 3abd d3fd 4e3d f20d 70bd 1317 2e3d
000000b0: 192c a3bc b9cd 7a3d 1581 853d 0701 113d
000000c0: 1fc6 eebc e99c 083d bf0b 7c3d 9246 22bd
000000d0: 4825 73bd a29e 3c3d 4e12 c1bc 5ee8 53bd
000000e0: 9d2c 34bd 53b4 cabb cc06 3dbd 5a87 2abd
000000f0: 5de5 873c bd22 3abd 91ad fa3b 6aa9 80ba
00000100: 59ba 493d d822 3bbd ecbc e73c b8d1 48bb
00000110: 52f9 dd3c 58d2 403d 9612 84bd ecce a43d
00000120: 3796 4bbd 9899 8abd 759e 08bd db25 18bd
00000130: 459a 7c3c 9d4d 7ebc 5f3c 6cbd 2ee2 44ba
00000140: f5c3 56bd 6369 48bc 1aba 2f3d 5937 06bc
00000150: 91fc b1bc 4173 53bd cd70 ae3d a733 66bd
00000160: c3aa b83c 8520 783d dfe1 80bc ad7d 7ebc
00000170: 90d1 6a3d 3845 67bd 6523 8bbc a229 22bd
00000180: d372 46bd 6fb8 5a3d 1726 38bd 1913 8c3d
00000190: ea49 02bd bc30 a23d c72d 62bd db31 75bc
000001a0: e7c7 883d eae1 7dbd e0de 0fbc 1ccb 123d
000001b0: 8a91 323d ed04 fcbb 381f 2bbd fa39 f9bb
000001c0: 0a39 503d 5c7b efbc 84ea f6bb 8be5 e8bc
000001d0: 377d 3b3d b5ca c93c 991d c6bc c7b5 af3d
000001e0: 4220 493d 80a9 90bd 05eb 253d d109 76bd
000001f0: 962f 783d 28e9 03bd 4e54 883d 4f8d 983c
00000200: ad23 c2bb 3111 5e3d 8315 dcbc e73c a4bc
00000210: 44f1 583c fd94 423d 426e 113d b4cb 64bd
00000220: c551 043d abc7 283d 6291 cbbc 2331 123d
00000230: e566 6b38 f9f4 4cbc 8e84 043c 7a02 97bd
00000240: 3551 37bd f2bd 473d c448 4f3d e3b3 29bc
00000250: 5778 923d 6dd8 dcbc 4887 933d 3b7a 723d
00000260: af61 0d3d 3f3f 92bc 6f3f 91bc 78ae 1b3d
00000270: 171c 3abc 095e 52bd 13f4 fd3c beb8 81bd
00000280: 2afd 09bd e337 783d c71e a63c e1ff 943c
00000290: 4755 8f3d e68c 36bd dc9d b43d 9d0a 47bd
000002a0: 7afa d9bb f3ca 87bd 5743 70bd b25e 983c
000002b0: 1b3d 8f3b 57e3 573d 71bf 5dbd 48d1 243d
000002c0: baa4 d8bc a11b 013d a78c e8bc 49db 8bbb
000002d0: 7bbd 0f3c 503b 26bd 1eab 86bd 8da3 61bc
000002e0: a93b 6abd 5168 0cbd 525e 073d 183d 0c3d
000002f0: 74a1 773b fd36 0b3c 8564 203d 5bf1 09bc
00000300: b90c 8cbc 005b c2bb 2615 453d 2e68 843d
00000310: 7645 03bc e866 863d 241f 3a3d ec96 293d
00000320: c25f b93b 1218 acbc 5686 313d c443 b53c
00000330: 0454 6b39 ceda 613d 103a 84bc 24bd 313c
00000340: 0aa6 c5bc 4c81 4bbc 4a76 24bd f3f3 463d
00000350: 4b0f 63bd b6e8 223c 8431 643d 72c9 92bd
00000360: 9dc3 623d 945c 79bd 8ea7 f43c 726d 493d
00000370: c044 2c3c bc06 093d 14f0 3d3d dc86 803d
00000380: 94a3 80ba 5d57 913c 9570 883c 4b01 213d
00000390: b69a 433c b6fd 2b3d 6540 9fbc 0024 a63c
000003a0: 8d93 c4bc 9354 963d 3369 9fbd 9e87 abbc
000003b0: 4fa3 9fbc 6f3c 6f3c f546 3f3d e4e4 02bd
000003c0: fa21 303d eb92 febb 2814 83bc 2b3a e7bb
000003d0: 9096 ddba 6c44 8ebc a26f 3dbd 8926 703d
000003e0: 6643 543c 07cd 5c3c a212 71bb 7e9b e93c
000003f0: 126c 38bd 58aa 89bd c3cd 63bd fb45 8e3d

weight f4 [100]
0.98591113 0.99536073 0.99874645 1.0165335 1.0239898 0.99761444 0.98394644 1.00382
0.98467886 1.0126598 0.9900008 0.9913466 1.019379 0.99721557 1.0092324 1.016768
0.9938537 0.9958662 1.0077547 0.98402536 0.9936789 0.9972838 1.0093318 0.9972736
1.0085837 0.9870968 1.0095387 0.99738216 1.0020102 1.0064101 0.9929752 1.0157782
1.0187759 1.0118173 0.982865 1.0159364 0.99713284 1.0238532 1.001875 0.9906804
1.0213026 0.9944573 0.9825723 0.9905302 0.98607093 1.0071803 0.984944 1.0250328
1.0080729 1.0279586 1.0133643 0.99247503 0.99489915 1.0200145 0.983357 1.024923
1.010519 1.0282496 1.0156132 1.000673 0.9990903 0.99471533 1.0134012 0.9849209
1.0165466 1.0187811 0.99803936 1.0174148 1.0034189 0.992235 0.99229914 0.9932756
1.0220256 1.020626 0.99999374 0.9916656 0.9879887 1.014401 1.002552 1.0122151
0.99828 1.0149113 1.015476 0.99718684 1.0261959 0.98607296 1.0248404 0.99156296
1.0191457 1.0118322 0.98103356 1.0164428 0.99748224 1.0082139 0.9924466 0.97933453
1.0081582 1.013013 1.0015377 0.9910886
00000000: ac64 7c3f f6cf 7e3f d9ad 7f3f c51d 823f
00000010: 1912 833f a963 7f3f eae3 7b3f 2c7d 803f
00000020: ea13 7c3f d69e 813f b170 7d3f e4c8 7d3f
00000030: 037b 823f 8549 7f3f 872e 813f 7425 823f
00000040: 326d 7e3f 16f1 7e3f 1bfe 803f 16e9 7b3f
00000050: be61 7e3f fe4d 7f3f c931 813f 534d 7f3f
00000060: 4519 813f 60b2 7c3f 9038 813f 7054 7f3f
00000070: df41 803f 0cd2 803f 9f33 7e3f 0505 823f
00000080: 4067 823f 3b83 813f 0a9d 7b3f 340a 823f
00000090: 1944 7f3f 9f0d 833f 713d 803f 3b9d 7d3f
000000a0: 0bba 823f c194 7e3f dc89 7b3f 6393 7d3f
000000b0: 256f 7c3f 49eb 803f 4a25 7c3f 4634 833f
000000c0: 8808 813f 2694 833f ecb5 813f d812 7e3f
000000d0: b6b1 7e3f d68f 823f 49bd 7b3f ad30 833f
000000e0: b058 813f af9d 833f 9dff 813f 0e16 803f
000000f0: 62c4 7f3f aaa5 7e3f 21b7 813f c723 7c3f
00000100: 331e 823f 6b67 823f 827f 7f3f a63a 823f
00000110: 0870 803f 1d03 7e3f 5107 7e3f 4f47 7e3f
00000120: bcd1 823f dfa3 823f 97ff 7f3f ccdd 7d3f
00000130: d4ec 7c3f e4d7 813f a053 803f 4490 813f
00000140: 478f 7f3f 9de8 813f 1efb 813f a347 7f3f
00000150: 635a 833f 476f 7c3f f82d 833f 12d7 7d3f
00000160: 5e73 823f b883 813f 0425 7b3f cc1a 823f
00000170: ff5a 7f3f 270d 813f fb10 7e3f abb5 7a3f
00000180: 540b 813f 69aa 813f 6332 803f fcb7 7d3f

bias f4 [100]
0.0024441516 -0.0030021223 -0.0017110023 -0.004000314 0.004084831 0.004427382 0.0018654313 -0.0007146674
-0.0021131688 0.011406358 0.008027047 0.0065475395 -0.002298856 0.001276416 0.006589842 0.005930353
0.0014248483 0.0071818028 0.007219093 -0.015520462 0.0046224017 0.0024376241 0.0009152852 0.0015072061
0.006422002 0.009954392 0.002691535 0.00092365756 0.0045262547 -0.00035925326 -0.0044896747 -0.0052694525
-0.00047684764 0.0008018664 0.009705927 -0.0052832523 -0.016632434 0.0046595703 -0.006796907 0.003445647
-0.008892163 -0.0015029269 0.00575543 -0.003920763 0.008841423 -0.0018759104 -0.0015474868 -0.004329265
0.0031741278 -0.00479548 -0.0008861935 -0.020444956 -0.005697383 0.005415331 0.014083145 0.007830495
0.0003673192 0.006613728 0.000484908 -0.0064798156 0.0039017885 0.0005703098 0.00870927 0.0014591726
0.00091765006 -0.008735328 0.0005657559 -0.00808796 -0.00034103985 -0.0014859153 0.0038388898 0.0057727126
-0.006006055 -0.004218371 0.0028650926 -0.0035134342 4.5026885e-05 -0.008467749 0.0005849495 -0.0050629303
-0.0035724642 0.00057131634 0.002816553 0.0058228467 0.004172911 0.009394116 0.0052654073 0.0008602233
-0.0002774233 0.0007177375 0.018058535 0.005594832 -0.0043505733 0.0023504137 -0.00047111884 0.003767144
0.008831341 -0.0020748295 0.0012548883 0.009483121
00000000: 0f2e 203b 41bf 44bb b643 e0ba 1115 83bb
00000010: 0cda 853b 9213 913b 7d81 f43a 8458 3bba
00000020: 177d 0abb bce1 3a3c e083 033c be8c d63b
00000030: 67a8 16bb 6a4d a73a 9aef d73b 6853 c23b
00000040: fac1 ba3a 5455 eb3b 248e ec3b 8949 7ebc
00000050: 8477 973b 8cc0 1f3b c0ef 6f3a 728d c53a
00000060: a86f d23b bf17 233c 7764 303b 9c21 723a
00000070: fa50 943b 285a bcb9 1f1e 93bb 5fab acbb
00000080: 6801 fab9 5834 523a 9c05 1f3c 221f adbb
00000090: be40 88bc 4faf 983b 97b8 debb 5dd0 613b
000000a0: 6fb0 11bc dcfd c4ba 0c98 bc3b be79 80bb
000000b0: 9edb 103c 1ce1 f5ba 0ad5 caba 82dc 8dbb
000000c0: 0705 503b 6723 9dbb 704f 68ba 2e7c a7bc
000000d0: 1db1 babb 1773 b13b febc 663c 7a4b 003c
000000e0: c094 c039 f9b7 d83b 403b fe39 a254 d4bb
000000f0: 26b5 7f3b d880 153a 53b1 0e3c b541 bf3a
00000100: 748e 703a 9f1e 0fbc 3c4f 143a 5d83 04bc
00000110: 98cd b2b9 0bc3 c2ba e295 7b3b 0629 bd3b
00000120: 71ce c4bb 433a 8abb 47c4 3b3b a541 66bb
00000130: 40db 3c38 50bc 0abc 4c57 193a f0e6 a5bb
00000140: 0120 6abb 64c4 153a eb95 383b 94cd be3b
00000150: eabc 883b c7e9 193c 7089 ac3b 9c80 613a
00000160: 2073 91b9 8c26 3c3a 7eef 933c da54 b73b
00000170: 418f 8ebb 6609 1a3b 8000 f7b9 30e2 763b
00000180: 54b1 103c ddf9 07bb 107b a43a 185f 1b3c

running_mean f4 [100]
0.17887732 0.17804192 0.19057868 0.20622984 0.24754067 0.18317059 0.21407071 0.20098874
0.19589533 0.17234503 0.21845509 0.18191326 0.21386738 0.21290764 0.18827987 0.1699111
0.19984065 0.18217188 0.2074755 0.1834269 0.18966864 0.20652866 0.19150881 0.20188841
0.20620027 0.19139804 0.1894011 0.22892097 0.18105356 0.20750394 0.21574542 0.23903832
0.19030292 0.22063397 0.21669137 0.23419046 0.1705411 0.22312614 0.23205937 0.21882407
0.212191 0.20089456 0.17779757 0.1790213 0.18240225 0.2767559 0.22297119 0.2004418
0.1703482 0.20122544 0.20783032 0.18862393 0.20222029 0.19509278 0.18726094 0.23518871
0.19854896 0.21637762 0.20399669 0.22676338 0.17725231 0.18608423 0.24575181 0.19303302
0.20829445 0.19018771 0.2126303 0.18305834 0.20617929 0.21736005 0.18804634 0.23610397
0.21508984 0.18022983 0.2098534 0.19889611 0.19195957 0.23161577 0.21884477 0.1977849
0.18968885 0.23785204 0.21100648 0.21518078 0.21342482 0.20297165 0.2414227 0.19813693
0.19172667 0.21507835 0.18282722 0.19767675 0.1713673 0.18602356 0.19364901 0.20112942
0.1851317 0.22145568 0.19615532 0.18306498
00000000: 9e2b 373e 9f50 363e 0f27 433e ea2d 533e
00000010: 4d7b 7d3e 1291 3b3e 5a35 5b3e fecf 4d3e
00000020: c998 483e 377b 303e b1b2 5f3e 7847 3a3e
00000030: 0d00 5b3e 7604 5a3e 70cc 403e 2dfd 2d3e
00000040: 07a3 4c3e 448b 3a3e 7574 543e 43d4 3b3e
00000050: 7f38 423e 407c 533e e31a 443e d6bb 4e3e
00000060: 2a26 533e d9fd 433e 5df2 413e 426a 6a3e
00000070: 1b66 393e ea7b 543e 5eec 5c3e 76c6 743e
00000080: c5de 423e dfed 613e 58e4 5d3e a0cf 6f3e
00000090: 53a2 2e3e 2e7b 643e f9a0 6d3e 6b13 603e
000000a0: 9948 593e 4eb7 4d3e 9110 363e 5c51 373e
000000b0: a8c7 3a3e f3b2 8d3e 8f52 643e 9d40 4d3e
000000c0: c26f 2e3e 0b0e 4e3e 79d1 543e a226 413e
000000d0: d612 4f3e 67c6 473e 55c1 3f3e 4fd5 703e
000000e0: 6b50 4b3e 1892 5d3e 82e4 503e a934 683e
000000f0: a181 353e dd8c 3e3e 5da6 7b3e 73aa 453e
00000100: 244b 553e 91c0 423e c2bb 593e a573 3b3e
00000110: aa20 533e a293 5e3e 388f 403e 3dc5 713e
00000120: 8340 5c3e 2b8e 383e cfe3 563e 6cab 4b3e
00000130: 0d91 443e af2c 6d3e d818 603e 2088 4a3e
00000140: cb3d 423e 7c8f 733e 1512 583e 5a58 5c3e
00000150: 098c 5a3e cdd7 4f3e 8337 773e 68e4 4a3e
00000160: ff53 443e 803d 5c3e 0f37 3b3e c66b 4a3e
00000170: e97a 2f3e f67c 3e3e ed4b 463e dff4 4d3e
00000180: 2a93 3d3e 47c5 623e f1dc 483e 6375 3b3e
