save_model/all_feature/models/NeuralNetTorch/net.params (torch, 286855 bytes, 10 tensors)

weight f4 [128, 160]
0	0xbc6ddce5	-0.014517997
1	0x3d108007	0.035278346
2	0xbd4ebdac	-0.050473854
3	0xbdb16f63	-0.086638235
4	0xbc8bce91	-0.017066272
5	0x3ad43304	0.001618952
6	0xbbab0670	-0.0052192733
7	0x3d747e7f	0.05969095
8	0x3bce783e	0.006300955
9	0x3cffda2e	0.031231966
10	0xbc978b6f	-0.018499104
11	0xbbc0e7a9	-0.005886991
12	0xbda93dfe	-0.08263777
13	0xbd8ab652	-0.06773056
14	0xbd2a3989	-0.041558776
15	0xbc4dfb19	-0.012572073
16	0x3ceb10c8	0.028694525
17	0x3d76412d	0.06012075
18	0xbd1aebb6	-0.037822448
19	0xbcc18253	-0.023621714
20	0x3c4e2ac2	0.012583436
21	0x3d90c7fc	0.07069394
22	0xbc894282	-0.016755346
23	0x3d9c37f7	0.07627862
24	0x3c25fceb	0.010131101
25	0x3cb74601	0.022372248
26	0x3dac6c69	0.08419115
27	0xbdad8e89	-0.08474452
28	0xbd695802	-0.056968696
29	0xbd087f85	-0.033324737
30	0xbd64bf21	-0.055846337
31	0x3d8d93de	0.06912969
32	0xbd36cad4	-0.044627026
33	0xbcd1c98f	-0.025608806
34	0xbd840b20	-0.064474344
35	0xbd78efeb	-0.06077568
36	0xbd9f8f62	-0.0779102
37	0x3de6d644	0.11271337
38	0x3c8d974d	0.01728406
39	0x3d6b5d58	0.057462066
40	0x3c509917	0.012731812
41	0xbd1d624b	-0.038423818
42	0x3cb68e20	0.022284567
43	0xbd859ab9	-0.06523652
44	0xbd5c7957	-0.053826656
45	0xbd1ed6e0	-0.03877914
46	0x3d08ee43	0.03343035
47	0x3d28e012	0.041229315
48	0xbd1cd280	-0.038286686
49	0x3b173442	0.002307192
50	0x3d58cb90	0.052928507
51	0x3dab86ad	0.08375297
52	0x3d1c6d83	0.038190376
53	0x3c2ee75f	0.01067528
54	0x3d304117	0.043030825
55	0xbd1f2904	-0.038857475
56	0x3c3afcd2	0.011412816
57	0xbdc5f1b2	-0.0966524
58	0xbd530422	-0.051517613
59	0xbccac98b	-0.024754306
60	0x3ccb629e	0.024827298
61	0x3caebbde	0.021329816
62	0xbd828538	-0.06373066
63	0x3c0ff1f9	0.008785718
64	0x3d65535b	0.055987697
65	0x3b832c89	0.0040031117
66	0x3b73f4e1	0.0037224817
67	0x3c34fa16	0.011045953
68	0x3d56eec5	0.052473802
69	0x3dd33829	0.10313446
70	0xbd7ba030	-0.061432064
71	0xbcff2485	-0.031145344
72	0x3d3d1bc8	0.046169072
73	0x3d9d58fb	0.07682987
74	0x3db708a5	0.08937196
75	0x3d9ab51e	0.075540766
76	0x3cbc6ff7	0.023002608
77	0xbd91b763	-0.07115056
78	0x3bc7cd7e	0.0060974946
79	0xbd85fce9	-0.065423794
80	0xbdab42b1	-0.0836233
81	0x3d92111b	0.07132169
82	0x3cd934dd	0.026514465
83	0xbd4e3a27	-0.050348427
84	0x3c109451	0.008824424
85	0x3c20b253	0.009808141
86	0xbc792220	-0.01520589
87	0xbd2ffc91	-0.042965475
88	0x3cc0d434	0.023538686
89	0xbd305833	-0.043052863
90	0x3c127b85	0.008940582
91	0x3d380716	0.044928633
92	0x3d85919a	0.06521912
93	0x3d83bdad	0.06432662
94	0xbd977755	-0.07395808
95	0xbd282196	-0.041047655
96	0x3d17489b	0.036934476
97	0x3c5ea08b	0.013588081
98	0xbd4b3f8f	-0.04962116
99	0xbd8ddc0b	-0.069267355
100	0x3d652647	0.055944707
101	0x3d4d31a7	0.05009618
102	0xbd18b588	-0.037282497
103	0xbc2887fe	-0.010286329
104	0xbd917e68	-0.07104188
105	0x39b4d1e8	0.00034488668
106	0xbd568bfb	-0.05237959
107	0xbd677b49	-0.05651406
108	0xbc6f8aa8	-0.014620461
109	0x3cb679f3	0.022274947
110	0xbcb12d19	-0.02162795
111	0x3d208b3a	0.039195277
112	0xbd42bcfe	-0.04754352
113	0x3da5b837	0.08091777
114	0x3d3917d5	0.045188744
115	0xbd9506a6	-0.07276659
116	0xbbbf60e9	-0.00584041
117	0x3c16b500	0.009198427
118	0x3c910cb3	0.01770625
119	0x3d0852c4	0.033282056
120	0x3cef9186	0.029244196
121	0xbb427ba9	-0.0029675758
122	0xbcae883d	-0.021305198
123	0x3d5d13e7	0.05397406
124	0xbda55fd9	-0.08074922
125	0xbd2e9a0c	-0.04262738
126	0xbc084b41	-0.008318723
127	0xbcf2b26e	-0.029626098
128	0xbc993420	-0.018701613
129	0xbd5c35eb	-0.053762358
130	0xbc261b63	-0.010138365
131	0x3ca32a75	0.019917706
132	0xbd31a394	-0.04336889
133	0x3b170c8c	0.002304825
134	0x3d9d2277	0.07672589
135	0x3c864b2a	0.016393263
136	0x3bfdc9f6	0.007745023
137	0xbc32408d	-0.010879648
138	0x3cad7430	0.021173567
139	0x3d7377ee	0.059440546
140	0x3da3e81d	0.080032565
141	0x3d79f4d0	0.061024487
142	0x3d7298da	0.0592278
143	0x3c5536d6	0.013013562
144	0xbd6bc582	-0.057561405
145	0xbc6c964d	-0.014440131
146	0x3da6ff4e	0.08154164
147	0x3c4acd7a	0.012378091
148	0xbce66310	-0.028123409
149	0xbd805c0a	-0.06267555
150	0xbd6eca47	-0.058298375
151	0xbd64686b	-0.055763643
152	0xbc39dacc	-0.011343669
153	0x3cf1233d	0.029435748
154	0x3cdaedcf	0.026724724
155	0xbd70bd0a	-0.05877403
156	0x3d82798c	0.063708395
157	0xbd8dcc8a	-0.06923778
158	0x3bd3c1ba	0.006462303
159	0xbce91bbc	-0.028455608
160	0xbc484aa9	-0.012224832
161	0xba9c13bb	-0.0011907736
162	0xbdd5e37d	-0.104437806
163	0xbddb4cbf	-0.107079975
164	0x3d10b629	0.03532997
165	0xbcd46ca9	-0.02593072
166	0xbd479961	-0.048730258
167	0x3d2ba10d	0.041901637
168	0xbda1f28e	-0.07907592
169	0xba71d8e2	-0.00092257385
170	0x3dbc97ec	0.09208664
171	0xbd672343	-0.056430113
172	0x3d95f437	0.07321971
173	0x3d17783a	0.03697989
174	0xbd67271c	-0.056433782
175	0x3d853cf7	0.06505769
176	0xbc99d0bb	-0.018776288
177	0xbd7e7137	-0.06211969
178	0x3d84b2b5	0.06479398
179	0xbd90b7b8	-0.070662916
180	0xbc3b58cd	-0.011434746
181	0xbd4ca63c	-0.04996322
182	0x3dbde3b5	0.09271947
183	0x3ba52a69	0.005040456
184	0x3ca14a7c	0.019688837
185	0x3d4dc609	0.05023769
186	0xbd8bb365	-0.06821326
187	0xbcc3da64	-0.023907848
188	0xbd82cc2b	-0.06386598
189	0x3d394f71	0.045241777
190	0x3d68af27	0.056807663
191	0x3d42ceec	0.047560617
192	0xbdc32166	-0.095278546
193	0xbc9e603b	-0.019332996
194	0xbdda8a24	-0.106708795
195	0xbd36ed53	-0.044659924
196	0xbd6f9f04	-0.05850126
197	0x3d94b2d7	0.072606735
198	0xbd83c8a1	-0.06434751
199	0x3c2bf7ac	0.010496061
200	0xbaadcecc	-0.0013260483
201	0x3d43b8e7	0.04778376
202	0xbd31c784	-0.043403164
203	0xbd272c5d	-0.040813792
204	0xbd0ac664	-0.033880606
205	0x3d86d5a9	0.06583721
206	0xbd492127	-0.049103882
207	0x3d8eec27	0.06978636
208	0x3b657571	0.0035012627
209	0xbc099af3	-0.008398759
210	0x3b63cfda	0.003476134
211	0xbc4ff08e	-0.01269163
212	0x3c891f1c	0.016738467
213	0x3b880497	0.004150938
214	0xbc36ca75	-0.011156668
215	0x3c902d52	0.017599735
216	0xbda08a83	-0.07838919
217	0xbd73aad7	-0.059489097
218	0x3dbe2c42	0.09285785
219	0xbd78b254	-0.060716942
220	0xbc8328bb	-0.016010633
221	0x3d9b75c8	0.07590824
222	0x3c7b4080	0.015335202
223	0xbb9c4150	-0.004768528
224	0xbd81b19a	-0.06332703
225	0x3cd16102	0.025558952
226	0xbda680b8	-0.0813002
227	0xbd2d6c8f	-0.042339858
228	0xbd334d14	-0.04377468
229	0xbb34288c	-0.0027489988
230	0x3c29453c	0.010331448
231	0x3d766efc	0.060164437
232	0x3c92ed6d	0.017935479
233	0x3d97169e	0.07377361
234	0x3ce7496f	0.028233258
235	0xbd59e195	-0.053193647
236	0x3cdb0689	0.026736515
237	0xbd65dd07	-0.05611899
238	0xbd18209f	-0.037140485
239	0x3c7710b8	0.01507967
240	0x3c9b6285	0.018967876
241	0x3d8e5de4	0.06951502
242	0xbd269f49	-0.04067925
243	0xbcba37dc	-0.022731714
244	0x3d41723e	0.04722809
245	0xbd857810	-0.06517041
246	0x3d2fc283	0.04291011
247	0xbd948f9f	-0.07253956
248	0x3c53f97c	0.0129379
249	0xbb9ad9e0	-0.0047256798
250	0xbcb7a3e5	-0.022417018
251	0x3c43b9cf	0.011946156
252	0x3d06ad9e	0.032880418
253	0xbcce9ee8	-0.025222257
254	0xbd6debed	-0.058086324
255	0xbcd2e4d8	-0.025743887

bias f4 [128]
0	0x3d074706	0.033026718
1	0xbd5e832e	-0.05432432
2	0xbd161700	-0.03664303
3	0x3c82a67b	0.015948525
4	0xbc37b4eb	-0.011212568
5	0xbd8732ab	-0.06601461
6	0xbd1826a7	-0.037146237
7	0x3d2a1a46	0.041528963
8	0xbc012ec3	-0.007884684
9	0x3b81c007	0.003959659
10	0xbd92766b	-0.07151493
11	0xbd4aa5dc	-0.049474582
12	0x3d1ca1aa	0.038240112
13	0x3ca2c9a6	0.019871544
14	0xbd7467a6	-0.05966916
15	0xbd4d7032	-0.050155826
16	0xbd2824bc	-0.041050658
17	0x3d6d50a4	0.057938233
18	0xbd94baf7	-0.07262223
19	0x3cadcd50	0.021216065
20	0x3a48ca3d	0.00076595304
21	0x3d141241	0.03615022
22	0x3cfc9152	0.030831013
23	0xbd816d3a	-0.063196614
24	0xbda1f2c7	-0.07907634
25	0x3d25de2d	0.040495086
26	0xbd9fc2fb	-0.078008614
27	0xbd5d63af	-0.054050144
28	0xbd348db9	-0.04408047
29	0xbd8b90fc	-0.06814763
30	0x3cdecfd9	0.027198719
31	0x3d7eb606	0.06218531
32	0xbd6e5d6f	-0.058194574
33	0xbbc9d505	-0.006159427
34	0xbd165d58	-0.036710113
35	0x3a42a7b2	0.0007425501
36	0x3ba2f2d7	0.0049727964
37	0x3cd7af60	0.026328743
38	0xbdb47dfa	-0.088130906
39	0x3cd5d6e8	0.026103452
40	0xbc49cd60	-0.012317032
41	0x3d0dfa20	0.034662366
42	0xbd7f6afd	-0.06235789
43	0xbd8dbb82	-0.0692053
44	0xbd42092f	-0.04737204
45	0xbb0a3ef4	-0.0021094652
46	0x3d9dbbff	0.07701873
47	0x3d84e4c1	0.06488944
48	0xbcee1750	-0.02906385
49	0xbb74c8de	-0.0037351171
50	0xbd737974	-0.059442
51	0xbd22cffd	-0.039749134
52	0x3c749aa6	0.014929449
53	0xbd282d8b	-0.04105906
54	0xbd557d38	-0.05212137
55	0x3d93dce1	0.07219864
56	0xbd2df40b	-0.042469066
57	0xbd9c04a1	-0.076180704
58	0x3d97642b	0.073921524
59	0x3d7a3929	0.06108967
60	0x3cfc3f85	0.030792007
61	0xbc908946	-0.017643582
62	0xbd5985f5	-0.053106267
63	0x3c1f1897	0.0097104525
64	0x3983cae5	0.00025137435
65	0xbd2a7aad	-0.0416209
66	0x3d984e7f	0.07436847
67	0xbd207dd0	-0.039182484
68	0xbd83ee6f	-0.06441962
69	0x3c134c91	0.008990423
70	0xbb6f02ce	-0.0036470178
71	0x3d5a003e	0.053222887
72	0x3d3b1b8c	0.045680568
73	0x3c042887	0.008066303
74	0xbcb13bf4	-0.021635033
75	0x3c4714be	0.012150941
76	0xbc9ec662	-0.019381706
77	0x3d8178b6	0.06321852
78	0x3cb186b7	0.021670682
79	0x3ca6d4ba	0.020365108
80	0xbd6078d7	-0.05480274
81	0x3d95094a	0.072771624
82	0xbd14ae53	-0.03629906
83	0x3d3b97ee	0.04579919
84	0xbbd3a6f4	-0.0064591113
85	0x3d895612	0.0670587
86	0xbcef5108	-0.029213443
87	0x3bd618bf	0.0065337117
88	0xbd108c9d	-0.03529035
89	0x3ccc9926	0.02497537
90	0xbd85d1e9	-0.06534178
91	0x3d6fef4f	0.05857783
92	0x3d8a823d	0.06763122
93	0xbd3c7d2f	-0.046017822
94	0x3d8651ea	0.065585926
95	0x3d63c2b9	0.055605624
96	0x3d89cbfe	0.067283615
97	0xbdaca697	-0.08430212
98	0xbd7e79c6	-0.06212785
99	0xbdb4cc84	-0.08828071
100	0x3c989e3f	0.018630145
101	0xbd02a911	-0.031899516
102	0x3c4ccc19	0.012499833
103	0x3d7315ed	0.059347082
104	0x3cd52ad8	0.026021406
105	0x3baa21d2	0.00519202
106	0x3cbcc29b	0.023042014
107	0xbcbc6351	-0.022996577
108	0x3be4b67c	0.0069797616
109	0xbd81b832	-0.063339606
110	0xbd087745	-0.03331687
111	0x3d636cad	0.055523563
112	0xbd3b0b97	-0.04566535
113	0x3d7dd517	0.061970796
114	0x3ce7703a	0.028251756
115	0x3c7e2450	0.015511587
116	0x3c96b622	0.018397395
117	0x3d8a8528	0.06763679
118	0xbd42782b	-0.047477882
119	0xb4daf36b	-4.0782774e-07
120	0x3c40778e	0.011747254
121	0xbd7ec03e	-0.062195055
122	0xbd6c2a52	-0.057657547
123	0xbc38565b	-0.0112510575
124	0x3d5481af	0.05188149
125	0xbd40e84d	-0.04709654
126	0xbcedee2a	-0.02904423
127	0xbd3e0c2a	-0.04639832

weight f4 [128, 128]
0	0x3d9bcf50	0.07607901
1	0xbda8852c	-0.082285255
2	0x3c69a46a	0.014260391
3	0x3de633a6	0.1124032
4	0x3d96ed42	0.07369472
5	0x3cea1036	0.028572183
6	0xbd93d07b	-0.07217499
7	0xbc3f9b2d	-0.011694712
8	0x3e194bf1	0.14970376
9	0xbc8abc9d	-0.016935641
10	0x3cb8aaee	0.022542443
11	0x3db68e49	0.089138575
12	0xbb069015	-0.0020532657
13	0xbd8f13ff	-0.06986236
14	0xbd952bb5	-0.07283727
15	0xbd0e1060	-0.034683585
16	0xbd409635	-0.04701825
17	0xbd6749ea	-0.056466974
18	0xbbc0e3fd	-0.0058865533
19	0xbd43a4e1	-0.047764663
20	0xbb8af189	-0.004240219
21	0x3cf2a181	0.029618027
22	0x3d20ecbc	0.039288267
23	0x3d44e597	0.048070516
24	0xbd9c839d	-0.07642291
25	0xbd209bea	-0.03921119
26	0xbd2b707c	-0.04185532
27	0x3ca9bb99	0.020719336
28	0xbe06caa0	-0.13163233
29	0x3d2dca27	0.042429116
30	0x3d28387f	0.041069504
31	0xbd8a1a72	-0.06743325
32	0x3da23a45	0.0792127
33	0xbd7410cc	-0.05958633
34	0x3d26aac3	0.040690195
35	0x3d9ed8de	0.07756208
36	0xbd51dc5a	-0.051235534
37	0x3d881b1c	0.06645796
38	0x3d8ab2e2	0.067724004
39	0xbd9dd6bd	-0.07706974
40	0xbdccf7de	-0.100082144
41	0xbd90342c	-0.07041201
42	0x3e0c10b3	0.13678245
43	0x3de93b80	0.11388302
44	0x3cff5764	0.0311696
45	0x3dafa791	0.08576883
46	0xbd3de19d	-0.04635774
47	0x3cc36f6a	0.023856837
48	0xbd80d698	-0.062909305
49	0xba67c885	-0.00088418304
50	0x3cd663fa	0.02617072
51	0xbd9b1032	-0.075714484
52	0x3d63e6e8	0.05564013
53	0xbbd86bb8	-0.006604638
54	0xbd99071b	-0.074720584
55	0xbcbdd6ae	-0.023173656
56	0xbd84fcd1	-0.064935334
57	0x3d30d905	0.043175716
58	0x3d1805b8	0.03711483
59	0xbd4b2360	-0.049594283
60	0xbd8352ec	-0.064123005
61	0xbcbdd9dc	-0.023175173
62	0x3d8c188f	0.06840622
63	0x3d33c0ca	0.04388503
64	0xbdc1ed27	-0.09469061
65	0x3d348339	0.044070456
66	0x3d958f79	0.07302756
67	0x3d0e0d6a	0.03468076
68	0x3db24cd7	0.08706062
69	0xbce7e1bb	-0.028305879
70	0x3da2d3aa	0.07950528
71	0x3b75a207	0.003748061
72	0x3db6e330	0.08930051
73	0x3dc34f3c	0.09536597
74	0x3b5e550a	0.00339252
75	0x3d5668b1	0.052345935
76	0xbc4b0dfb	-0.01239347
77	0x3abb8073	0.0014305249
78	0xbd3a4967	-0.04548016
79	0xbd218236	-0.03943082
80	0xbd383760	-0.044974685
81	0x3d9bf805	0.07615665
82	0xbc47e693	-0.012200969
83	0x3dbf36ef	0.093366496
84	0x3c48fe71	0.012267695
85	0x3dc850ce	0.09781037
86	0x39bc9636	0.0003597007
87	0xbcb4d7fe	-0.02207565
88	0xbdf5fce6	-0.12011127
89	0x3d836382	0.06415464
90	0x3d56d332	0.052447505
91	0x3d0aa7b5	0.033851344
92	0x3c8b11f1	0.016976329
93	0xbd495878	-0.049156636
94	0xbd36fa68	-0.0446724
95	0xbc634212	-0.013870733
96	0xbd8d96a8	-0.06913501
97	0x3c0262c1	0.007958115
98	0xbd0889b8	-0.033334464
99	0x3d04e482	0.032444485
100	0x3d18b631	0.037283126
101	0xbb36d10d	-0.00278956
102	0x3c5d8079	0.0135194
103	0x3dc7c55b	0.097544394
104	0xbd623da8	-0.05523458
105	0x3d4330ad	0.047653843
106	0xbd9d7311	-0.07687963
107	0x3dae69a8	0.08516246
108	0x3d9140cc	0.07092437
109	0xbdab0fb7	-0.08352607
110	0x3dbf8072	0.09350671
111	0x3dcfd69d	0.10148356
112	0x3d919488	0.07108408
113	0x3c2504b0	0.010071918
114	0xbd80eec4	-0.06295541
115	0x3cc66e31	0.024222465
116	0x3d3c6a13	0.045999598
117	0x3c48f7a8	0.012266077
118	0x3ca32ae5	0.019917915
119	0xb0f5648f	-1.7854677e-09
120	0xbbab9eb1	-0.0052374233
121	0x3d2a9cfa	0.04165361
122	0xbd5f8198	-0.05456695
123	0x3db3487a	0.08754058
124	0x3d73c11b	0.05951033
125	0x3d43ce47	0.047804143
126	0xbc840c4b	-0.016119143
127	0xbcdf4cbe	-0.027258273
128	0xbd82a97f	-0.06379985
129	0x3d6f1ae8	0.05837527
130	0x3d4a8fdb	0.049453598
131	0xbc487137	-0.012234024
132	0x3d444425	0.04791655
133	0xbd2bc15f	-0.04193246
134	0x3d676f2f	0.056502517
135	0xbdd0ab2f	-0.10188901
136	0xbe0727f2	-0.13198832
137	0xbd0eb3fe	-0.034839623
138	0x3ce45e4a	0.027876992
139	0x3d8e4977	0.06947606
140	0xbca0f03a	-0.019645799
141	0xbcd3aef6	-0.025840264
142	0xbce25d4c	-0.027632378
143	0x3b9ae110	0.0047265366
144	0xbc816b42	-0.015798215
145	0xbdb74664	-0.08948973
146	0x3cd383e9	0.025819736
147	0x3c2c3f93	0.010513204
148	0xbddf0a53	-0.10890641
149	0xbcf043c9	-0.029329197
150	0xbdc79019	-0.09744281
151	0xbd99ee02	-0.075160995
152	0x3d7a728f	0.061144408
153	0x3d2526ef	0.040320333
154	0x3d8e9591	0.06962121
155	0x3cba0fa5	0.022712538
156	0xbdb2d1d6	-0.08731429
157	0x3d8368e7	0.06416493
158	0x3d958fae	0.07302795
159	0xbd50757e	-0.0508933
160	0xbcfc3aad	-0.030789698
161	0xbbb0bd78	-0.00539368
162	0x3ca4432b	0.02005156
163	0x3d4891e9	0.048967276
164	0xbcab4508	-0.02090694
165	0x3b78c0f9	0.0037956818
166	0x3d53f6cc	0.051749036
167	0x3d6e03cf	0.0581091
168	0x3bcb7d90	0.0062100366
169	0x3da216e1	0.0791452
170	0x3caafbc9	0.020872014
171	0xbd972bbd	-0.07381389
172	0x3c88626f	0.0166485
173	0xbdbd35f7	-0.092388086
174	0x3da662fb	0.08124348
175	0x3d5b5e47	0.053556707
176	0x3db579d1	0.08861125
177	0x3987a5ac	0.00025872642
178	0x3d22808e	0.03967338
179	0x3deb66ad	0.11494193
180	0x3ce2078c	0.02759149
181	0xbcfa32c1	-0.03054178
182	0xbbc85c1a	-0.006114495
183	0xbd90284f	-0.07038938
184	0x3db13557	0.08652752
185	0x3c66bf06	0.0140836295
186	0xbd258c2e	-0.04041689
187	0xbd27ff08	-0.0410147
188	0x3dbb61bb	0.091495
189	0xbca7a53c	-0.020464532
190	0xbd8c2518	-0.068430126
191	0x3bf79662	0.007555769
192	0xbd88793b	-0.06663748
193	0xbdc98e9c	-0.09841654
194	0xbd29e39c	-0.04147683
195	0xbd8d6cc5	-0.06905512
196	0xbd032d56	-0.032025658
197	0x3d579d71	0.052640382
198	0x3d4802b0	0.048830688
199	0xbd374f1d	-0.044753183
200	0xbd1e3929	-0.03862873
201	0x38f33cf2	0.00011598495
202	0x3d521f9c	0.051299676
203	0x3d4c4c1a	0.049877264
204	0xbdb6abb8	-0.089194715
205	0x3dc204ac	0.09473547
206	0xbd54f68e	-0.051992945
207	0x3db46b14	0.08809486
208	0xbc3d2b55	-0.011545976
209	0x3cc742c8	0.024323836
210	0xbd25d2c7	-0.040484216
211	0x3cb3d1ea	0.02195068
212	0xb7a0e3ee	-1.9179624e-05
213	0xbd166171	-0.03671402
214	0x3d3e214a	0.046418466
215	0xbceedd51	-0.029158266
216	0x3d575461	0.052570704
217	0x3db0aa39	0.086262174
218	0xbcfc074b	-0.030765196
219	0xbbf752ea	-0.007547726
220	0xbc467fa9	-0.0121153975
221	0x3d487d04	0.04894735
222	0xbcd75534	-0.026285745
223	0xbd84db8c	-0.06487188
224	0xbd84feac	-0.06493887
225	0xbd0d61d1	-0.034517113
226	0xbd733dd3	-0.059385132
227	0x3cf11f93	0.029434001
228	0x3d3e3ebd	0.04644655
229	0xbd163f0c	-0.03668122
230	0x3d173deb	0.036924284
231	0x3987513e	0.00025809737
232	0x3d6b4d7d	0.057446945
233	0x3d85ce33	0.0653347
234	0x3ceb3e15	0.028716126
235	0xbd07889d	-0.03308927
236	0xbd5ec4cb	-0.054386895
237	0x3aaf59ce	0.0013378204
238	0xbd402610	-0.0469113
239	0xbcf56c98	-0.029959008
240	0xbd5a5450	-0.053303063
241	0x3d5172af	0.05113476
242	0xbd8d387d	-0.0689554
243	0x3dc6034f	0.096686
244	0xbd01884f	-0.031624135
245	0xbd2eedcb	-0.042707246
246	0x3d40ce4c	0.04707174
247	0xb9a45610	-0.0003134464
248	0x3d97991c	0.0740225
249	0x3c94a922	0.018147055
250	0x3ab6bf6a	0.0013942544
251	0xbd88d2e3	-0.066808484
252	0x3da82f00	0.082120895
253	0xbda4fb66	-0.08055763
254	0x3b8bd0df	0.0042668427
255	0x3d2e7b78	0.042598218

bias f4 [128]
0	0x3d3cbe92	0.04608018
1	0xbd805c0a	-0.06267555
2	0xbd893521	-0.06699587
3	0x3d6fb65c	0.05852352
4	0x3db1a540	0.08674097
5	0xbca6b2ba	-0.020348895
6	0x3da5d998	0.08098143
7	0x3dbc827d	0.09204576
8	0x3d2b99d0	0.041894734
9	0xbd481dc8	-0.048856527
10	0x3d860427	0.06543761
11	0xbbd10395	-0.006378601
12	0xbce89bc7	-0.028394593
13	0xbd994b29	-0.07485039
14	0x3d0d965f	0.034567233
15	0x3db76041	0.08953906
16	0xbd28debf	-0.041228052
17	0xbcfad91a	-0.0306211
18	0x3d54af91	0.051925246
19	0x3d878c09	0.066185065
20	0xbd2762dd	-0.040865768
21	0x3be0d3c0	0.00686118
22	0xbdabd527	-0.08390265
23	0xbc94061b	-0.018069318
24	0x3da9b343	0.082861446
25	0x3c77e5e4	0.015130494
26	0x3d724721	0.059149865
27	0x3d1deb8f	0.038554724
28	0x3a0d6421	0.00053936435
29	0x3cc765bd	0.024340505
30	0x3d2a4c42	0.04157663
31	0xbdad18d5	-0.08452002
32	0x3d300298	0.042971224
33	0x3d794fdc	0.060867175
34	0xbc861c76	-0.016370993
35	0x3d152b5f	0.036418315
36	0xbd5ba459	-0.05362353
37	0x3cb906f3	0.022586321
38	0xbd8abf9f	-0.0677483
39	0xbd82ec3b	-0.06392714
40	0x38cf0e13	9.873151e-05
41	0x3d5a06c8	0.053229123
42	0x3cff7042	0.031181458
43	0xbd7244ef	-0.05914777
44	0xbd959ab9	-0.07304902
45	0x3d59693c	0.053078875
46	0x3caabdee	0.020842519
47	0x3b9b2494	0.004734585
48	0xbda529f6	-0.08064644
49	0x3c94cb59	0.01816337
50	0x3d54db28	0.051966816
51	0x3d2c569d	0.04207479
52	0x3c8b779c	0.017024808
53	0xbd995bad	-0.07488189
54	0x3d87ecc6	0.06636958
55	0x3d6bd589	0.05757669
56	0xbd14d20e	-0.036333136
57	0x3cbf360c	0.023341201
58	0xbda5ebdb	-0.081016265
59	0x3da85a21	0.08220316
60	0x3d2170b6	0.03941413
61	0xbd55ecaa	-0.052227654
62	0xbb85cd52	-0.004083314
63	0x3d8dfe85	0.069333114
64	0x3d1805bf	0.037114855
65	0x3d00d190	0.031449854
66	0x3ccb047d	0.024782414
67	0x3d3f9fef	0.046783384
68	0xbd7aaa7b	-0.06119774
69	0x3c372596	0.011178395
70	0xbd754805	-0.059883136
71	0xbc69c321	-0.014267714
72	0xbd91fbff	-0.071281426
73	0xbcfa10c3	-0.03052557
74	0x3da3eb6f	0.0800389
75	0x3cd89d8b	0.02644231
76	0x3da44081	0.08020116
77	0x3d9ea97b	0.077471696
78	0x3d390fcd	0.045181084
79	0x3dac9ace	0.08427964
80	0xbc066bfd	-0.008204457
81	0xbd221159	-0.039567325
82	0x3ca73582	0.020411257
83	0xbd10692c	-0.03525655
84	0x3d0f27ad	0.034949947
85	0x3d17924f	0.037004765
86	0xbcde0ac6	-0.027104747
87	0x3cde696c	0.027149878
88	0x3d8ccbba	0.06874795
89	0xbc3c2fd3	-0.011486012
90	0x3d4adfdb	0.04952989
91	0xbc411bc3	-0.011786404
92	0x3d5a371f	0.053275224
93	0x3d62ee4b	0.055403035
94	0xbdada3ba	-0.08478494
95	0xbd378b4e	-0.044810586
96	0xbda59ae9	-0.080861874
97	0x3d191749	0.037375722
98	0x3d9d8308	0.07691008
99	0xbcaa7ae8	-0.02081056
100	0xbd94c9de	-0.072650656
101	0x3dbe75f9	0.09299845
102	0xbc93f4bd	-0.018061036
103	0x3b3b2924	0.0028558457
104	0x3d0afeb0	0.033934295
105	0x3ce8d204	0.028420456
106	0x3d46cf68	0.04853764
107	0xbda9f423	-0.082985185
108	0x3d3c896b	0.04602949
109	0xbdae516f	-0.08511626
110	0x3c88cc29	0.016698914
111	0x3d5ee11a	0.054413892
112	0xbc9eac96	-0.019369405
113	0x3d55a95f	0.052163478
114	0xbca53580	-0.020167112
115	0x3ccb410d	0.024811292
116	0x3bf882f6	0.007583971
117	0x3dab3b9c	0.08360979
118	0xbd7405a3	-0.059575688
119	0x3da96dd9	0.08272905
120	0xbd063f8f	-0.032775458
121	0xbc45976b	-0.012060027
122	0x3cea4f19	0.02860217
123	0xbc8f03b4	-0.01745782
124	0x3c758d7b	0.014987345
125	0xbd1c39f0	-0.03814119
126	0x3bfa7f00	0.007644534
127	0xbda46f90	-0.08029091

weight f4 [128, 128]
0	0x3d4fd30c	0.05073838
1	0xbda8a1fa	-0.082340196
2	0xbc95f014	-0.018302955
3	0x3da5eb2b	0.08101495
4	0xbd0e5caf	-0.03475636
5	0x3d96ea60	0.07368922
6	0x3df427bc	0.11921641
7	0x3dbb2021	0.091369875
8	0x3d5e18e8	0.05422297
9	0xbcdd4e45	-0.02701486
10	0x3d1aeda4	0.037824288
11	0xbd448a1e	-0.04798328
12	0x3d62cb32	0.055369563
13	0xbcd9d5ab	-0.026591143
14	0xbd333607	-0.043752696
15	0x3d0921f2	0.03347964
16	0xbd63b7ba	-0.055595137
17	0x3b4bdae5	0.0031105813
18	0xbcb67f98	-0.022277638
19	0xbd041872	-0.032249875
20	0xbd837949	-0.06419618
21	0x3c93a36e	0.018022265
22	0x3d18a028	0.037262112
23	0xbbf04d6f	-0.0073334496
24	0xbd9f52ef	-0.0777949
25	0x3dc955c7	0.09830814
26	0xbcc56980	-0.024098158
27	0x3d416ed1	0.047224823
28	0xbba290a4	-0.00496109
29	0x3d0aebec	0.0339164
30	0xbd898c8c	-0.0671626
31	0x3c473679	0.012158983
32	0xbcee10c9	-0.029060738
33	0x3d8d70a9	0.06906254
34	0x3d546c22	0.051860936
35	0xbcc1a5b6	-0.023638587
36	0xbd763e67	-0.060118105
37	0xbd8356a7	-0.06413012
38	0x3d379900	0.044823647
39	0xbc4739a0	-0.012159735
40	0x3d90236e	0.07038008
41	0x3adde429	0.0016928959
42	0x3d6fe1f6	0.058565103
43	0x3c8f614e	0.017502453
44	0xbd2ef4f0	-0.04271406
45	0x3d262c50	0.040569603
46	0x3d3a4098	0.045471758
47	0x3c8d153d	0.017222041
48	0x3d410d61	0.0471319
49	0xbc28a325	-0.010292803
50	0x3d17a32c	0.037020847
51	0xbd010dcd	-0.031507302
52	0x3c64f09c	0.013973381
53	0x3bb3ab86	0.0054830937
54	0xbd448b0d	-0.04798417
55	0x3c1232a7	0.008923209
56	0xbd051819	-0.032493684
57	0xbda4b7a8	-0.08042842
58	0x3d3b37a5	0.045707364
59	0xbd9c6977	-0.07637303
60	0xbb303d76	-0.0026892102
61	0xbd4368d7	-0.047707405
62	0xbd3f8934	-0.046761706
63	0xbd5168a1	-0.051125173
64	0x3d0521da	0.032502986
65	0xbd5b6ddc	-0.053571567
66	0x3de53ff7	0.11193841
67	0xbd785dd7	-0.060636368
68	0x3d251b62	0.040309317
69	0x3cc73a49	0.024319785
70	0x3bcb0dfc	0.0061967354
71	0x3dfa481c	0.12220785
72	0x3c4d815b	0.012543048
73	0x3c250e70	0.010074243
74	0xbda834d7	-0.082132034
75	0xbccdca67	-0.025120927
76	0x3d1eb353	0.038745236
77	0xbc87bcfc	-0.016569607
78	0x3d4acfa9	0.049514446
79	0xbcfdcef2	-0.030982468
80	0xbd4c48ff	-0.049874302
81	0xbc8c089b	-0.017093947
82	0xbccd30d5	-0.025047699
83	0xbcba427f	-0.022736786
84	0x3d0c3267	0.034227755
85	0x3db62fe5	0.08895854
86	0x3d5faa1f	0.0546056
87	0xbdaea318	-0.085272014
88	0x3d4e5a8f	0.050379332
89	0xbd4eea41	-0.05051637
90	0xbd1f6664	-0.038916007
91	0x3d608de8	0.054822832
92	0xbd8ada62	-0.067799345
93	0xbd47ec19	-0.048809145
94	0xbd889e00	-0.06670761
95	0xbc82a208	-0.015946403
96	0x3b83321f	0.0040037776
97	0xbd15244b	-0.036411565
98	0xbd5c71bc	-0.053819403
99	0x3cd0154d	0.025400782
100	0xbd598156	-0.05310186
101	0x3bf347e8	0.0074243434
102	0x3d51e9ea	0.05124847
103	0xbd8db5af	-0.06919419
104	0x3d85e74e	0.065382585
105	0xbcbe6f0f	-0.023246316
106	0x3d6f0ce2	0.058361895
107	0x3d9f94ab	0.07792028
108	0x3d9ea658	0.07746571
109	0xbcea2387	-0.028581394
110	0x3dc710c5	0.097199954
111	0x3d2b6934	0.041848376
112	0x3d816056	0.06317203
113	0x3d60bfc3	0.05487038
114	0x3d3d00e3	0.046143424
115	0x3d928739	0.07154698
116	0xbd7beb57	-0.061503734
117	0x3da841cb	0.08215674
118	0x3c2cf245	0.010555808
119	0xbc6c0933	-0.01440649
120	0x3c82d15b	0.01596897
121	0x3b13faf1	0.0022579993
122	0x3cb3ffcc	0.02197256
123	0x3cdaa7a3	0.026691264
124	0x3b916b49	0.004437838
125	0x3949c7be	0.00019243264
126	0x3d474c65	0.04865684
127	0xbd10316b	-0.03520338
128	0x3d6f13c1	0.05836845
129	0x3b75625d	0.0037442662
130	0xbd83f0bb	-0.064424
131	0x3dd56799	0.1042015
132	0xbd853286	-0.06503777
133	0xbcc50ff7	-0.024055464
134	0x3cdf03a3	0.027223414
135	0x3da0a794	0.07844463
136	0x3da37643	0.07981541
137	0xbce169f3	-0.02751634
138	0x3b7bca00	0.0038419962
139	0xbd86ac23	-0.06575801
140	0xbbc3c4ed	-0.005974403
141	0xbd7ea118	-0.06216535
142	0x3db6306d	0.08895955
143	0x3c9fb482	0.019495253
144	0x3cbb1f0f	0.022841958
145	0x3d3a5f01	0.04550076
146	0x3d11f177	0.03563067
147	0xbd15cb80	-0.036571026
148	0xbd05f467	-0.032703783
149	0xbd2ee5de	-0.042699687
150	0xbd53941b	-0.051654916
151	0xbca65a85	-0.020306835
152	0x3c6d5011	0.014484421
153	0x3c0f56a6	0.008748686
154	0x3d41a3cf	0.04727536
155	0xbdb211ad	-0.08694778
156	0xbdd04ab2	-0.10170497
157	0xbd731fec	-0.059356615
158	0x3d744022	0.059631474
159	0x3daca81a	0.084305
160	0xbdd805d5	-0.10547987
161	0xbd1a7513	-0.037709307
162	0xbb565ae8	-0.0032707993
163	0xbc8cca11	-0.017186197
164	0x3ce2710f	0.027641801
165	0xbcee3686	-0.029078733
166	0xbcd1d83c	-0.025615804
167	0xbb1b8ea4	-0.0023736143
168	0xbcb52c29	-0.022115784
169	0x3d925ba9	0.07146389
170	0x3d91f7d5	0.07127348
171	0x3c64f94d	0.013975454
172	0xbcc5572d	-0.02408942
173	0x3dc0f195	0.09421078
174	0x3c0ef75c	0.008725967
175	0xbd05317f	-0.032517906
176	0x3cf90972	0.030400012
177	0x3a58565e	0.0008252616
178	0x3d4fc99f	0.05072939
179	0xbb0cccdc	-0.002148441
180	0x3dac5736	0.08415072
181	0x3c0b5bbb	0.008505757
182	0xbc80fc3a	-0.015745271
183	0xbcd6e923	-0.026234215
184	0x3d6c862f	0.057745155
185	0xbd1fa769	-0.038978014
186	0xbd3698db	-0.044579368
187	0x3c3f70c3	0.011684599
188	0x3d8f232c	0.069891304
189	0x3cb9b17b	0.022667637
190	0x3d24d2b0	0.04023999
191	0xbd367cc2	-0.044552572
192	0xbd38feb3	-0.045164775
193	0xbcef3bb1	-0.029203268
194	0xbd30c54f	-0.04315692
195	0x3d629438	0.055317134
196	0x3d3f3053	0.046676945
197	0x3d7d1615	0.061788637
198	0xbc7bdd2a	-0.015372554
199	0xbc9c0f93	-0.019050395
200	0xbd57c028	-0.05267349
201	0x3d466985	0.048440475
202	0xbd953d48	-0.07287079
203	0x3d31eeb1	0.043440524
204	0x3ce16862	0.027515594
205	0xbda0098a	-0.078143194
206	0xbc6af18b	-0.014339815
207	0x3d3e4f96	0.046462618
208	0x3dcb08c7	0.099137835
209	0xbd128424	-0.03577055
210	0xbc1529b3	-0.00910418
211	0x3dd99849	0.10624749
212	0xbd3f843b	-0.046756964
213	0xbcd72167	-0.026261045
214	0x3d97ead6	0.07417838
215	0x3d9036bd	0.070416905
216	0x3d399254	0.045305565
217	0x3d8b5174	0.06802645
218	0x3c1df48c	0.009640824
219	0xbdb9ffcb	-0.09081992
220	0xb9553388	-0.0002033246
221	0xbdc13825	-0.09434537
222	0x3dacccda	0.0843751
223	0x3d37b5fa	0.04485128
224	0x3d6b1b8a	0.05739931
225	0xbd48bd42	-0.049008615
226	0x3b99c3c6	0.0046925275
227	0xbb06b516	-0.0020554713
228	0xbdb00698	-0.08595008
229	0x3d96cbc8	0.07363087
230	0x3caf569e	0.021403607
231	0x3d54088e	0.05176597
232	0xbd71aa34	-0.05900021
233	0x3d8aadd7	0.067714386
234	0xbd637fdd	-0.05554186
235	0xbdb8fe1e	-0.09032844
236	0xbd879543	-0.06620266
237	0x3d5bc715	0.053656656
238	0xbd2c92e9	-0.042132292
239	0x3d7ef7db	0.062248092
240	0xbbf54e6c	-0.0074861553
241	0xbccc2775	-0.024921158
242	0x3c867465	0.016412923
243	0xbd2498f2	-0.040184923
244	0x3c089eca	0.0083386395
245	0x3dd35c20	0.10320306
246	0x3dcdda08	0.10051352
247	0x3d4902e0	0.049075007
248	0x3c4a2893	0.012338775
249	0xbd223246	-0.039598726
250	0x3cbaed96	0.022818368
251	0xbda80cfb	-0.08205601
252	0x3db70393	0.089362286
253	0xbd17c579	-0.03705356
254	0x3d1364ec	0.03598492
255	0xbcdc946b	-0.02692624

bias f4 [128]
0	0x3bafc3bb	0.005363909
1	0xbd018f74	-0.03163095
2	0x3d38f380	0.045154095
3	0x3d715157	0.058915462
4	0xbd0df702	-0.034659393
5	0xbc8a2d65	-0.016867349
6	0x3d9794ea	0.0740145
7	0xbd7151a5	-0.058915753
8	0x3dad21b6	0.084536955
9	0x3d9b8c1f	0.07595085
10	0x3d94194f	0.0723139
11	0xbcc33414	-0.023828544
12	0x3b542f20	0.0032376722
13	0xbd57da91	-0.052698676
14	0x3d74c571	0.059758607
15	0x3c9c1fa3	0.019058054
16	0x3c0cc057	0.008590779
17	0xbc210ddc	-0.0098299645
18	0xbabbdc9e	-0.0014332717
19	0x3d9cf5ce	0.07664071
20	0x3bf20ee2	0.007387028
21	0x3da86174	0.08221713
22	0xba8f0ac1	-0.0010913239
23	0xbca80c04	-0.020513542
24	0x3dcd5b0a	0.1002713
25	0x3d1a2a74	0.037638143
26	0xbcf2d367	-0.02964182
27	0x3d97ac7f	0.07405948
28	0x3d0966b6	0.03354522
29	0x3dae6f09	0.08517272
30	0x3d6829e3	0.05668057
31	0xbd4a9126	-0.04945483
32	0xbd21d8a7	-0.039513256
33	0xbd83f0c1	-0.064424045
34	0x3cae7495	0.021295825
35	0x3d3a0b49	0.04542092
36	0xbd627f2d	-0.055297066
37	0x3da841a4	0.08215645
38	0x3c2167cf	0.00985141
39	0x3dcb6b4a	0.09932573
40	0x3bdef7de	0.0068044504
41	0x3de17cf9	0.11010165
42	0xbd85af6d	-0.065276004
43	0x3d9f2bea	0.07772048
44	0x3be2a8b2	0.0069170827
45	0x3cd47fa4	0.02593977
46	0xba1115dd	-0.0005534569
47	0xbd5db61a	-0.054128744
48	0xbcd2b57c	-0.025721304
49	0x3db31b7f	0.08745479
50	0x3d416816	0.047218405
51	0x3d41481a	0.047187902
52	0xbd09ee19	-0.033674333
53	0x3da25370	0.07926071
54	0xbc130058	-0.00897225
55	0xbd4ed4b3	-0.050495815
56	0x3d90ad06	0.070642516
57	0x3d136e0a	0.035993613
58	0xbcbc0b4f	-0.022954611
59	0x3c930572	0.017946932
60	0x3d9c8906	0.07643323
61	0x3d936a5e	0.07198022
62	0xbd1eb3d4	-0.038745716
63	0x3d475724	0.04866709
64	0x3d1fb1be	0.038987868
65	0x3da31ac1	0.07964087
66	0x3d6c636b	0.057712
67	0xbdb4b53b	-0.088236295
68	0x3d4de25a	0.050264694
69	0xbb9fb15a	-0.004873437
70	0x3ca9ac60	0.020712078
71	0x3d7deb89	0.061992202
72	0xbce66383	-0.028123623
73	0x3d9d30e6	0.07675342
74	0xbd04b3cc	-0.03239803
75	0x3cb8d4a6	0.022562336
76	0x3d1f77e5	0.0389327
77	0x3de78646	0.113049075
78	0x3d1cb5e5	0.038259406
79	0xbd298f95	-0.041396696
80	0xbb5f9110	-0.0034113564
81	0x3cbf1224	0.02332408
82	0x3dbaa526	0.09113531
83	0xbc327779	-0.010892742
84	0x3b077655	0.0020669897
85	0xbd80a67a	-0.06281753
86	0xbd692ef7	-0.056929555
87	0x3d6ff5cd	0.058584023
88	0x3caf68ea	0.021412332
89	0xbcf0b011	-0.02938083
90	0xbd983a6b	-0.07433017
91	0xbd0a948f	-0.033833083
92	0x3d539a83	0.051661026
93	0x3d0f6c16	0.03501519
94	0xbd5d03d8	-0.053958744
95	0xbda0ccc7	-0.07851558
96	0x3cc81a15	0.0244265
97	0xbd5e10ee	-0.054215364
98	0xba8e1444	-0.001083978
99	0x3cea9ce8	0.028639272
100	0xbd9d6a65	-0.07686309
101	0x3d4202f6	0.047366105
102	0x3dab1bc6	0.08354907
103	0xbd928e45	-0.07156042
104	0xbca1fe9b	-0.019774726
105	0xbcfcb37c	-0.030847304
106	0x3cd56440	0.02604878
107	0x3cd1ca9c	0.025609307
108	0xbc1b35d4	-0.009473283
109	0xbdae5502	-0.08512308
110	0x3b1cf811	0.002395157
111	0x3cc47846	0.023983132
112	0x3b2121e6	0.0024586855
113	0xbc2f5780	-0.010702014
114	0x3d555109	0.052079234
115	0xbcd6e6e3	-0.026233142
116	0x3d402927	0.046914246
117	0x3ce9e20e	0.028550174
118	0xbd8ec168	-0.06970483
119	0x3d1fa1c8	0.038972646
120	0xbd5c11bc	-0.05372785
121	0x3d26f98a	0.040765323
122	0xbd0ddef3	-0.03463645
123	0xbcd7a053	-0.026321566
124	0xbd8336a4	-0.06406906
125	0x3c59cd86	0.0132936295
126	0xbd20a3a4	-0.03921856
127	0xbc4fa98a	-0.012674699

weight f4 [128, 128]
0	0xbcc8435c	-0.024446182
1	0x3c958c87	0.018255485
2	0x3d3d049e	0.04614698
3	0x3cb66c78	0.022268519
4	0xbc828a0d	-0.015934968
5	0x3c4b6969	0.012415268
6	0xbd64f2be	-0.05589556
7	0xbd3a3564	-0.045461074
8	0x3d825bb9	0.06365151
9	0x3dc16d50	0.09444678
10	0x3d51d9a9	0.051232968
11	0xbd52cea0	-0.051466584
12	0xbdbbeb5c	-0.091757506
13	0xbb485bb0	-0.0030572228
14	0x3dbf39aa	0.093371704
15	0xbc417d53	-0.011809665
16	0x3bb2acb3	0.0054527163
17	0xbd8d383a	-0.0689549
18	0xbda1fc15	-0.07909409
19	0xbbf6dd3d	-0.007533698
20	0x3d4940d9	0.04913411
21	0x3d596a8a	0.05308012
22	0x3ce4208f	0.027847556
23	0x3db3ba58	0.087757766
24	0x3d46c4cc	0.048527524
25	0x3ce28660	0.027651966
26	0x3d15132d	0.03639524
27	0x3d8e235c	0.06940338
28	0x3db8b8bd	0.09019611
29	0xbd2669f4	-0.04062839
30	0xbd9ef6ef	-0.077619426
31	0xbcd61cd9	-0.026136803
32	0xbbef88c9	-0.0073100072
33	0x3d5c5077	0.053787675
34	0xbd0114f4	-0.031514123
35	0x3cb1ca29	0.021702843
36	0x3d482897	0.048866834
37	0x3cc9c8b6	0.02463184
38	0x3d52a213	0.051424097
39	0x3c4ac4a5	0.012375985
40	0xbd4a44b1	-0.049381915
41	0x3d8dc12c	0.0692161
42	0x3dce064e	0.10059796
43	0x3d0c098b	0.03418879
44	0xbcd065d3	-0.025439179
45	0x3d304f30	0.04304427
46	0x3c61116b	0.013737063
47	0xbada025e	-0.0016632786
48	0x3d690e30	0.056898296
49	0xbcd58eb5	-0.026069025
50	0xbd62bf63	-0.0553583
51	0xbca8f2cc	-0.020623587
52	0xbb4bfdc9	-0.003112661
53	0xbc79207a	-0.015205497
54	0xbd84b37a	-0.06479545
55	0xbd5c80e1	-0.053833846
56	0xbda4c464	-0.08045271
57	0x3dad2848	0.08454949
58	0xbd2df315	-0.04246815
59	0x3d660bd5	0.056163628
60	0xbbf0ea2e	-0.007352135
61	0xbd58efdd	-0.052963126
62	0x3da611a0	0.081088305
63	0xbd724ae8	-0.059153467
64	0x3d9fc120	0.078005075
65	0x3c67c37f	0.014145731
66	0x3d71bad0	0.05901605
67	0xbd46f327	-0.048571732
68	0xbddf5c8a	-0.10906322
69	0xbc9f0a3a	-0.019414056
70	0x3d4503b9	0.048099253
71	0xbd8ce8b2	-0.068803206
72	0xbd4896a1	-0.048971776
73	0x3db4703d	0.0881047
74	0x3d1b84a6	0.0379683
75	0xbd93cf62	-0.072172895
76	0x3c6989a8	0.014254011
77	0x3d871f40	0.06597757
78	0xbd20c364	-0.03924884
79	0xbbb84a39	-0.0056240824
80	0x3d9d3a00	0.07677078
81	0x3be14344	0.0068744738
82	0xbcbb84c8	-0.022890463
83	0xbda87946	-0.08226256
84	0x3dbb42e4	0.09143618
85	0xbda85534	-0.08219376
86	0xbc9f10ff	-0.019417284
87	0xbd88189e	-0.0664532
88	0xbd63ba67	-0.05559769
89	0x3d998737	0.07496493
90	0x3d955a04	0.0729256
91	0xbd81f90b	-0.06346329
92	0xbbefa726	-0.007313627
93	0x3ca4a2bb	0.020097127
94	0x3d860b8e	0.06545173
95	0xbd9ab9df	-0.07554983
96	0xbc27f418	-0.010251068
97	0x3b66de74	0.0035227807
98	0x3cb4cab2	0.022069309
99	0x3c0b99ab	0.008520524
100	0x3d9067d6	0.07051055
101	0xbb2a6ce1	-0.0026004838
102	0xbc25c98e	-0.010118855
103	0xbd725fe3	-0.059173476
104	0x3d1976aa	0.037466682
105	0xbdc67d18	-0.096918285
106	0xbc01c464	-0.007920358
107	0x3d9077b7	0.07054084
108	0xbd2354c0	-0.039875746
109	0xbdae7434	-0.08518258
110	0xbc260fe1	-0.010135622
111	0x3ce426fb	0.027850619
112	0x3d53c018	0.051696867
113	0x3c4d5824	0.012533221
114	0x3d39e2bc	0.045382246
115	0xbcba86cd	-0.022769356
116	0x3dda0429	0.10645325
117	0xbd84cf25	-0.06484822
118	0xbd64d9f9	-0.055871937
119	0x3db04d0d	0.08608446
120	0x3d2eaf47	0.042647626
121	0x3d33373a	0.04375384
122	0x3d35d1c5	0.044389505
123	0xbcb84b9d	-0.022496993
124	0xbd866293	-0.0656177
125	0xbd3405e5	-0.043950934
126	0x3c5ad611	0.0133567015
127	0xbd1bfecd	-0.038084794
128	0xbda29ad0	-0.079396844
129	0xbd27b695	-0.04094561
130	0xbd926cf8	-0.071496904
131	0xbd0c0475	-0.034183938
132	0xbc31544c	-0.010823321
133	0xbd59d8f3	-0.053185415
134	0xbc91849e	-0.017763432
135	0x3d281363	0.041034114
136	0xbda9b32b	-0.08286127
137	0x3d94f2ab	0.07272848
138	0x3db9ebd4	0.09078184
139	0x3dc8157d	0.097697236
140	0xbba81ec2	-0.0051306197
141	0xbd8f967b	-0.07011124
142	0x3b014363	0.0019724004
143	0x3d4b5f3b	0.049651366
144	0x3c56e48a	0.013116011
145	0x3c9e19c4	0.019299395
146	0x3d88cea2	0.06680037
147	0xbd59ba30	-0.053156078
148	0xbd714464	-0.058903113
149	0x3cfcd4d5	0.030863205
150	0x3dd15c6b	0.102227055
151	0xbcd81752	-0.026378307
152	0xbbaea4b2	-0.005329692
153	0x3d211482	0.0393262
154	0xbd77216c	-0.060334608
155	0xbce8d2d4	-0.028420843
156	0xbdc695e0	-0.09696555
157	0x3dd93869	0.106064625
158	0x3b636a22	0.0034700711
159	0x3d82c40c	0.06385049
160	0xbb5c3c38	-0.003360523
161	0xbd2d8e87	-0.042372253
162	0xbc4942a1	-0.012283952
163	0x3d752473	0.059849214
164	0x3cac46e6	0.0210299
165	0xbd8a0582	-0.06739332
166	0x3d6ee53e	0.05832409
167	0x3cbf85e6	0.023379277
168	0xbcf0684b	-0.029346606
169	0xbd5d4016	-0.054016195
170	0xbd839b4e	-0.064261064
171	0xbd258bad	-0.04041641
172	0x3cccf7e6	0.025020551
173	0x3c64cc5c	0.013964739
174	0xbd80acd5	-0.06282965
175	0x3d2443e5	0.04010381
176	0x3c9c87d9	0.019107746
177	0x3da0ca28	0.07851058
178	0x3d0a1b4d	0.033717442
179	0xbd2b0841	-0.04175592
180	0xbc2f7b0d	-0.01071049
181	0x3de2812c	0.11059794
182	0x3bc2b175	0.0059415647
183	0xbd324724	-0.043524876
184	0x3d70ae80	0.058760166
185	0x3d9f767e	0.077862725
186	0xbce8e77d	-0.028430695
187	0x3d3a5427	0.04549041
188	0x3dc9d21e	0.0985453
189	0x3d9a7fce	0.07543908
190	0xbd23ec6a	-0.040020384
191	0x3c87bc3b	0.016569247
192	0x3d15483b	0.036445837
193	0x3d275588	0.040853053
194	0x3c360ffe	0.011112211
195	0x3da18bec	0.07888016
196	0xbc1b42c5	-0.009476368
197	0x3bc869d7	0.0061161327
198	0x3ce8cd8c	0.028418325
199	0x3dbbcd22	0.09169985
200	0x3c7c9e49	0.0154185975
201	0x3d4e3378	0.050342053
202	0x3c99c7ca	0.018772025
203	0xbd0f28c0	-0.03495097
204	0x3dafbb62	0.08580662
205	0x3c700a8b	0.014650951
206	0xbdba20e3	-0.09088304
207	0x3d906e8f	0.070523374
208	0xbc9fa13c	-0.019486062
209	0x3d856618	0.065136135
210	0x3de0deba	0.10979982
211	0x3d309917	0.043114748
212	0x3d877ae3	0.06615236
213	0x3cb609d0	0.022221476
214	0xbcda679c	-0.026660733
215	0x3d4ec33b	0.050479155
216	0x3c7012c8	0.014652915
217	0xbc4bde41	-0.012443126
218	0x3d95147b	0.07279297
219	0x3db963c5	0.09052233
220	0x3d2815d1	0.04103643
221	0x3bce0c89	0.0062881154
222	0xbc47737b	-0.012173529
223	0xbc990696	-0.018679898
224	0x3cd305e7	0.02575965
225	0xbd88bc2f	-0.06676518
226	0xbd74b178	-0.05973956
227	0x3d11bffa	0.035583474
228	0x3d57b052	0.052658387
229	0xbc7a5365	-0.015278672
230	0x3ddca65d	0.10773919
231	0x3d24aad1	0.040201966
232	0xbd09c47c	-0.033634648
233	0x3c3d9321	0.011570723
234	0xbb8fb6d4	-0.0043858085
235	0x3d14b0f0	0.036301553
236	0xbd69373b	-0.056937438
237	0x3d146e6c	0.03623812
238	0xbd8d597f	-0.06901836
239	0x3d95c176	0.0731229
240	0xbd12e30c	-0.03586106
241	0x3da05c36	0.07830088
242	0xbd8bc138	-0.06823963
243	0xbc297976	-0.0103439
244	0x3c6c62a3	0.014427814
245	0xbcaaaaca	-0.020833392
246	0x3e0338dd	0.1281466
247	0x3d375997	0.044763174
248	0x3d326056	0.043548904
249	0x3dbd648c	0.092476934
250	0xbd8c9c39	-0.068657346
251	0xbcbad472	-0.02280638
252	0x3d59d70f	0.05318361
253	0xbda80c2a	-0.08205445
254	0xbcd3f755	-0.025874773
255	0xbc191fe4	-0.009345982

bias f4 [128]
0	0xbd4a677f	-0.049415108
1	0xbd9dc4a2	-0.0770352
2	0xbd60805f	-0.054809924
3	0xbcf8f888	-0.030391946
4	0x3d14d725	0.03633799
5	0x3b7847e8	0.0037884656
6	0x3dbb91d7	0.09158676
7	0xbd26a918	-0.040688604
8	0x3ba495b8	0.0050227307
9	0x3c80e6c4	0.015735038
10	0xbc8eb6f6	-0.017421227
11	0xbb42549c	-0.0029652482
12	0x3cf1537e	0.029458757
13	0xbc7c8858	-0.015413366
14	0x3c90fd9f	0.017699061
15	0x3da13474	0.07871333
16	0x3c001ba0	0.007819086
17	0xbd50e36f	-0.050998148
18	0xbc1ad856	-0.009450993
19	0x3d0a218b	0.033723395
20	0x3db3792f	0.08763348
21	0x3dc77039	0.09738202
22	0xbdadcd29	-0.08486397
23	0xbc35a09e	-0.011085657
24	0x3d9e0960	0.07716632
25	0xbc859e6c	-0.016310893
26	0xbb2c40ae	-0.002628367
27	0xbd347aa8	-0.044062287
28	0xbd8cc488	-0.06873423
29	0x3d0836ce	0.03325539
30	0x3c2e2ca7	0.010630763
31	0xbcbc8a43	-0.023015147
32	0x3c3ee677	0.011651627
33	0xbd2e08ff	-0.042489048
34	0xbb91f2f9	-0.0044540134
35	0xbc63ff81	-0.013915897
36	0xbd86ef40	-0.06588602
37	0x3d94e95c	0.07271072
38	0x3d365b2a	0.044520535
39	0x3dbe5e10	0.09295285
40	0x3d274391	0.04083592
41	0x3d93429b	0.07190438
42	0x3d91bbed	0.07115922
43	0xbd17fc34	-0.037105754
44	0xbce02925	-0.02736337
45	0xbcca4543	-0.02469123
46	0x3d1b432c	0.037905857
47	0xbcdc508c	-0.026893876
48	0xbc863f98	-0.016387746
49	0x3b730358	0.003708085
50	0x3b92370f	0.00446213
51	0xbc8061b3	-0.015671587
52	0x3c937756	0.01800124
53	0x3dbb1feb	0.09136947
54	0xbc7e7c25	-0.015532528
55	0x3d01e159	0.03170905
56	0x3d63c7a3	0.05561031
57	0x3dc6fc28	0.09716064
58	0xbc84cef0	-0.016211957
59	0x3dcbfd57	0.0996043
60	0x3d63662d	0.055517364
61	0xbcdc2625	-0.026873657
62	0x3d992a86	0.07478814
63	0x3d458bed	0.048229147
64	0xbd74bcc4	-0.059750333
65	0xbc572d20	-0.013133317
66	0x3d074752	0.033027
67	0x3d0045ee	0.03131669
68	0x3d5f3fe7	0.0545043
69	0x3c4dbc36	0.01255708
70	0x3bd7c335	0.00658455
71	0xbd974163	-0.073855184
72	0x3d059bc1	0.03261924
73	0x3c903c9b	0.017607024
74	0x3d56405a	0.052307464
75	0x3dcfb234	0.101414114
76	0x3d87cb39	0.066305585
77	0x3cfad8c0	0.030620933
78	0x3c31061b	0.010804678
79	0xbb411942	-0.0029464518
80	0xbcf26b7f	-0.029592274
81	0x3d55eb2f	0.05222624
82	0xbd087f15	-0.03332432
83	0xbd0f034f	-0.034915265
84	0x3d3a8ef5	0.04554649
85	0x3db32c5d	0.08748696
86	0x3c090fcc	0.008365583
87	0x3ac63e97	0.0015124854
88	0xbd8f5143	-0.06997921
89	0xbd40f5c4	-0.04710938
90	0xbc445789	-0.011983761
91	0x3d833017	0.06405657
92	0x3d934d60	0.071924925
93	0x3cfca02f	0.0308381
94	0x3db5a827	0.08869963
95	0xbcc23420	-0.023706496
96	0xbbe92125	-0.007114547
97	0x3c722117	0.014778397
98	0x3d8cb0be	0.068696484
99	0x3de2612d	0.11053691
100	0x3d78bff3	0.060729932
101	0xbd26efab	-0.04075591
102	0x3d153093	0.036423277
103	0xbcfb7fe5	-0.030700633
104	0x3d1d5c29	0.03841797
105	0xbd4d51b5	-0.05012675
106	0x3d78119b	0.060563665
107	0x3d9e091b	0.077165805
108	0xbd33b099	-0.04386959
109	0xbd92428b	-0.07141598
110	0x3d9bfc84	0.07616523
111	0x3d3fd75c	0.046836242
112	0x3d767f13	0.06017978
113	0x3dc05830	0.093918204
114	0x3da49cf4	0.08037749
115	0x3d859636	0.06522791
116	0x3be07158	0.006849449
117	0x3d3ef397	0.046619024
118	0x3ca918a2	0.020641629
119	0x3dbdda7b	0.092701875
120	0xbc5bce72	-0.01341592
121	0xbd822cd0	-0.063562036
122	0xbd91b873	-0.07115259
123	0xbd442a6c	-0.04789202
124	0xbd684b88	-0.056712657
125	0xbd84ecc2	-0.064904705
126	0x3c6a5ccf	0.014304354
127	0x3d58fc27	0.052974846

weight f4 [2, 128]
0	0xbdeaddf1	-0.11468113
1	0x3c8ffca0	0.017576516
2	0x3d91a2e2	0.071111456
3	0xbde33c2c	-0.11095461
4	0xbca6454e	-0.020296719
5	0x3dca5166	0.09878807
6	0x3dc882db	0.09790584
7	0xbdae8846	-0.08522086
8	0x3d0dc330	0.034609973
9	0xbda4c1bb	-0.08044764
10	0x3d255442	0.040363558
11	0xbcde3e25	-0.027129242
12	0xbde0d302	-0.109777465
13	0x3e026577	0.12734018
14	0x3dc7af12	0.09750189
15	0x3dbafea7	0.09130602
16	0x3d0c2f03	0.03422452
17	0x3dc6ca6c	0.09706578
18	0xbdb4bae4	-0.08824709
19	0x3d21ea80	0.039530277
20	0xbd3be71a	-0.045874692
21	0x3d6ef17a	0.05833576
22	0xbd930717	-0.07179087
23	0xbdf8d825	-0.12150601
24	0x3d081633	0.033224296
25	0xbb334bb7	-0.0027358362
26	0xbd63dc3f	-0.055629965
27	0xbdc2510e	-0.09488116
28	0xbdab9c1a	-0.083793834
29	0x3d1744ff	0.036931034
30	0xbdee789b	-0.116440974
31	0xbd9d619e	-0.076846346
32	0xbd8b7cf3	-0.068109415
33	0x3cc185f0	0.023623437
34	0x3cff0a37	0.0311328
35	0x3cb36f90	0.021903783
36	0x3b8c1ba1	0.0042757546
37	0xb8c4f6bd	-9.391967e-05
38	0x3d68220c	0.056673095
39	0x3def29d9	0.11677904
40	0xbc6211c0	-0.013798177
41	0x3dd07d56	0.10180156
42	0xbd3e07f0	-0.04639429
43	0x3e003721	0.1252103
44	0x3deb5aa2	0.11491896
45	0xbd70223a	-0.05862639
46	0xbd358e0b	-0.044324916
47	0xbd65467f	-0.055975433
48	0xbe032162	-0.12805703
49	0xbda7d648	-0.08195168
50	0xbd46f7ec	-0.04857628
51	0xbdd29e5c	-0.10284111
52	0x3dd38ea9	0.10329945
53	0x3d6de658	0.058081
54	0x3e0e3fcc	0.13891524
55	0x3d01e1af	0.03170937
56	0xbd120e1e	-0.035657994
57	0x3cae4dcd	0.021277333
58	0x3dee908c	0.11648664
59	0xbd5fec9a	-0.054669
60	0xbd7d5781	-0.06185103
61	0xbd1f6b43	-0.038920652
62	0x3ced1959	0.02894275
63	0xbba9aa38	-0.0051777624
64	0xba6b818d	-0.0008983843
65	0xbb7a8fba	-0.003823264
66	0x3df8b983	0.121447586
67	0xbe062800	-0.13101196
68	0xbd9faa29	-0.07796127
69	0xbcd310df	-0.02576488
70	0xbc6f92fc	-0.014622446
71	0x3d42f152	0.047593422
72	0xbdc44007	-0.09582525
73	0x3dd31b55	0.103079475
74	0xbd803744	-0.06260541
75	0xbd3c6314	-0.045992926
76	0xbde74607	-0.112926535
77	0x3c1cacbb	0.0095626665
78	0x3d8088ba	0.062760785
79	0x3bd36a0a	0.00645185
80	0x3de5e93d	0.11226127
81	0x3d8ccfde	0.06875585
82	0x3ce14f8e	0.027503755
83	0xbcb8e494	-0.022569932
84	0xbdd044ad	-0.10169349
85	0xbdef263f	-0.11677217
86	0xbca61233	-0.02027235
87	0xbdbc123d	-0.09183166
88	0xbd4a2148	-0.049348146
89	0x3d67503f	0.056473013
90	0x3de0dcb1	0.109795935
91	0x3d68fa52	0.05687935
92	0x3c4e7ee8	0.012603499
93	0x3d9e0dfa	0.077175096
94	0xbd92fff1	-0.07177723
95	0x3d3b157e	0.045674793
96	0xbddb36b0	-0.1070379
97	0xbceeb22b	-0.029137691
98	0x3daefbd1	0.08544124
99	0x3de79714	0.11308113
100	0xbd435ac0	-0.047693968
101	0x3b528576	0.0032123006
102	0x3deb2e9a	0.11483498
103	0xbd32df37	-0.043669906
104	0xbdc590df	-0.096467726
105	0xbdd6f30f	-0.104955785
106	0xbd9982c3	-0.07495644
107	0x3d9c3fd0	0.07629359
108	0xbd95fc39	-0.07323498
109	0x3c1a58d4	0.009420592
110	0x3c058982	0.00815046
111	0xbd5e5e17	-0.05428895
112	0x3d017d59	0.03161368
113	0x3de3bf8a	0.111205176
114	0xbda4839f	-0.08032917
115	0x3d3f32c6	0.04667928
116	0x3ca40eea	0.020026643
117	0xbdad00f9	-0.08447451
118	0x3d99272e	0.07478176
119	0xbcf566f8	-0.029956326
120	0xbda155e0	-0.078777075
121	0x3d9354cf	0.0719391
122	0x3cd8dfca	0.026473898
123	0xbcbe03ef	-0.023195235
124	0xbd9957b1	-0.07487429
125	0xbd6ef217	-0.058336344
126	0xbcaf73b4	-0.021417476
127	0x3d5cb996	0.053887926
128	0x3d193c44	0.03741099
129	0xbdb7d043	-0.0897527
130	0x3d3084cd	0.0430954
131	0x3d84ef2f	0.06490933
132	0x3dcaeabc	0.09908053
133	0xbc92ece7	-0.01793523
134	0xbd25be95	-0.040464956
135	0x3c4ba37c	0.012429114
136	0xbdc91d3a	-0.09820028
137	0x3d05b406	0.032642387
138	0xbd607ed5	-0.054808456
139	0x3d27e166	0.04098644
140	0x3dd51af1	0.10405529
141	0xbd0acc9c	-0.033886537
142	0xbd9101bd	-0.0708041
143	0x3c9e9b53	0.019361174
144	0xbdd80a9e	-0.105489
145	0x3c34b570	0.011029586
146	0x3d62b6c8	0.055350095
147	0xbd4d259b	-0.05008469
148	0x3dcfbc84	0.101433784
149	0xbd97d9e3	-0.074146055
150	0xbd914385	-0.070929565
151	0xbc3d6960	-0.011560768
152	0xbdc45707	-0.09586912
153	0x3cd5b2a2	0.026086155
154	0x3d9499dc	0.07255909
155	0x3d11adda	0.03556619
156	0x3c94c7a3	0.0181616
157	0xbdc5a785	-0.096510924
158	0x3dd34eb4	0.10317746
159	0xbd9ac31e	-0.07556747
160	0x3d0ade16	0.033903204
161	0xbc6d1954	-0.014471371
162	0x3c0c3ed3	0.0085599
163	0xbda0c7e1	-0.07850624
164	0xbdbfdeac	-0.09368643
165	0x3d561b63	0.05227221
166	0xba3b4578	-0.00071438355
167	0xbddcd1d9	-0.10782213
168	0x3da039c1	0.07823516
169	0xbd743eb2	-0.059630103
170	0x3dd15509	0.10221297
171	0x3d291c01	0.041286472
172	0xbd99afa1	-0.07504202
173	0x3de4796b	0.11155971
174	0x3d83061f	0.06397652
175	0xbd9cee8a	-0.07662685
176	0x3d265886	0.040611766
177	0x3d0b9390	0.034076273
178	0x3c9765b1	0.018481107
179	0x3c00fa25	0.007872139
180	0xbdd49c27	-0.10381346
181	0xbdf1e6a7	-0.118115716
182	0xbdeca284	-0.11554435
183	0x3d7566cb	0.059912484
184	0x3dfb7fcb	0.12280234
185	0xbd8dcf50	-0.06924307
186	0xbdf53a86	-0.11974053
187	0x3d4dbf7a	0.050231434
188	0x3d630256	0.05542215
189	0x3dd35062	0.10318066
190	0xbdc4a694	-0.09602085
191	0xbd08c08d	-0.033386756
192	0x3cbaa7fc	0.02278518
193	0x3de5190f	0.1118642
194	0xbdf2d400	-0.11856842
195	0x3d71de67	0.05904999
196	0x3cd0f342	0.02550662
197	0x3da7b3f6	0.08188622
198	0xbdbed7f0	-0.093185306
199	0x3d4bc0e1	0.04974449
200	0x3db58a16	0.088642284
201	0xbd8e3a73	-0.06944742
202	0x3ce33cc3	0.027738934
203	0x3e0650c2	0.13116744
204	0x3cec7ee3	0.028869098
205	0xbdfee0b3	-0.12445202
206	0xbd04d4bb	-0.032429438
207	0x3de1a820	0.110183954
208	0x3d3c9c6b	0.04604761
209	0xbdbd5ffb	-0.092468224
210	0xbbdca3b1	-0.0067333807
211	0x3dfea573	0.12433901
212	0x3d5d0bea	0.05396644
213	0x3c760c6d	0.015017611
214	0x3db38146	0.08764891
215	0x3d9982b8	0.07495636
216	0x3cca1f46	0.024673115
217	0xbdef70af	-0.116914146
218	0xbde7f508	-0.11326033
219	0xbd9ef1cf	-0.07760965
220	0x3da70d06	0.08156781
221	0x3d645cf9	0.055752728
222	0x3de76bce	0.11299859
223	0xbd5e3722	-0.054251797
224	0x3d9679c2	0.07347442
225	0xbda2d5bd	-0.079509236
226	0x3cd52549	0.026018756
227	0x3caccb99	0.021093177
228	0x3d786a27	0.06064811
229	0x3d944828	0.07240325
230	0xbcc85fdd	-0.024459774
231	0x3d3f4967	0.04670086
232	0x3d97c167	0.074099354
233	0x3db44bfe	0.08803557
234	0x3de23693	0.110455655
235	0xbdb982a7	-0.09058123
236	0xbb282dc1	-0.0025662037
237	0xbd9e7184	-0.07736495
238	0xbdc8fcf2	-0.098138705
239	0x3d83d3ed	0.06436906
240	0xbd9b6c9c	-0.07589075
241	0xba906a26	-0.0011017963
242	0x3db50ec4	0.08840707
243	0xbda9db43	-0.08293774
244	0xbdf2513c	-0.118319005
245	0x3d1d836d	0.038455416
246	0xbcbfabd5	-0.023397366
247	0x3dbc2b75	0.09187976
248	0x3d5edf17	0.054411974
249	0x3d764ed2	0.060133763
250	0xbd88e8fd	-0.06685064
251	0xbd892d4a	-0.06698091
252	0x3d1ed022	0.03877271
253	0x3d3f4bf8	0.04670331
254	0xbc9954a3	-0.018717116
255	0xbd62794f	-0.05529147

bias f4 [2]
0	0xbc8a67be	-0.016895171
1	0x3ccdbb63	0.025113767
